Region 2 B-Field Trained On Boundary (32, 8).pth (torch, 37326 bytes, 18 tensors)

layers.0.weight f4 [32, 3]
00000000: fd93 013f 70d3 ebbd 1ef9 8a3d 5a5b 57be
00000010: 74f9 fcbe 38c5 1e3e d212 0f3f c93b 46be
00000020: cae4 e8be dc88 d1be 8576 823e f86a ea3e
00000030: c9fe f53b c0da 90bd 881e f63e 783e d83d
00000040: dc98 ba3e b4eb 943d 2a3a d7bd 5cc3 c5be
00000050: 4147 fabe 22b5 7f3e c916 db3e e615 513f
00000060: 02a2 2c3f 95b5 2a3f c849 703f bc83 12bf
00000070: 1bf1 c33e 3089 853d 08bb 903e fb44 cdbd
00000080: 444e b63c 2938 9bbe b873 1abd e424 393e
00000090: 070f 27bb b8f0 0bbd b632 193f 8c4d 173f
000000a0: 0c48 37bf 7c10 93bd 5547 b4be 2214 b9be
000000b0: f4dc 8dbf 6d8e f2bc 486d a43e 3dbe adbd
000000c0: 34d1 a13e 9036 a2be 710b 53bf e51d 8fbe
000000d0: 4c76 93be 216c 143f 630a 6bbe 9959 053f
000000e0: de21 4abf a7a0 0d3e 59f8 1c3e 1cc8 02bf
000000f0: af15 093e 1dba 34be d40d 0a3f 36b2 7abc
00000100: c96c bdbd 2eaa bd3c 4ffd f5be 4a2a 0e3f
00000110: 6015 3ebe 8aec ecbe 6051 79be ca48 af3d
00000120: b70d f8bd 1f62 6fbe 9838 db3d 0259 23be
00000130: 121c 36be f23b 383e b61d 99be 8b5b 993c
00000140: f3b2 803d 8a15 f3be 13c9 26be 0c01 31bf
00000150: 0835 1f3f b04c 26bf 93d7 643e 5279 3cbe
00000160: dfa4 96bd 3189 d93e 0f25 a4be 0378 1bbe
00000170: 2a87 46be 2254 18be e3db d73e 2f80 ebbb
0.5061644 -0.11514938 0.067857966 -0.21030942 -0.49409068 0.1550492 0.5588809 -0.19358744
-0.45487052 -0.40924728 0.25481048 0.45784736 0.0075071794 -0.07072973 0.48070168 0.1055879
0.36444747 0.07271519 -0.10509141 -0.3862561 -0.48882487 0.2497144 0.4279082 0.8167404
0.67434704 0.6668332 0.9386258 -0.5723226 0.38269886 0.06520307 0.28267694 -0.100229226
0.022254117 -0.30316284 -0.037708014 0.18080479 -0.0025491135 -0.034165114 0.59843004 0.591027
-0.7159431 -0.071808785 -0.35210672 -0.36148173 -1.1083055 -0.02960893 0.32114625 -0.08483551
0.31604922 -0.31682253 -0.82439333 -0.27952495 -0.2880119 0.5797749 -0.22953181 0.5208984
-0.7895793 0.13830815 0.15329112 -0.5108659 0.13387178 -0.17649122 0.5392735 -0.015301278
-0.09249265 0.023152437 -0.48044822 0.5553328 -0.18562841 -0.46274215 -0.24347448 0.08558805
-0.12111991 -0.23377274 0.10704154 -0.15951923 -0.17784145 0.17991617 -0.2990548 0.018720409
0.06284132 -0.4747737 -0.16287641 -0.6914222 0.62190294 -0.64960766 0.2234786 -0.18405655
-0.073556654 0.4248748 -0.32059523 -0.151825 -0.19387498 -0.14875844 0.42159948 -0.0071869115

layers.0.bias f4 [32]
00000000: 7797 5b3f 97bc 253f 569a 6fbf 5d1d 67be
00000010: e055 c53d 99ec 46bf 5e05 c33e 7859 2b3f
00000020: c968 3d3d 265d 463d 8b8d 30bf 82b1 2bbf
00000030: b280 6d3f 1fe5 4a3e c896 9e3d 1f5b 733f
00000040: 4133 8dbf f6be 113f 1972 27bf 3df6 0c3f
00000050: 2fda 70be 7c38 703f 182f e7be 92b2 283f
00000060: 9393 35be 9ab5 743b 00fb 8bbf 4fb4 42bf
00000070: 6bdd 7bbe 8848 d93d 9680 373f 358b 343f
0.8577799 0.6474089 -0.9359487 -0.22569795 0.0963552 -0.7770477 0.38090032 0.66933393
0.04624251 0.048428677 -0.6896598 -0.6706773 0.927745 0.19813965 0.07743603 0.95060915
-1.1031266 0.5693201 -0.65408474 0.5506323 -0.2352073 0.9383619 -0.45153117 0.65897477
-0.17732076 0.0037339688 -1.0935974 -0.7605638 -0.24596183 0.10609537 0.7168058 0.70524913

layers.1.weight f4 [32, 32]
00000000: cd6e 58bd a40c d1be 91e4 ea3d 8baa 6cbd
00000010: 0768 8bbc 034c 8e3e 7696 87be d3df e2bd
00000020: 8df8 51be 5f72 153d 8b79 003d b9dc dd3d
00000030: 717c 063b 75c6 4dbd 64a7 bbbe 6ca6 37bd
00000040: e529 8fbd 1381 d3bd a26d 14bd 97b6 583c
00000050: b100 073e f4b3 b53e 39ee 363e 0870 c6bd
00000060: bdb7 22be 210f 55be 349e 963e 2811 3c3e
00000070: 6bf0 a8bd f9a9 203e 57bc 3bbc 5c74 0e3d
00000080: 8671 c3bd e16f 003e d476 483e c4d6 21be
00000090: db06 8ebc d90b 9f3e 7937 65be 1448 153e
000000a0: d083 853e 1a73 a6be 1f48 1a3e 53eb 4abd
000000b0: 409f 6ebd 28cf f7bd 7c23 93be ab9b ae3d
000000c0: 07ee d3bc 137e 383d 3540 14be f601 8c3d
000000d0: 1b26 9f3e 1060 48be ffa0 fcbd 97b2 ddbd
000000e0: 2c09 10bd d6f0 25be 5e6a b3bd 2a1a 83bd
000000f0: ac29 213e 6ea1 0dbd be8d d7be c2cb 093d
00000100: 74b4 28be 813d aebd 5eb4 1d3d 793a 233d
00000110: 824f e03d b835 eebd d6eb c33a 7bc8 3bbe
00000120: 2835 f6bd ef20 823c cfe1 193d f0d0 623e
00000130: 8667 743c 46df 0abe f665 a23e 98e2 babe
00000140: 51a5 203e 14ae 613e 9e03 373e 48d2 8bbe
00000150: d6ab b73d d2e6 dc3e afa0 a03d 190b febc
00000160: 80bf c53e d4e1 853e 882a 783e 883f 373e
00000170: 9089 c6bd af69 dc3d 2cfd 50bd 8642 5abe
00000180: 399f 1b3e eb2e 223e 8702 4fbe 415a 233d
00000190: 7da3 023e d5d7 2cbd 7ce6 95bb 1d6f e33d
000001a0: afe2 9e3d 378e 08be 6df7 4cbb 82db 95bd
000001b0: aabe 083e 2b2b 13be b8b4 a3bb 05a9 1abe
000001c0: 5a19 be3d 8436 b13e 0eb3 a2be 5b24 fabe
000001d0: aa44 ab3d b6bc 393e 6d3d a3be 1ad9 423e
000001e0: 08b8 d43e 6448 ee3d 5eea 0f3e f6ad 5a3c
000001f0: 073d f23d b7dc 003e 63a3 80be 8830 c53d
00000200: 8ca0 a03e d4e4 44be 8b67 b8bc dfdd c3be
00000210: d3ec a13a 093a 00be 6dc8 803e 3198 1ebe
00000220: 9cbe f5be ac83 e93b 29ff c73d bdc6 aabe
00000230: 8736 203e 34ff 973e 91a8 b2bb d193 0b3e
00000240: a0a5 41bd 2274 5cbe 608c a13c b60c 213e
00000250: bd3c 02be 8178 11bf 693e 5cbe 2adb a33d
00000260: 9674 a33c 56ed 96be d4fe 86bd 63d9 02bd
00000270: 7fc1 913e 12db 8fbb b798 b9bb c640 c5bc
00000280: e7b9 11bd bc05 633e 7572 10bd 92d4 cb3e
00000290: d6e1 a63d 82d1 5c3c 8294 043c 6350 b93d
000002a0: 5ee9 87be a62f a4bc 234e debd 4ca5 133e
000002b0: 6c6b 983e c681 9abe 77da a23d 41fe 1abe
000002c0: b991 abbe 1ca5 973e 0a7a d8bd 2402 113c
000002d0: f58f d03d 5d8e 043e 9180 eeba 96a5 883e
000002e0: dfa0 ce3e c677 983e 8290 643d c57b 92be
000002f0: 1d55 36be 677a ac3e ca96 c5bd 2182 d5bd
00000300: 8e39 10be 6664 da3d 1791 40be 1185 0a3e
00000310: 7029 e6bc 395b 43be c8ce 84bd 536e 173e
00000320: 944c 843d b547 bebd df0d 7bbe 321e 193e
00000330: fab2 b4bd 113f 1f3e 4820 073e 6097 4f3e
00000340: a623 87be f098 acbb db76 1dbe 7560 b93a
00000350: 584e babd 53fb c7be 1a28 5abe d6ff 8a3d
00000360: 9aa7 1abe 9705 48be 321d 98bd 1c29 56bc
00000370: 0610 f0bc 669c cb3d 148e fbbc b99e 1d3e
00000380: c1ad 643d 9bf4 c2bd b1a8 963e 39ce 68be
00000390: 0368 353e c563 7f3d d021 1cbe 702b 73be
000003a0: 1675 5c3d 41b3 76be 038b 9f3e c910 10be
000003b0: f186 b43c 3c75 3f3e 4197 bbbe 9cd6 293d
000003c0: bf15 0f3e 08ab 9cbe 9559 51be 22b9 2fbd
000003d0: 256a c23e b04b d7bd fc0f e83d a6b8 fdbe
000003e0: cd50 693d 6d0b 12be 7bdd 3c3e 5502 df3c
000003f0: ad3c d43e dca6 0cbe 32ec aebe d5e5 6ebe
-0.052840043 -0.40829957 0.11469377 -0.05777983 -0.017017378 0.27792367 -0.2648198 -0.11077847
-0.20504971 0.036486026 0.031365912 0.10833115 0.002052095 -0.05023809 -0.36651146 -0.044836447
-0.069904126 -0.10327353 -0.036237366 0.013227127 0.13183858 0.35488856 0.17864312 -0.09689337
-0.15890403 -0.20806552 0.29417574 0.1836592 -0.08248981 0.1568984 -0.011458478 0.034778938
-0.09543137 0.12542678 0.1957658 -0.15804583 -0.017337253 0.31063727 -0.22384442 0.14578277
0.26077127 -0.3250969 0.15066575 -0.04954083 -0.05825734 -0.12100059 -0.2873801 0.08525785
-0.025870336 0.04504211 -0.14477618 0.068363115 0.3108376 -0.19567895 -0.12335395 -0.10825079
-0.035164997 -0.16205153 -0.08760522 -0.06401475 0.15738553 -0.03457778 -0.42100328 0.033641584
-0.16475087 -0.08507825 0.03850209 0.039850686 0.10952665 -0.1163134 0.0014947604 -0.18338196
-0.120218575 0.015884845 0.037568863 0.22150016 0.01491726 -0.13561735 0.31718415 -0.36501002
0.15688063 0.22039062 0.17872474 -0.2730887 0.08968322 0.43144852 0.07843148 -0.031011151
0.38622665 0.26148856 0.24234974 0.17895329 -0.09694207 0.10762345 -0.051022694 -0.21314439
0.15197457 0.1583821 -0.20215808 0.039880995 0.12757678 -0.04219802 -0.004574595 0.111051776
0.0775808 -0.133355 -0.0031275407 -0.073172584 0.13353983 -0.14371936 -0.0049959086 -0.15103538
0.09282179 0.34611905 -0.31777233 -0.48855862 0.08362706 0.18138394 -0.31882802 0.1902813
0.41546655 0.11634901 0.14054248 0.01334714 0.11828046 0.12584196 -0.25124654 0.09628397
0.31372488 -0.19227916 -0.02251031 -0.38255212 0.0012353904 -0.12522139 0.25152913 -0.15487744
-0.47996986 0.007126292 0.09765465 -0.3335475 0.156458 0.29686892 -0.0054522236 0.13630606
-0.047277093 -0.21528676 0.019720256 0.15727505 -0.12718482 -0.568245 -0.21508183 0.080007866
0.019953053 -0.29477948 -0.06591573 -0.031945597 0.28467938 -0.004390129 -0.005663957 -0.024078738
-0.03557768 0.22170156 -0.035265405 0.39810616 0.081485435 0.013477685 0.008092048 0.09048536
-0.26545233 -0.020042252 -0.10854747 0.14418525 0.29769456 -0.30177134 0.07951825 -0.15136053
-0.33509615 0.29618156 -0.10570152 0.008850608 0.101837076 0.12944932 -0.0018196275 0.26688832
0.4035711 0.2977888 0.055801876 -0.28610054 -0.17805906 0.33687136 -0.09647901 -0.10425211
-0.14084455 0.10663681 -0.18805347 0.13527323 -0.02809593 -0.19077767 -0.06484753 0.14788179
0.064599186 -0.09291021 -0.2451701 0.14952925 -0.088231996 0.15551402 0.13195908 0.20272589
-0.26394385 -0.005267255 -0.15377371 0.0014143126 -0.09096974 -0.39058933 -0.2130436 0.06787078
-0.15102997 -0.19533382 -0.074274436 -0.013071325 -0.029304516 0.0994194 -0.030707397 0.15392579
0.055829767 -0.09519311 0.29425576 -0.22734918 0.17715459 0.062351007 -0.15247273 -0.23747039
0.0538226 -0.24091817 0.31160745 -0.14068903 0.022037001 0.18697065 -0.36638835 0.041464433
0.13973139 -0.30599236 -0.20444329 -0.042901166 0.37971607 -0.10512483 0.11331174 -0.49554938
0.056961823 -0.14262171 0.18443863 0.027222792 0.41452542 -0.13735527 -0.34164578 -0.23329861

layers.1.bias f4 [32]
00000000: d2f1 863d b3c6 3b3e 99a2 a8bd 54fc dc3d
00000010: debc c43d 810a cabd b6c7 a73d bd21 2dbe
00000020: eb32 1bbd fd11 143c 2230 0b3d 3372 50bd
00000030: e74e 50bd 5a92 e93d dcd2 47be 94da 893d
00000040: 3ba6 4d3e 04ad 9dbd 5fc5 403e 5025 253e
00000050: 7df8 54bc 1ad0 21be 961e bb3c 9aa9 fbbd
00000060: 01dd 2a3c af75 9fbd 1d10 fa3d de80 d0bd
00000070: e23a 1d3d 2d7f f43c c4fc 9ebd 8f91 dabd
0.06589092 0.18337516 -0.08234138 0.10790315 0.09606336 -0.09865285 0.08192389 -0.16907401
-0.037890356 0.009037492 0.03398145 -0.05089016 -0.050856497 0.114048675 -0.1951403 0.067311436
0.20082943 -0.07699016 0.18825291 0.16127515 -0.012998697 -0.1580204 0.022841733 -0.12288208
0.010428668 -0.07786118 0.122101046 -0.101808295 0.038386233 0.029845798 -0.07763055 -0.10672294

layers.2.weight f4 [32, 32]
00000000: 2db6 d63e 580f 103e 757a 313e 46c9 1c3e
00000010: 9cb8 d9be c76e ce3d 6834 04be b762 febd
00000020: cfe4 233e 97dd 32be 99ac 84be ffbc b93e
00000030: 152a 88be 4608 fe3c 71be 093e 414e c0be
00000040: e282 903b f349 da3d 039a f63d 4193 2a3e
00000050: 5af7 453e d4cb 4c3d 225d ba3d a893 5bbe
00000060: 068d 58be cf39 61be 1213 1dbe d9a2 6cbd
00000070: 76cf 25bd 31f6 92bd 91a8 003e 584b 9cbe
00000080: 1335 083f dcad a93e 1828 333e a44b 2abe
00000090: 97e4 cabe 6164 fb3d a83e 27bf dd12 03be
000000a0: e051 073d efc7 d5bd 7ab1 55bc a436 8f3f
000000b0: 6d81 26bf 091e e3bd 45d6 c53e 0f2f b8bc
000000c0: 147b a3be 17df acbe 355a c6bd 7080 c0bc
000000d0: a279 ba3e 5841 81be 5029 293e 7e07 be3e
000000e0: 072f 04be 88a0 b3bd 3dde 55bd 418a 8f3d
000000f0: 8c09 e23e ab15 cf3d 7e1b 713e 81dc 5a3d
00000100: 3b30 acbd 2543 a13d e741 f4bd d4df 51be
00000110: fd08 383e 6d87 3f3d d5c0 91be fe5e 2fbe
00000120: cb22 07bb b1cd b63d d913 dd3c d0c7 7a3e
00000130: 2d75 453d d086 7bbe 2a5f b1bc 80ce 52be
00000140: 2b1f fe3d 60e4 43be 1a22 a3bd e6e2 ac3e
00000150: 383c 2c3e ed82 19be a182 43bd 679c 6b3e
00000160: f6ba 54be 33ca 97bb 2008 a13d e3aa f3bd
00000170: 1217 90bd 6a3a 913e ade0 a1bd d227 6b3d
00000180: dfe2 79be 6efd 09be 1bd7 8ebe 34fa b73d
00000190: c7dd ab3e 47da 83be 4b42 053d 0b6b 833e
000001a0: d10c 6a3d cb8c 8a3e 9aca db3e 9399 7fbe
000001b0: cf72 023c be78 743e 7780 703d 121f dbbd
000001c0: 3ad5 eabd 027a fabe e22c 61bc 28b6 98bd
000001d0: b9c2 c03e c60d 9a3d 6cee 6abc 3c30 11bd
000001e0: 540d b9bd 89b1 a33e dfed 10be 1117 a93d
000001f0: 7dbd 68bd 0b4b 7f3e 9fac 79be e656 9d3e
00000200: 9609 ab3d b2f6 31be 04aa d2bc 1a06 c0bd
00000210: 3896 eb3e 7227 77bd f579 0ebe 84f7 bf3c
00000220: aaa2 9f3d 8b61 c93d 9576 0a3e 9ba3 49be
00000230: f90a adbd 09cd bc3e f20a a73d 54a0 e63e
00000240: 35a0 50bd cb99 b3be 4041 b83c 7195 64be
00000250: 5786 623e 75a6 d63c 90be 9fbb 9ce2 6a3d
00000260: 2ca7 133e d980 ef3d efa8 c7bd 82d0 453d
00000270: 511d f6bd 6866 43bd 4d21 bebe 7b81 1a3c
00000280: 6d09 b43d 5e30 073e e949 c33e 1937 863d
00000290: 1e1b 83be 64be 2c3d 0cb2 603e 015d 0cbd
000002a0: 6432 603e 4676 52be f6bf 373b fcec 86be
000002b0: 2c8f c5bc c532 0a3e de4e 333b 1915 553e
000002c0: f56f 3abe bda5 0f3e 766d 973e dfdd 013e
000002d0: 7ba2 893d 941b fd3d ce3d 8d3d 0ac9 05be
000002e0: 5379 45be c473 b4bc 767e 29be 62a9 073e
000002f0: d76f 4c3d de6d 9ebd 8962 7dbd 549b 2bbc
00000300: 3daa 743e 3dab b93c 4476 7b3e 1f20 74be
00000310: 15bb c5bc 91bf b33b 7c36 b6bd 358b af3e
00000320: 6613 763e 2c88 14be f9d8 8fbd 4955 6b3e
00000330: 60c8 efbe f70b 1ebe 4c49 5a3c 0977 2ebe
00000340: 817e b9be af75 c33d 870b 443d 5b1e 89bd
00000350: 3cfc e73d c625 6c3d 5e2b 61bd 9a15 fabd
00000360: 15df 343d 632f 94be c733 34be 09fe d0bd
00000370: eaf5 1cbd 3210 84be a30f c83e 7849 cdbe
00000380: efad b23c 5f7c 39be ea52 15bd a6f0 2ebe
00000390: c7b0 a3bd 0355 18be 576b 253e 11a9 d8bc
000003a0: 6342 a03e 52f5 3d3e a8ed 4cbe ee92 61be
000003b0: 7b2c 50be 7c64 ab3e 901a 6dbe 21f0 ad3e
000003c0: 8705 44bd 267d 7b3d 1355 02be a225 4bbe
000003d0: dc1d 883e 78eb e73d 6b23 b6be 1278 013e
000003e0: 3eac 843d 73a5 36be f36c 53be 3744 b83e
000003f0: 63ba 43bc be5f 2fbe 9cd1 31be e4ac 333e
0.41935864 0.14068353 0.1733187 0.15311155 -0.42523658 0.10079723 -0.12910616 -0.12421172
0.16005252 -0.17467342 -0.25912932 0.36277005 -0.26594606 0.031009804 0.13451554 -0.37559703
0.0044101337 0.10658636 0.12041094 0.16657735 0.19332638 0.049999073 0.09099795 -0.21443045
-0.21147546 -0.21994708 -0.15339306 -0.05777249 -0.040481053 -0.071758635 0.12564303 -0.30526233
0.53205985 0.33140457 0.17495763 -0.16630417 -0.39627525 0.12275005 -0.6532998 -0.12800165
0.033037066 -0.10438525 -0.013042802 1.118855 -0.6504124 -0.11089713 0.38640037 -0.022483377
-0.3192984 -0.33763954 -0.096851744 -0.023498744 0.36420923 -0.25245166 0.16519666 0.3711509
-0.12908565 -0.08770853 -0.052213896 0.07008792 0.4414791 0.10111555 0.23545644 0.053432945
-0.08407637 0.07874135 -0.119266324 -0.2049554 0.17972179 0.04676001 -0.28467432 -0.1712608
-0.0020620103 0.08925951 0.026987003 0.24490285 0.04820745 -0.24563146 -0.021651823 -0.20586586
0.124082886 -0.19130087 -0.07965489 0.3376686 0.16819847 -0.1499135 -0.047732 0.23008882
-0.20774445 -0.0046322583 0.07862878 -0.118978284 -0.0703565 0.2836488 -0.07904182 0.057411022
-0.2440295 -0.13475582 -0.27898487 0.08983269 0.3356764 -0.2575247 0.032533925 0.25667605
0.05714113 0.27060542 0.4292801 -0.24960928 0.007961943 0.23874184 0.058716264 -0.106992856
-0.11466451 -0.4892121 -0.013743611 -0.074566185 0.37648562 0.07522158 -0.014339071 -0.03544639
-0.09035745 0.31971386 -0.1415324 0.08256353 -0.056821335 0.2493097 -0.24382256 0.3073036
0.08351438 -0.17379263 -0.025715835 -0.09376164 0.46013045 -0.060340352 -0.1391371 0.023433454
0.077946976 0.09833058 0.13521798 -0.19691317 -0.084493585 0.3687518 0.081563845 0.45044196
-0.050934035 -0.35078272 0.022492051 -0.22322632 0.22121559 0.02620242 -0.0048750117 0.057345018
0.1441924 0.116944976 -0.097490184 0.04829455 -0.120173104 -0.047705084 -0.3713478 0.009430285
0.0879086 0.13202044 0.38142326 0.06553478 -0.25606626 0.04217376 0.2194292 -0.034268383
0.21894222 -0.2055293 0.0028038002 -0.2635268 -0.024116121 0.1349593 0.002736024 0.2080883
-0.1820677 0.14028068 0.295757 0.12682293 0.06720444 0.12358776 0.06896554 -0.13064972
-0.19284563 -0.022027858 -0.16552147 0.13248208 0.049911346 -0.07735799 -0.06186155 -0.010474045
0.23893066 0.02266466 0.24556834 -0.23840378 -0.02413706 0.005485483 -0.08897111 0.34285894
0.24030837 -0.1450507 -0.07023806 0.22981752 -0.46832561 -0.15434252 0.013323139 -0.17037596
-0.36229327 0.09543931 0.047862556 -0.06695243 0.11327407 0.05765321 -0.054973 -0.122111514
0.04415806 -0.28942403 -0.17597876 -0.10204703 -0.03832046 -0.25793606 0.3907443 -0.40095115
0.021811454 -0.1811385 -0.036456026 -0.17083988 -0.07992702 -0.1487618 0.16154228 -0.026447805
0.3130065 0.18550614 -0.20012534 -0.22028705 -0.20329468 0.334751 -0.23154664 0.33972266
-0.047856834 0.061398648 -0.12727766 -0.19838575 0.2658528 0.11324209 -0.35573897 0.1264346
0.06478165 -0.17836551 -0.2064703 0.35989544 -0.0119462935 -0.17126366 -0.17365116 0.17546421

layers.2.bias f4 [32]
00000000: 4b87 ba3d 9ebc 5abe 4ff7 f5bd 9679 283d
00000010: afdc 0a3c 9e09 e13d d023 543c fbcf 6fbe
00000020: 0739 c33b d002 c5bc 6086 e6bd d33b 9bbd
00000030: f009 09be e90c e93d f369 55bd 992e b73c
00000040: 4701 26bc 142e 8f3d 7c9e 5e3e 29b2 12bd
00000050: 8d84 883d 7746 5a3d 467c 793c 67e3 ee3d
00000060: 4770 463d 0c68 193d 798f e93d f43f 0cbb
00000070: dabc 13bd 8fcb f9bd 0fde e73c 31c6 4dbd
0.09107836 -0.21361014 -0.12010061 0.04113158 0.008475467 0.109881625 0.0129479915 -0.23419182
0.005957726 -0.024049193 -0.11256099 -0.0757977 -0.13382697 0.113794155 -0.052102994 0.022361087
-0.0101321405 0.069912106 0.21740144 -0.035814438 0.06665907 0.053289857 0.015227383 0.11664467
0.04844692 0.037452742 0.11404318 -0.0021400424 -0.036068775 -0.12197029 0.028304128 -0.05023784

layers.3.weight f4 [32, 32]
00000000: 365a 44bd 4ab3 f4bd befc 9c3c 5417 953e
00000010: 3a44 ad3d 20dd 81be 73c7 2e3e 7d3c 9d3d
00000020: 19e1 3dbd 2435 123e edda 883e eefd a4be
00000030: 1e14 48be 9178 a43e c594 8c3b 5083 6f3e
00000040: 9ca8 453e db2a 5f3e 0a61 6ebe ab7b 4bbc
00000050: 6660 4cbd dd86 03bd 7cb5 b93e 4bee c83e
00000060: 8b9a a9bd 90bd 733d 5fb9 76be 5c52 02be
00000070: 971a 1ebe 0151 aebe 8dc0 87bd 11cb 92be
00000080: 6a0a 173d eae5 0d3e 78c3 cd3d db99 e4bd
00000090: 983c 7ebe 2bec e13c 05fb 62be 0a73 09be
000000a0: 5ec6 9d3c 1581 65bd 5ecd ebbd f008 5a3e
000000b0: 8232 613e dc88 1a3e 6d38 d7bc 648b 33be
000000c0: 183b 383e 244b 77bd 0d3c 08be 40ab 9a3e
000000d0: c94b 69bd 5141 393e 70e8 28be 5bb5 6a3c
000000e0: 67ea 53be 1713 493d cf2c 783d a4b6 213e
000000f0: 3b93 843d 5dee 803c dbbd 043e 8be9 943d
00000100: a019 053e cbd5 8bbd 3634 e2bb 264b 303e
00000110: dd38 223a 34c1 173e c59c 1ebe 229e 0bbe
00000120: 5ed9 403e a759 b2bd 1979 a33d 24b0 063e
00000130: 4b1b 843c d0af 96bd feaa f63d 481c c53d
00000140: 15cb 19be 87ac a8bd 36fe 623e 7fa9 a7bb
00000150: 021f b93d 3915 4ebd f573 e1bd 70b4 12be
00000160: 03c1 5dbd 6752 05be 20ff 973d 48e6 2bbe
00000170: 9006 4e3e 82a1 02be 390a aa3a bbbc b33c
00000180: c3f1 393e d4a7 6fbe 34cd da3d 2246 68be
00000190: 71ab 653d 6c99 13bd 3efa febd 769c a2bd
000001a0: d658 43bd b9f5 24be e9e8 6cbd 629e fdbc
000001b0: 11ba 52be 6858 40bd 8eb5 603e 8bea 0a3e
000001c0: 2c26 c4bd 745b 94bc c1d5 ac3c 8afe 363d
000001d0: 878c 823c ae87 81bd 317b 773d 8cb5 4b3d
000001e0: 3d1d 84be 9be3 bf3b 6109 11bd 3613 0abc
000001f0: 131c 6a3d 8f4c 76bd 2371 1abe 4cbe 40bd
00000200: 1490 60be 3725 db3d e079 9a3d b0da 22be
00000210: d33f 0c3e bd9c 50be 10cf 8ebe a144 d13c
00000220: 2a7e 3c3c 44b3 9bbd 6f82 183d d3b5 0ebe
00000230: d553 0e3d c09b 1e3e 93a3 56be 0cbe 88be
00000240: cb89 fe3d 4887 4fbc 1222 30be ec0d d9bd
00000250: 4974 cf3d a0ec a8bd 367d 6cbd 5bb7 413e
00000260: 6a43 abbc be47 ccbd e2d0 843d 3201 143e
00000270: 8895 93bd 58ef a13d c3eb f6bb ce92 92be
00000280: fd62 b4bd 3724 75be 7d8b 133d 2e58 e13d
00000290: ad4b 273d 41eb d9bd 0961 c03c 847f 93be
000002a0: a1ef f03d 53fb 5cbe a249 9e3d 6f05 243d
000002b0: c881 24be 696b 9abd 162c 5fbe 85c5 ddbd
000002c0: 1c52 36be 0379 c63c aaee 06bd ae5b c73d
000002d0: d346 48bd 5311 1e3e 53da aebd bd72 d63d
000002e0: 12b2 aa3d 6aec ae3e 17e5 6ebd 030c 053e
000002f0: 3440 01bd f3a6 a33c a16b 2f3e b585 86be
00000300: a47e 413d 0573 073e 2884 77be 3839 a8bd
00000310: 0415 123e 179d 71bd b29e 96bc 6172 dabd
00000320: 2231 813d d925 063e 500e 11bd 724e b5bd
00000330: b54b 44bc ef61 b33d bbea 583c 143f bcbd
00000340: 1e0c 6b3d 9c13 9c3d 37bb 8cbd 5149 ca3b
00000350: 194f 5fbe 9a61 ccbc 14bb a03c 8f39 38bd
00000360: bd8a 3c3d 93d9 dbbd 786e 083d 0331 133d
00000370: 18a2 133e 630e 0ebd b42f 10be 531f 033e
00000380: 501b f83d 57e3 063d 32a1 1dbe 61f0 d43d
00000390: 8335 78bd e2e1 0d3b 9527 b53d 894f cb3c
000003a0: 70d3 da3c c039 0fbe 9922 cebd f000 90be
000003b0: 5fe2 8cbe 2e50 9e3e d1c7 883e f670 c93e
000003c0: 30d7 633e 3ca0 723e 5e23 2ebe c0a6 ebbd
000003d0: 9a7e afbc b2ad 81bd 3897 873d 5210 d83d
000003e0: c313 2c3e 4ae0 7abd 657d 4f3d 83cb 1dbe
000003f0: 6eda 25be cf23 7bbe 1d7b 6f3b 3e63 a83d
-0.047937594 -0.11948259 0.019163486 0.2911936 0.08460279 -0.25364017 0.17068271 0.07677553
-0.046357248 0.14278084 0.26729527 -0.32224983 -0.19538924 0.32123235 0.0042901956 0.23389935
0.193026 0.21793692 -0.23279205 -0.012419621 -0.04989662 -0.032111038 0.36271274 0.39244303
-0.0828143 0.059506953 -0.24094151 -0.1272673 -0.1543983 -0.34046176 -0.06628523 -0.28670552
0.036875166 0.13857237 0.10047048 -0.11162158 -0.24827802 0.027578434 -0.22166069 -0.1342279
0.019259628 -0.056031305 -0.1151378 0.21292472 0.21991923 0.1509127 -0.026272023 -0.17533642
0.17991292 -0.060374394 -0.13304158 0.30208778 -0.05695704 0.18091322 -0.16494918 0.014325465
-0.20694886 0.04909047 0.060589608 0.15792328 0.064733945 0.01573866 0.12963049 0.07271107
0.12998056 -0.06827887 -0.0069031967 0.17216167 0.0006188283 0.14819795 -0.1548949 -0.13634542
0.18832919 -0.08708506 0.07982082 0.1315313 0.016126296 -0.07357752 0.12044333 0.09624535
-0.15018876 -0.08236032 0.22167286 -0.005116641 0.090391174 -0.05031321 -0.11008445 -0.14326644
-0.05413915 -0.13019715 0.07421708 -0.16787064 0.20119691 -0.12756923 0.0012973017 0.02194058
0.18158631 -0.23403865 0.10683671 -0.22683004 0.056071702 -0.036034986 -0.12450074 -0.07939999
-0.047692142 -0.16109361 -0.057839308 -0.030959312 -0.20578791 -0.04695931 0.21944258 0.13566034
-0.09577593 -0.018110014 0.02109802 0.04467634 0.01593615 -0.06324707 0.06042022 0.049733683
-0.25803557 0.00585599 -0.035409335 -0.008427432 0.05715568 -0.060131606 -0.1508222 -0.04705648
-0.21929961 0.107004575 0.07542777 -0.15903735 0.13696222 -0.20372291 -0.2789235 0.02554542
0.011504689 -0.076025516 0.037233766 -0.13936548 0.034747917 0.15489101 -0.20960836 -0.26707494
0.12428626 -0.012666531 -0.17200497 -0.105983585 0.101296015 -0.08248258 -0.057736598 0.18917601
-0.020906169 -0.09974621 0.06485154 0.14453581 -0.07206255 0.07906979 -0.007535429 -0.28627628
-0.08807943 -0.23939596 0.0360217 0.11003147 0.040843654 -0.10640574 0.02348377 -0.28808224
0.117644556 -0.21580248 0.07728888 0.040044244 -0.16065133 -0.07540018 -0.21794161 -0.108286895
-0.1780476 0.024227625 -0.03294245 0.097342834 -0.04889567 0.15436296 -0.08537736 0.10471103
0.083347455 0.34164745 -0.058323946 0.12992863 -0.03155537 0.019977069 0.17130901 -0.26273885
0.047239915 0.1322747 -0.24171507 -0.082140386 0.1426583 -0.058987703 -0.018386219 -0.10666347
0.063081995 0.13100375 -0.03541404 -0.08852853 -0.011980941 0.08758914 0.013239558 -0.09191719
0.057384603 0.07620928 -0.06871646 0.006173291 -0.21807517 -0.024948884 0.019620456 -0.044976767
0.04603075 -0.10734858 0.033308476 0.035935413 0.14417303 -0.03468169 -0.14080697 0.12804918
0.121145844 0.032931652 -0.15393522 0.10397411 -0.060597908 0.002164953 0.0884544 0.024818199
0.02671215 -0.13986874 -0.10065193 -0.28125715 -0.27516457 0.30920547 0.26714948 0.39343995
0.22250056 0.23693937 -0.17005679 -0.115064144 -0.021422673 -0.06331958 0.066206396 0.10549988
0.16804413 -0.061249055 0.050656695 -0.15409665 -0.16196606 -0.24525379 0.0036541887 0.08222054

layers.3.bias f4 [32]
00000000: 9458 6bbd 7e01 84bd 7557 89bd 4840 0d3e
00000010: 66ed 98bd f41a 3bbd 4b88 40be 1967 203e
00000020: 2e15 adbd 96c9 70bc f6b1 5bbd c83d e0bd
00000030: a2ce adbd 3e68 123e 3f73 133e ca36 4a3d
00000040: f1a9 42be b9e3 ddbc 8425 cdbb 79ee 1e3e
00000050: 0f35 c43c 002c 3ebe fd37 cdbc 3428 b73d
00000060: db52 b3bd dbb8 cdbd 26f5 e53c e760 0b3e
00000070: 6926 8cbd 3c8b 02be 9100 32be 11b0 15be
-0.05745752 -0.06445597 -0.06706134 0.13794053 -0.07467155 -0.04568 -0.18801992 0.15664329
-0.08451305 -0.014696499 -0.053636514 -0.10949284 -0.08486678 0.14297578 0.14399432 0.049368657
-0.1901014 -0.027086126 -0.0062605757 0.15520658 0.023951082 -0.18571472 -0.025051111 0.08943215
-0.08756038 -0.10045024 0.028070997 0.13611184 -0.06843264 -0.12748426 -0.17383029 -0.14617945

layers.4.weight f4 [32, 32]
00000000: aa72 22be f376 85bd 5e34 47be e602 933d
00000010: dcec 94be 55fc ef3d 30c4 003d 21f9 34bd
00000020: 76ad b53d 4aa9 9cbd a291 66be 1301 0e3e
00000030: 6db6 883d 6829 2c3e 5e37 a1bd 8c71 0d3c
00000040: 4101 273e 8dd4 b63b 4868 73be f977 40bd
00000050: a8a4 b9bd 94a3 453e 15bb c63d cc83 4a3c
00000060: b8bf adbd a77d 4dbd e5e7 b7bd f7ae 223e
00000070: 3657 edbc aa33 893d 8e51 8cbe 2bb6 a63d
00000080: edc1 5c3d 4388 443e ec18 323e c076 2dbe
00000090: b8cb f8bd 36eb 5fbd 7a71 c8bd 7532 283d
000000a0: e085 2d3d f0b9 8a3d feca 6f3c b8d3 9c3d
000000b0: b41d 583e 7523 74bd c92b 693d 8bd7 5ebe
000000c0: b689 303d 632b 343e be89 82bd 3f55 47bd
000000d0: a984 7d3d e776 6d3d b095 d63d 3d99 0c3e
000000e0: 2f91 363e 8660 4abc b7a5 94bb d712 023e
000000f0: b1fa 3bbe 728c d73d 7348 5e3e f5ce 23be
00000100: f802 823c 8521 e4bd 5217 c93d 3d43 053d
00000110: 04ef 63bd 1349 bb3d c658 3fbe 94c6 fd3d
00000120: 87de b43d f790 20bd 28e4 6f3e 7357 dcbd
00000130: 48bb c43b 4a8c 6bbd e394 66be ed25 8ebc
00000140: eddf a9bc dd7c 1fbe e1bd 49bd fa91 233b
00000150: 0c12 d13d 1946 86be 8411 1fbe 976c 723c
00000160: d051 94bd cc98 fcbd 2d31 16be 5de5 e7bd
00000170: d159 59be d331 0cbe 2a68 e83d 3927 20be
00000180: 0230 c9bd 7a72 633d 0849 33bd 0636 6fbd
00000190: a4e8 0e3d ef92 6d3e 1976 113e d0a0 713d
000001a0: f9fb 41be 5625 c3bd 05be b5bd 4239 9a3c
000001b0: ad40 98bd cd2d 3abe b786 30be a7cf 83be
000001c0: 3ef2 4dbe ee06 393e e459 663d 7fb8 023e
000001d0: 74aa a93c 6d30 633d 72ae 9abc 6a37 04be
000001e0: 0012 a13d e7df 2d3e 8f37 8e3e e135 7dbd
000001f0: b24d 0bbe e8e6 e33d 59d2 f23c e209 68be
00000200: f3db cf3d c931 893d a0a9 063e 5659 30bd
00000210: 5d11 82bc 87a2 5abd 5da3 f23d d65d e7bd
00000220: 7c23 ab3d 9946 9ebb 990c 603d bb1b 323e
00000230: 6efe a63c 1698 22be 4e80 80bd b0ae 893d
00000240: c50f 15bd fd3b 2e3d b868 853d 183d 0e3d
00000250: f0f5 3a3e bac3 c1bd 862a 67be c0f5 353b
00000260: 1b57 7b3a 8f48 9d3d 73c1 4a3e 2792 143e
00000270: 1b23 dc3d aca0 e83d 87f2 5c3e 1689 ecbd
00000280: b0cb febd 46e0 22be 485e 643d 38fe a8bd
00000290: dd8a 17be 76f1 883d b7fc 363d 2274 dabd
000002a0: ea80 ea3c d325 6abe 63e9 e7bd 2556 603d
000002b0: c637 e43c 4cec 84be 9992 4f3c e899 dbbd
000002c0: 82fd 04bd 8dc6 10be a75b 003d fd70 64bc
000002d0: f5dd 67be b011 033d fbf3 dd3d c43b 93bd
000002e0: aa3e fe3d 3b57 f53c 9867 d13d 6a6e e3bd
000002f0: 0ddc 1b3e e04c 1bbe 58d0 0a3c 9a0b 06be
00000300: 3765 903d a169 2d3b 9459 e23a 2007 46ba
00000310: be14 3c3e d93f e1bd a5cd 2a3e 3aec 8d3d
00000320: 3e58 9a3d e3e1 0e3e 839b 5b3d 50ab ce3d
00000330: 4015 523e ef12 5d3d e25f c0bd e18d ab3d
00000340: 253e 64bd 1475 9b3d b52f 2e3e 1d97 e0bd
00000350: ae4d b63d 3777 3d3e 1a24 143d 79c7 c53e
00000360: 5f95 043e 71b2 013e b421 12bd 4f35 0fbe
00000370: 7e14 57be ccf8 203e 5ea6 883e 3b24 33be
00000380: 7513 8a3d 7251 1e3e b7af 62bb 031d 2f3d
00000390: ec22 43bd 9f49 99be aa0c 3d3e e774 febd
000003a0: ba8e a1bd 21ab 853e 3c69 f5bd 9e2f 193e
000003b0: d0a8 a13d 5c2c f7bd 6e30 d6bd 4be3 333e
000003c0: 815c 903d 4a7c 4e3d 7816 47bb 739d f2bd
000003d0: 13f3 223e dbaf 09bd 6478 d03d de04 4a3e
000003e0: de2e a1bd d730 b2bd df3f ed3d 5726 543e
000003f0: dc05 8abc c0f9 013e 7430 773e 0f70 3bbe
-0.15864053 -0.065168284 -0.1945357 0.07178287 -0.2908696 0.117180504 0.0314371 -0.0441829
0.08870976 -0.07649477 -0.22516492 0.13867597 0.0667542 0.1681267 -0.078718886 0.008633029
0.16309072 0.0055795372 -0.23770249 -0.046989415 -0.09064609 0.19300681 0.09703652 0.012360524
-0.08483833 -0.05016866 -0.08979777 0.15887056 -0.02897225 0.06699307 -0.2740597 0.081402145
0.05389588 0.19192605 0.1739232 -0.16939831 -0.12148231 -0.054667674 -0.09787269 0.041063745
0.042364 0.06773746 0.014635799 0.0765757 0.21105081 -0.059604127 0.056926522 -0.2176191
0.04310008 0.17594676 -0.063739285 -0.04866528 0.061894093 0.057974722 0.104777694 0.13730331
0.1782882 -0.012352115 -0.0045363563 0.127025 -0.1835735 0.10524835 0.21707325 -0.15996917
0.015870556 -0.11139206 0.09818901 0.032534827 -0.055647865 0.09144797 -0.18686208 0.123913914
0.08831506 -0.03920075 0.23426878 -0.10758867 0.006003771 -0.057506837 -0.22517733 -0.017352069
-0.020736659 -0.15574975 -0.04925335 0.0024958835 0.1020852 -0.26225355 -0.15534025 0.014796398
-0.07242167 -0.12333831 -0.14667197 -0.113230444 -0.21225668 -0.13690881 0.11347993 -0.15639962
-0.0982361 0.055529095 -0.04377082 -0.05840113 0.034889832 0.23200582 0.14205207 0.058991253
-0.18943776 -0.09528606 -0.08874134 0.01882613 -0.07434211 -0.18181534 -0.1723889 -0.25744364
-0.2011194 0.1806905 0.05623807 0.12765692 0.020711161 0.055466104 -0.01888201 -0.12911764
0.07864761 0.16979943 0.27776763 -0.06181896 -0.13603857 0.11128026 0.029641317 -0.2266002
0.10149374 0.06698949 0.13150644 -0.043053947 -0.01587742 -0.053377654 0.11847565 -0.11297195
0.083563775 -0.0048301932 0.054699514 0.17393391 0.020384993 -0.15878329 -0.06274472 0.06722772
-0.036391992 0.042537678 0.06514114 0.034726232 0.1825788 -0.0946116 -0.22574815 0.0027764887
0.000958787 0.07679855 0.19800358 0.14508878 0.10748883 0.11358771 0.21576892 -0.115495846
-0.12441194 -0.15905866 0.055753976 -0.082516134 -0.14799066 0.0668668 0.0446746 -0.10666682
0.028625924 -0.22865991 -0.11323812 0.054769654 0.027858626 -0.2596153 0.012669229 -0.10722715
-0.032468326 -0.14138241 0.031337406 -0.013942954 -0.22643264 0.03199929 0.10837551 -0.07189134
0.12414296 0.029948821 0.10224837 -0.11105044 0.15220661 -0.15166044 0.008472525 -0.13090363
0.07050555 0.0026460665 0.0017269128 -0.00075541623 0.18367288 -0.10998506 0.1668001 0.06929822
0.07536362 0.13953356 0.053615104 0.10091269 0.20515919 0.053973135 -0.09393288 0.08376671
-0.05572333 0.0759069 0.17010386 -0.109663226 0.08901535 0.18502508 0.03616724 0.38628748
0.12947606 0.12665726 -0.035676673 -0.1398518 -0.21003911 0.15719908 0.26689428 -0.1749429
0.067419924 0.15460756 -0.0034589597 0.042752277 -0.047640726 -0.2993898 0.18461862 -0.12424641
-0.07888551 0.26107123 -0.119829625 0.14959571 0.078935266 -0.12069008 -0.10458456 0.17567174
0.07048894 0.0504115 -0.0030378383 -0.11846437 0.15913038 -0.033614974 0.10179213 0.19728419
-0.07870267 -0.08700722 0.11584448 0.2071775 -0.016848497 0.12692928 0.24139577 -0.18304466

layers.4.bias f4 [32]
00000000: a846 c0ba 383e 613d 6ecf b8bd 69cf 51be
00000010: 2fc5 d83d 16da 68bd 2faa 8f3d b783 2a3e
00000020: 06d0 183d fe14 f6bd 3dc4 1fbe 1ea8 c6bd
00000030: 972b 2fbe 89d9 a63d 3974 ad3b 9ba7 bbbd
00000040: 1a53 34bd c792 f1bd 5171 fdbd 6b79 763c
00000050: 61df fb3d 7b58 103e 8b4e b7bd 48cf 86bd
00000060: fa3e e2bd 5c00 bc3d 4d54 153d 9420 b9bd
00000070: 9a55 723d 433e ddbb 51ac bfbc f9f9 02be
-0.0014669495 0.054990977 -0.09023939 -0.20489277 0.10584485 -0.056848608 0.07014882 0.16651808
0.03730776 -0.12015723 -0.15602203 -0.097000346 -0.17106472 0.0814696 0.005293396 -0.091628276
-0.044024564 -0.11795574 -0.12375129 0.015043597 0.122984655 0.14096253 -0.08950528 -0.065825045
-0.11047168 0.09179756 0.03645735 -0.09039417 0.059163667 -0.006751807 -0.023397597 -0.1279067

layers.5.weight f4 [32, 32]
00000000: e511 34bd 7ff8 d8bc 5577 64bd 098b 3e3e
00000010: 861d b7bd 9fd6 26be 242a 3a3d 79f1 743b
00000020: d0f5 273d a863 3fbe 9e4c 443d 0584 03bd
00000030: 0b69 fbbd 3088 05be e371 a2bd 21f1 553c
00000040: a9a7 02be 1dd0 623e 70d3 afbd 29b0 28be
00000050: 65cb 28bd 166b 18be f176 08be c961 c1bd
00000060: 996a 35bd e303 53bd 7bd4 ffbd a630 ac3d
00000070: 3b5d 5dbc 841f 70bd b2c5 33be c3cc ff3d
00000080: 4b41 ab3c 8835 1e3e 382a 8b3d b165 dd3d
00000090: 2f94 223a b522 3c3e feef a43c f6b0 94bc
000000a0: 37d9 973d be1d e7bd 68b4 733e cdad 9bbd
000000b0: cefc 2b3d 1786 f63c a8f9 0fbd 1e2e ddbd
000000c0: ff5f bfbd 94c9 0fbe 4844 023e 6ed8 5abd
000000d0: fa72 bf3d 3bc3 fdbd fc2a 903b 559f 64be
000000e0: 8d4e a73d 0f97 c7bc 39fd b7bc ec0c c93c
000000f0: 6e0c efbd f3ea cd3d 2772 d0bd ca5e f4bb
00000100: ad75 1f3e 6ea4 d1bd 02a8 163e ac39 ca3d
00000110: 37d9 60bb 5cc8 d93d 3eff 22bd 075e 103d
00000120: 8bc5 0d3d 4857 28be f364 863d 9053 00bd
00000130: 5c8c 49be 172c c4bc deda 323e df16 52bd
00000140: a523 153e 8ade 843d 3f9c 873d 8bea 3bbd
00000150: 7c3b 3fbd 010b f1bd 0207 0bbe 04b0 1cbe
00000160: 3266 13be be7c bebd 1c16 15be 8cd7 0dbe
00000170: fc6a 96bc 019d 923b 0414 ad3d 677b b03c
00000180: 1061 96bb db53 453e be36 52be 8e98 14be
00000190: c85e 853e 72ae febd 5d4b 5d3c efd2 173c
000001a0: 5d57 01be 80cd d4bd 86fa b33d c44b 1dbe
000001b0: 5224 29be 078f 17bd db22 0dbe fec0 b2bd
000001c0: d3a8 69bd 6cb8 30be a92d 833e c8d8 b53d
000001d0: b037 bebd a471 e3bd f44e 07be 2f23 38be
000001e0: 2fa7 f43d f8d2 8e3d 299c e03d bc28 b93d
000001f0: 5519 7b3d bd9a d9bd 3096 2ebe 63e2 8abd
00000200: ea07 5dbd f79f 42be e29e 59bc bcc4 08be
00000210: f766 b23d ccd2 ea3c 8a0b 1cbd b67f 15be
00000220: bfa9 10be 95c4 453c 993f b9bd bd8b 0a3d
00000230: 8493 103e 0c7c 24be b3d0 17be dd77 70be
00000240: 3823 98bd 69bb 2c3c df08 a7bd bfba 163e
00000250: 226f f6bd 1bdc 27be 4d76 d0bd dfd6 ec3a
00000260: 46ca 033e 0081 0e3d 5632 9c3d f6f4 253e
00000270: 8a34 a7bd c894 a83d 8d38 22bd bde8 133e
00000280: f7f0 a13c 2f73 03bc ca56 dc3d 79d4 eebd
00000290: 2a5e 2a3e 0a59 3a3d 4bc1 043e 3274 0b3d
000002a0: 5632 cabd 9aea 033e 21c9 8dbd 6cd5 f2bb
000002b0: 37f9 e2bc c22e 3c3e db7f 46bd 12cd 3a3e
000002c0: 506c 05be c4d4 9b3d a122 103e 3417 44bc
000002d0: 169b 28bd 8424 bd3d 1351 1e3c 8751 30be
000002e0: 867e 22be f03d f8bd dda9 9a3d 8a1f 363d
000002f0: ea0e a6bd 0011 e63c 6335 f1bd 11bc 0bbe
00000300: 9779 253e 6288 953d 83da 903d 47ed fa3c
00000310: 407f fa3d 5c3c 96bd 1dfe 293b ae47 abbd
00000320: c98c 0dbd 7d58 debd fafb 453d b0cd 10be
00000330: 3e2f 743d 55b9 723d e886 5e3d 74a5 5f3b
00000340: d669 163e ff6d 723e ae74 27bd 3d3d 9b3d
00000350: 00b8 9d3d 100d 73bd 5a31 26bc 2a13 d93d
00000360: a862 4bbc 147c 3b3d 08c8 aebd a718 153d
00000370: fedc 25be 8034 1a3e 0416 1abe 8815 793d
00000380: ae76 393e b4b3 35be 52f6 e3bd e685 0aba
00000390: e4c0 50bd 3552 e5bd f94b b9bd 60b2 babd
000003a0: b620 2fbe 471b 2fbe ee69 f0bd d59f e03d
000003b0: da1b 8abd b4ad c3bd 4c51 17be c13e a4bd
000003c0: e7e9 ec3c 4d52 333e 5363 b3bd 9f92 343d
000003d0: bf44 13be 3605 8b3d f194 2e3d ac9c 38bc
000003e0: 0e6b a4bd a16a 21bd 3593 62bc 8271 813d
000003f0: 01dd 79bd 781b 86bd b9af 18bd fff6 0cbd
-0.043962378 -0.02648568 -0.055777866 0.18607725 -0.08941178 -0.16292809 0.045450345 0.0037375374
0.04100591 -0.1869036 0.04792463 -0.032108326 -0.12275895 -0.13040233 -0.079318784 0.013057978
-0.1275927 0.22149701 -0.085852504 -0.1647345 -0.041209597 -0.148846 -0.13326623 -0.09442479
-0.044291113 -0.05151738 -0.12491699 0.084077165 -0.013510997 -0.058623806 -0.17555884 0.12490227
0.020905158 0.15450108 0.06795162 0.10810412 0.00062018906 0.18372615 0.020133968 -0.018150788
0.07414477 -0.1128497 0.23799288 -0.07601509 0.04198914 0.030093236 -0.0351502 -0.10799812
-0.09344482 -0.1404174 0.1272136 -0.05342906 0.09348102 -0.12390753 0.0043996554 -0.22326405
0.08169279 -0.024364023 -0.022459613 0.024542294 -0.11672293 0.10054579 -0.10178023 -0.007457589
0.15572233 -0.102364406 0.14712527 0.09874281 -0.0034309158 0.10633919 -0.0397942 0.03524592
0.03461222 -0.16439545 0.06562223 -0.03132969 -0.19682449 -0.023946805 0.17466304 -0.051291343
0.14564379 0.064877585 0.066215985 -0.045877974 -0.046687588 -0.11769677 -0.13576892 -0.1530152
-0.14394453 -0.093011364 -0.14559215 -0.13851756 -0.018361561 0.0044742827 0.08451083 0.021543218
-0.0045892075 0.1927027 -0.20528695 -0.1451132 0.26048875 -0.124356166 0.013506738 0.009266599
-0.12630983 -0.103907585 0.08788018 -0.15360934 -0.16517761 -0.037001636 -0.13782828 -0.087282166
-0.05704577 -0.17257851 0.25620773 0.08879238 -0.09287965 -0.111056596 -0.13213712 -0.17982171
0.1194595 0.06973833 0.10967285 0.090409726 0.061303455 -0.10625217 -0.1704948 -0.06781461
-0.053962626 -0.19006334 -0.0132825095 -0.13356298 0.08711045 0.028664969 -0.038096942 -0.14599499
-0.14127253 0.012070795 -0.090453334 0.03382467 0.14118773 -0.16062945 -0.14825706 -0.23483224
-0.074285924 0.010542729 -0.08155989 0.14719675 -0.12032916 -0.16392557 -0.10178814 0.0018069408
0.1287013 0.034790993 0.07626788 0.16206726 -0.08164318 0.08231503 -0.039604712 0.14444251
0.019768221 -0.008023067 0.10758741 -0.1166162 0.16637483 0.04549507 0.1296436 0.03404636
-0.09872882 0.12882462 -0.06923128 -0.007410696 -0.027706726 0.18377212 -0.048461776 0.1824229
-0.13029599 0.07608941 0.1407571 -0.011968423 -0.041163526 0.092354804 0.009662884 -0.172186
-0.15868577 -0.12121189 0.0755193 0.04446367 -0.081083134 0.028084278 -0.11777761 -0.1364596
0.16159664 0.073014036 0.07072928 0.03063072 0.12231302 -0.073357314 0.0025938817 -0.08363281
-0.03455809 -0.108567216 0.048336007 -0.14140964 0.059615366 0.059258778 0.054327875 0.0034125717
0.1468881 0.23674773 -0.04088276 0.0758004 0.07701111 -0.05933863 -0.010143602 0.105993584
-0.012413658 0.045772627 -0.08534247 0.036400463 -0.16197583 0.1505909 -0.15047461 0.06081155
0.18111679 -0.17744333 -0.11130966 -0.00052842346 -0.050965205 -0.1119732 -0.09047694 -0.091160536
-0.17102322 -0.17100249 -0.117389545 0.109679855 -0.067435935 -0.095546156 -0.14777106 -0.08019782
0.028920127 0.17511864 -0.08759179 0.04408514 -0.14381693 0.06788103 0.04262251 -0.011267822
-0.080282316 -0.03940833 -0.013829042 0.06320478 -0.06100178 -0.06548208 -0.037276957 -0.03441524

layers.5.bias f4 [32]
00000000: 8f28 a43d b9c9 0a3e 3942 9d3d 9c5e 663e
00000010: 5ee2 8cbd 0979 18bd fba8 1c3d 5a43 dcbd
00000020: b044 533d c241 51be 7419 163e 5cec 4c3d
00000030: eaba dfbd 682f 403d f8f3 253e 85ba 95bd
00000040: b6da 2fbc 8c33 f23d ea1b 36be 7185 90bd
00000050: e93b 5abd 2648 33be 2a3e a6bc 4193 2e3d
00000060: 1a36 323e f8e9 243e d0da 073e 2605 f93c
00000070: d7bd 62be c767 cabd 3840 1fbd 9d69 1a3e
0.080155484 0.13553514 0.076786466 0.22497028 -0.068791136 -0.037224803 0.03824709 -0.10755034
0.051579177 -0.20435241 0.14658147 0.050030097 -0.10924323 0.04692021 0.16206348 -0.073109664
-0.010733297 0.11826238 -0.17784086 -0.07056702 -0.05327979 -0.17507991 -0.020293314 0.0426209
0.1740345 0.16104877 0.13267064 0.030397963 -0.2214273 -0.09883075 -0.038879603 0.15079351

layers.6.weight f4 [32, 32]
00000000: b791 c43d b2bc a0bc 9412 a33d 8bad 17bd
00000010: ea54 563d a447 14bd b703 113d aca1 ceba
00000020: 9126 f83c 21d6 963d a4b9 093e 85b0 a1bd
00000030: bce5 2cbc 3a1f 5fbc 8bb9 df3d be87 81bc
00000040: 3228 883d 7337 95bd f7a6 04bd 4de2 a0bd
00000050: abe3 89bd 0f65 27be 44de e3bc 4ca4 6fbb
00000060: 8c11 2d3e e957 bf3b c1d4 9fbd f7c4 873d
00000070: d3e9 b5bd 60ad 8a3d e10d 18be f325 3bbe
00000080: 437c 14bd a14a 1dbd b209 45be 48cc 25bd
00000090: 3a77 b1bb 306d c73a c874 f9bd e0f4 00bc
000000a0: 47a1 ef3d 0042 16be b6fb 003e 036b 223e
000000b0: b722 25bd ab33 9e3d c45b 17bd 21f2 47be
000000c0: 89fa 31be 7273 39bd 6558 213d bd10 283e
000000d0: 6f8a b43c 47ff 04bd 828b b8bb 1d2d 583b
000000e0: 3ae3 f73d e92f 3a3d 0c08 fe3d b317 a4bd
000000f0: debe 04be 834f 0b3d f910 de3c 408e 2fbe
00000100: 67aa 8f3d 5ac6 d33c e799 dc3d 0720 b7bd
00000110: e711 ebbd e0fd 02be 106b d2bd cb2f 8e3b
00000120: 4425 37be d6b0 3a3e 924c e4bd 2251 a23d
00000130: 2f46 a1bd fc47 07bc dbf0 643e df36 e5bd
00000140: ac74 87bd 4c4c 5dbc be46 8b3c 1a50 acbc
00000150: ee8a 133d 2b1c 28be 521b 06be 01d8 e6bd
00000160: 0198 35be 7f67 1fbe 69eb 233e 4115 0b3a
00000170: 32cb 733d c3b4 64bc 295b acbd c83e 0abe
00000180: f198 0f3e 62df 4abd 4689 1b3e c361 473a
00000190: 6eb5 1d3d f379 18bd 89b5 56be 8e2a 20bd
000001a0: a0a4 05be 12aa 833d 241f e13d c92b 59bc
000001b0: 0e17 08be eaf8 e53d 9526 01bd 0e35 1dbe
000001c0: e74a d23c d6b2 c7bc c679 f23c 3db2 8fbd
000001d0: f472 c63c 6db7 cdbd 1c67 643e 7b4d 36be
000001e0: 8654 f13d a4a6 2ebd 6c9c c53d 516a 2f3e
000001f0: e901 ffbc d6a0 263d af06 773a 048e 12be
00000200: 8433 d6bd e4fa afbd ae33 aa3d 9cc8 4c3e
00000210: 9373 1cbd f044 e93d 8d0d 7a3d c784 a43d
00000220: 7229 0c3e 383f 96bd 1891 4c3e cc94 05be
00000230: 104a 0abe 3129 65bd 8aa0 df3c ac57 413b
00000240: 0c27 d7bd 9056 093d 11ed 2a3d 4275 363c
00000250: df9f 0ebe 790c 6bbd b133 103e 339c a13c
00000260: d15d 5fbd 2b6a 623d 82a8 c0bd cdc5 243e
00000270: a251 05be ba1d 013e 1908 80bd 315d 233d
00000280: fc01 b2bd 5ca3 b4bd a3ab a1bd 0a9b c53d
00000290: 5d3f b33d 3adb bfbd 5060 273e 9ac5 f03d
000002a0: 3249 183d b7c6 d7bb 5ede cc3d 6761 5c3e
000002b0: e442 80bd 4f17 103e ca80 46be 1569 5cbe
000002c0: 82e1 003e b4e1 adbb 10b8 7bbd aa0f 123e
000002d0: 87b1 90be e60c 67be 2593 c73d 8304 b33a
000002e0: 62e5 3e3e 7f66 423c 45e8 36be 7c6f 86bc
000002f0: 26e4 c63c b74f 823d 0f5a fabc 00b9 013a
00000300: 4289 45bc fc4a 983d 55fe 53bb e970 363e
00000310: 4142 20bd 0740 743a 78b0 39be 00f7 56bc
00000320: 86b8 d3bd f11f 6abc feb6 1a3c 96bf 06be
00000330: 1a26 06be ae3a 0a3c c08f 003e a0c8 ebbc
00000340: 4c47 943c 1b71 49ba 75b6 023a ac51 193e
00000350: b41f 8abd f13f fbbd 981a 003d 31c7 17be
00000360: e45e 11bc baeb a3bc 2afd 09bd a8fc c2bc
00000370: b825 0b3e 49e5 5bbd d9a4 583e 26f9 debc
00000380: 7df0 053b 870d c5bc dadd cf3d 502e 323e
00000390: b683 22be e6d7 4b3d 43df e1bd 7d39 87bd
000003a0: 5b77 053e 429d 3ebe a41c 03be 52ad b23d
000003b0: fe58 023e ec62 103e 049f 923d 7114 8d3d
000003c0: ac97 bd3d 88a2 99bd e704 953d 14bd 9d3b
000003d0: e062 aabd 402f cabd 7583 d1bb 40a8 be3c
000003e0: fe85 e93d faf2 543e 7a55 6a3d b5c4 0f3d
000003f0: dcf1 52be da26 cebd 1e33 0b3e 6d83 96bd
0.095981054 -0.019621227 0.07962528 -0.037030738 0.052327074 -0.036201134 0.035403933 -0.0015764735
0.030291827 0.073650606 0.13449723 -0.078949966 -0.01055282 -0.013618285 0.109240614 -0.015811797
0.06648292 -0.07285967 -0.032385793 -0.078556634 -0.06732877 -0.16347145 -0.027815945 -0.0036566434
0.16901225 0.005839337 -0.078042515 0.06629365 -0.08882489 0.0677135 -0.14849044 -0.18276195
-0.036251318 -0.03840125 -0.1924198 -0.04047802 -0.0054158242 0.0015215036 -0.121804774 -0.007870883
0.11700683 -0.14673615 0.1259602 0.15861134 -0.04031631 0.07724699 -0.03695275 -0.19525959
-0.17380728 -0.045276113 0.03939094 0.16412635 0.022038667 -0.032470014 -0.005631865 0.0032985874
0.12103887 0.045455847 0.124038786 -0.08012333 -0.12963435 0.034011375 0.027107703 -0.17144108
0.070149235 0.025851417 0.10771542 -0.089416556 -0.11478024 -0.12792158 -0.10274327 0.0043391935
-0.1788531 0.1823152 -0.11147417 0.07925631 -0.078747146 -0.0082569085 0.22357504 -0.111921065
-0.0661405 -0.01350696 0.017001506 -0.02103429 0.036021166 -0.16416995 -0.1309636 -0.11271668
-0.17733766 -0.15566824 0.1600777 0.0005305596 0.059519954 -0.013959113 -0.08415825 -0.13500512
0.14023186 -0.04952944 0.15189084 0.0007605815 0.038503103 -0.037225675 -0.20967688 -0.039103083
-0.1305108 0.06428923 0.10992268 -0.013255068 -0.13290045 0.11229117 -0.031530935 -0.1535227
0.025670482 -0.024377268 0.029599082 -0.07016418 0.024224736 -0.10044751 0.22304958 -0.17802994
0.117837 -0.04263939 0.09648976 0.171304 -0.03112884 0.04068073 0.0009423298 -0.14311987
-0.104590446 -0.085927755 0.08310638 0.19998401 -0.038196158 0.11390102 0.06104808 0.08033138
0.13687685 -0.07336277 0.19977224 -0.13045043 -0.13504815 -0.055947486 0.02729823 0.002950172
-0.105054945 0.033529818 0.04172999 0.011136355 -0.13928173 -0.05738494 0.14082219 0.019727802
-0.05453283 0.05527703 -0.0940714 0.1609108 -0.13019422 0.12608996 -0.062515445 0.039883796
-0.08691785 -0.08820221 -0.07894065 0.09648712 0.0875232 -0.09367986 0.16345334 0.117564395
0.03717918 -0.006584968 0.10003351 0.21521531 -0.062627584 0.14071392 -0.19385067 -0.2152446
0.12586024 -0.005306447 -0.061454833 0.14263788 -0.28260443 -0.22563514 0.097448625 0.0013657961
0.1864219 0.011865257 -0.17862041 -0.016410582 0.024278712 0.06362861 -0.030560521 0.00049485266
-0.012056651 0.07436177 -0.0032347639 0.1781651 -0.039125685 0.0009317402 -0.18133724 -0.013120413
-0.103379294 -0.014289842 0.009443043 -0.13159022 -0.13100472 0.008436842 0.12554836 -0.028782189
0.018100403 -0.00076843955 0.00049862947 0.14972562 -0.06744328 -0.12268055 0.03127536 -0.14822079
-0.008872721 -0.020009864 -0.0336887 -0.023802117 0.13588607 -0.05368546 0.21156634 -0.027218413
0.0020437532 -0.024054302 0.10149737 0.1740048 -0.15870556 0.049766444 -0.11028912 -0.06602762
0.13033812 -0.18614677 -0.12803894 0.087244645 0.1272926 0.14100236 0.07159236 0.068886645
0.09257445 -0.075017035 0.07276326 0.0048137996 -0.0831964 -0.098722935 -0.0063938447 0.023273587
0.1140251 0.20795813 0.057210423 0.035099704 -0.20600075 -0.10066004 0.13593718 -0.07349286

layers.6.bias f4 [32]
00000000: dab1 37bd e5b6 d1bd 0057 c7bd 60b2 89bc
00000010: 8863 933d 839b 23bc 221d 0dbd e634 993d
00000020: a77c 8b3b d90d 86bd 7f95 10bd 81b7 5fbe
00000030: cc51 b23d e21f 14be 8b79 cbbc 67a7 933d
00000040: f5fd 7a3e 9f2b 69be 3c3d c7bd aa3c 10be
00000050: 08cd 653e c9bc 17bd 0fc2 01bb cefc a6bd
00000060: 64dc 313c 6f22 333e ab6c 19be 66c2 a73d
00000070: 0388 a7bd 9307 bcbd b0b2 4fbd 6822 d03d
-0.044847347 -0.102399625 -0.09733391 -0.016808689 0.071967185 -0.009985807 -0.03445161 0.07480793
0.004256803 -0.0654561 -0.03529882 -0.21847345 0.08707008 -0.14465287 -0.02483823 0.07209664
0.2451094 -0.22770546 -0.097284764 -0.14085642 0.22441494 -0.037045274 -0.0019799506 -0.081536874
0.010855768 0.17493604 -0.1498286 0.081913754 -0.08180239 -0.09181132 -0.05070752 0.101628125
