Region 2 B-Field Trained On Boundary (32, 4).pth (torch, 17982 bytes, 10 tensors)

layers.0.weight f4 [32, 3]
00000000: f671 0c3d 4f98 19bf 806e 033f cce4 11bf
00000010: b455 b0be 1ead 333f 0610 e2be a728 eb3d
00000020: d1fd 4a3e 0f38 d03e cf94 03bf ad91 0e3f
00000030: 6357 1c3f f473 c93c 6499 41bf 2a34 e8be
00000040: 44c0 45bf c7b0 3abf c54b 303d 28ae 98bc
00000050: ef5e 0b3f 3ad8 ad3d 0a40 e93d 8f44 aaba
00000060: b4a5 7dbe 2822 a43e 0cac 3d3f 131d 913e
00000070: ee8d 47be 3d61 88be 0132 d8be c350 d73e
00000080: bd76 2e3f d813 6e3f ce8f 6f3e cb8e 833f
00000090: 9991 db3d 61d0 e53d 5df2 88be 7793 83ba
000000a0: d00c d23b 1474 2bbe 12ca ca3e 309b b83e
000000b0: 622f f83e 828d 94be 3cf7 f1be 9245 533e
000000c0: a6f2 05bf 788d ec3e d342 063e 1269 d13d
000000d0: 213b 71be 6b74 393f b508 cb3c c9b7 f23e
000000e0: 96ac 0b3f b4f7 d53e a97d b33e 954d 503e
000000f0: 0a41 413e ccd5 9c3e ed87 70be 2fbc 8a3d
00000100: 1e59 24bd a389 b1be b4d0 cf3e 5572 8f3e
00000110: bd79 1fbe ebc5 9f3e ea28 a23e 61fc 9dbe
00000120: eacf be3d 7997 953e f465 d33e 9413 b7be
00000130: efef 5b3e 9b5e 4d3e 3c91 58bb 8898 5e3d
00000140: 887c c93e b846 263b 7ea9 a1bd 00b4 0dbe
00000150: 5d0e 0cbe 5503 46be 0ff9 d43d 330a ef3d
00000160: eaed 603e d6f4 adbe 2182 27be 8a7e 41be
00000170: b979 943e 2a23 2abf 7a74 083f 8749 bfbe
0.03428837 -0.5999803 0.51340485 -0.5698974 -0.34440386 0.7018603 -0.4415285 0.11482363
0.19823386 0.4066777 -0.5139894 0.55691034 0.6107084 0.024591424 -0.7562468 -0.45352298
-0.772465 -0.7292599 0.04304101 -0.018637732 0.5444173 0.084885076 0.113891676 -0.0012990403
-0.24770242 0.3205731 0.7409065 0.28342494 -0.19487736 -0.26636687 -0.4222565 0.42053804
0.6814993 0.9299903 0.23394701 1.0277952 0.1072113 0.11221386 -0.26747409 -0.0010038455
0.006410219 -0.16743499 0.39607292 0.360559 0.4847365 -0.29014212 -0.47258937 0.20632008
-0.5232338 0.46201682 0.13111429 0.10225119 -0.23557712 0.72443265 0.024784425 0.47405842
0.5456022 0.41790545 0.3505681 0.20342095 0.18872467 0.30631864 -0.23489352 0.067741744
-0.04012405 -0.3467532 0.40588915 0.28016916 -0.15573783 0.31205687 0.3167184 -0.30856612
0.09317 0.29217127 0.41288722 -0.35757124 0.21478246 0.2005562 -0.003304555 0.054344684
0.39352822 0.0025371742 -0.07893656 -0.13838196 -0.13677354 -0.19337209 0.10399067 0.11671867
0.21965757 -0.33975857 -0.16358234 -0.18895927 0.28999117 -0.66459906 0.5330273 -0.37360784

layers.0.bias f4 [32]
00000000: f3d5 573f 97d8 35be 99ae 143f e789 afbd
00000010: cc48 9dbe 3ab1 72be 6fac 02bf bc58 2d3f
00000020: ab4d 473d c186 843e f108 0d3e 8ff2 783e
00000030: 375d 15bf f8cd 16bf fd5d babe c46a 5bbf
00000040: bee1 2fbe 5d5e 6f3d 9cb9 093f 21ea 37bf
00000050: 6ce6 93be 8398 1cbf f507 2ebf 07ee 35bf
00000060: ff6b c0be d628 d9be f8bd 2c3f a407 c9be
00000070: 1c04 02bf e388 b2be 2b1f fabe 0dce b5be
0.84310836 -0.17758404 0.58078915 -0.08571225 -0.30719602 -0.23700419 -0.5104436 0.6771352
0.048658054 0.2588406 0.13772942 0.24311279 -0.5834536 -0.58908033 -0.36399832 -0.85709786
-0.17175958 0.0584396 0.5379884 -0.7184163 -0.28886735 -0.61170214 -0.6798089 -0.71066326
-0.37582394 -0.42413968 0.6747737 -0.39263642 -0.5078752 -0.3487006 -0.48851904 -0.35508767

layers.1.weight f4 [32, 32]
00000000: ef8f 563e 6d8d 5f3e 0305 a63d b090 fbbd
00000010: d607 debd 1347 5c3d 668e 483e 16ce 90be
00000020: 9ffd 05be e71d 19be 1f34 923d af6d 8b3e
00000030: 8490 6d3e cced 173e bb00 91bc 7d83 59be
00000040: fc04 083e 56d6 afbd 68ec 6abe 76c9 d33d
00000050: ecdf 253e 5a4b 2c3e 2504 9e3d dd8f 8bbd
00000060: 46da b0bb b2f0 ad3e 1ffc cbbd d205 943e
00000070: 85fe 093d 3f41 aabd 75fb cfbb 555b 7b3e
00000080: b6e7 0abd 9541 ce3d 0a13 4abd c08d 1d3e
00000090: 2165 033e 6e8b 79bc fc05 d8bc 3287 473e
000000a0: 53f4 d4bd 134b eabd 7054 46bd af3a 15be
000000b0: f2de 22be 4cf2 d63d 768b 953d d976 ee3d
000000c0: e824 7fbe 120f 753d 4a70 1d3d 3083 a0bb
000000d0: fa4f bc3d c78b 013e b800 2bbe 9d7b 073d
000000e0: aa99 db3d 7559 573d b38e 143e 666a e2bd
000000f0: 0a4f 7cbe dec0 4f3d 9889 0fbe 4d37 a2be
00000100: f66c 433e f793 cebc dc67 5e3d 88b7 70bd
00000110: 259a 63be a055 383e 1123 053e 64a5 d7bd
00000120: a7d0 513d 0d7e 54bd 7231 973d d17e a93d
00000130: 739e 153e a2b8 863b 1fb9 013e 82b4 5e3e
00000140: 6153 7b3e a56d ee3d d753 ef3c e7f0 90bd
00000150: 9f7d a03d 7ac0 333e 8156 523e d755 443e
00000160: 9c12 4b3e ef97 e5ba 7941 f0bd 37c2 303e
00000170: 3fb9 f53d a0f6 53bd d925 ea3d b1c4 9c3e
00000180: a2a1 d83d cc55 3e3e 6c48 61be 132b 9a3d
00000190: bf55 eebd 5823 643d bcde 223d 20e5 de3d
000001a0: bf9d 843d e74f 973d d280 8e3d 3c7e 8dbd
000001b0: 37ad 343d 06bb 143e 9e99 a03e 8954 26be
000001c0: ab03 15be adde 40bd e20b 773e a1f9 883e
000001d0: 1748 8c3e ff76 413e 0a0a aa3e c725 6b3e
000001e0: 1b14 d9bc 32ad 01bd 381b 2bbe bcd3 db3d
000001f0: f7e5 70bd 3878 843d 7b4a 853c 02d1 9bbd
00000200: 5ca0 e7be c89a 74be f0aa 50bf 33b1 4f3c
00000210: edad ef3e 2fd3 fc3d 3296 36bd 8d01 763e
00000220: 66d4 2dbe d6b8 073e ea9a 49be f3ec d3be
00000230: 9c14 49bd f2bd 5a3b 31ca 3a3d 9d2e 0d3e
00000240: 57df 543d 4eb3 813e facb 0abe a91e 8b3e
00000250: 7812 2d3e 9297 9cbc f459 a43e 17a0 0dbd
00000260: 4cc5 753e edf3 a33e 6d39 1c3e cd6d acbd
00000270: 0692 1bbe c3b3 ee3c 07c1 eabd f3ea eb3e
00000280: c773 e13d b7e5 8d3e e899 0a3e f3ec a13d
00000290: a7e7 8bbe 2cb4 59be eaba 143d 5500 dcbd
000002a0: 1548 bf3d 0153 20be eb16 973e bb42 babc
000002b0: 3628 42bd 5701 ba3d 2689 f8bc f42e c33e
000002c0: 125f a6bd e488 f5bd 811e 2fbe 5c0a 4b3d
000002d0: e3d7 24be c889 293e 883c fe3d 3eea 9e3d
000002e0: ea84 503e 6a91 343e 6c6b 2a3d 6c4b 7b3d
000002f0: 6423 8f3e b777 1f3d 8b1c c43e 06d0 32bd
00000300: ea9b c43e acdb 2d3e 6174 ac3e c427 4cbe
00000310: db9d d3ba b8b0 7dbc a075 fd3c 8f2e 813d
00000320: c9e5 babd 3a72 4fbd fa44 173e 5ecc b13d
00000330: 6757 383e 85fd bf3a 20de 2dbe 0f04 68be
00000340: da4b c83c 4ecd 5bbc b82f 5b3e 35e2 3fbe
00000350: 8848 623c 9d21 233e fd83 0e3e 6d4c 553e
00000360: eaad b8bd 1e4a 23be 1cac 953d 7484 6b3d
00000370: 2f9c e03d d39a d0bd 1093 373d 1938 d7bd
00000380: 81ca 883e 268b 5a3d 2019 4d3d 5460 76bd
00000390: c06e bfbd dc28 1dbe d252 9b3e c794 a6be
000003a0: 3b6c 623e 266f 953d 578f 283e 7c70 bf3a
000003b0: acb1 4e3e 3539 703e 79ab 363e 3d5f d4be
000003c0: e5fa 23be 58e4 423d 0ff1 4e3e 8d93 223d
000003d0: 6df1 4abd 0268 833b c5a6 f6be 45d5 f9bd
000003e0: 82f2 ddbd 576b 9fbe ad01 4ebe a405 a33e
000003f0: d786 0fbb bf01 f03c 162e 39bd 31d1 20be
0.20953344 0.21831293 0.08106425 -0.12283456 -0.10841338 0.05377872 0.1958557 -0.2828223
-0.1308503 -0.14952813 0.071388476 0.2723212 0.2319966 0.14836806 -0.017700544 -0.21241565
0.13283151 -0.08585803 -0.22941744 0.1034116 0.161987 0.1682562 0.07715634 -0.06814549
-0.005397114 0.33972698 -0.09960198 0.2891069 0.033689994 -0.08313226 -0.0063471147 0.24546559
-0.033912383 0.100711025 -0.049334563 0.15386105 0.12831546 -0.0152309965 -0.026370041 0.19485167
-0.10398164 -0.114401005 -0.04842037 -0.14573167 -0.1590536 0.10495433 0.07301991 0.11643762
-0.24916422 0.059828825 0.038437165 -0.0048984513 0.09194942 0.12650977 -0.16699493 0.03307687
0.107226685 0.052575547 0.1450756 -0.1105545 -0.24639526 0.05072104 -0.14017332 -0.31682816
0.19084534 -0.02521704 0.054298267 -0.05876878 -0.2222677 0.18001413 0.13001658 -0.10529593
0.051224377 -0.051878024 0.07382478 0.082761414 0.14611225 0.0041113654 0.12668274 0.21748546
0.24543525 0.11642007 0.029214783 -0.070771985 0.0783646 0.17553893 0.20540811 0.1917337
0.19831318 -0.0017516593 -0.11731238 0.17261587 0.119982235 -0.05174887 0.11433 0.30618814
0.10577704 0.18587416 -0.22000283 0.07527747 -0.116374485 0.05569777 0.039763197 0.10883546
0.064754 0.07388287 0.06958164 -0.06908843 0.044110503 0.14524469 0.313672 -0.16243185
-0.1455218 -0.04708736 0.24125627 0.26752952 0.2739875 0.1889305 0.33210784 0.2296363
-0.026498845 -0.031659313 -0.16709602 0.107337445 -0.05881306 0.064682424 0.016270867 -0.076082245
-0.45239532 -0.2388717 -0.8151083 0.012676525 0.46812382 0.123449676 -0.04457683 0.24024029
-0.16975555 0.13254103 -0.19688001 -0.41391715 -0.04909192 0.0033377376 0.04560298 0.13787313
0.051970806 0.2533211 -0.13554373 0.2717183 0.16901577 -0.019115243 0.3209988 -0.0345765
0.24001044 0.32022038 0.15256281 -0.0841938 -0.15192422 0.029138451 -0.11462598 0.4607769
0.11008411 0.2771432 0.13535273 0.079065226 -0.27325174 -0.21260136 0.036311068 -0.10742251
0.093399204 -0.15656663 0.29509673 -0.022736898 -0.04740163 0.09082287 -0.030338835 0.3812176
-0.08123602 -0.119890004 -0.1710148 0.049570426 -0.16097979 0.16556466 0.12413889 0.07759522
0.20363203 0.17633596 0.04160635 0.061351225 0.27956688 0.03893253 0.38303027 -0.043655418
0.38400203 0.1697833 0.3368254 -0.19937044 -0.0016145067 -0.015484028 0.030939877 0.063077085
-0.09125859 -0.050646044 0.14772406 0.08681558 0.18002091 0.0014647698 -0.16979265 -0.22657798
0.024450231 -0.013415648 0.21404922 -0.18738635 0.013811238 0.15930791 0.13917537 0.20829935
-0.090175465 -0.15946242 0.07308218 0.057499364 0.1096729 -0.101857804 0.044817984 -0.10508747
0.26716998 0.05335536 0.05007279 -0.06015046 -0.09347296 -0.15347618 0.30336624 -0.32535383
0.22111599 0.072965905 0.1646093 0.0014605667 0.20184964 0.23459323 0.17838849 -0.4147891
-0.16013677 0.047581047 0.20209144 0.039691497 -0.049546648 0.0040102014 -0.4817411 -0.12198881
-0.1083727 -0.3113658 -0.20117827 0.3184024 -0.002190044 0.029297708 -0.045209967 -0.157048

layers.1.bias f4 [32]
00000000: ed84 8ebe a791 783e f769 83be 3b49 5bbe
00000010: d1ee 113b b31a 8abc c6c6 b8bd 668b 4ebe
00000020: ca79 2bbe 439c 2c3e 2a4b 3fbd 270c 743d
00000030: ebe4 503e 012c b4bd 6952 eabd 0d70 833e
00000040: ad9b 093e 1c9d c2bd fe1d 51be 4e61 37bd
00000050: 386d d03d 2a6d 7c3e 37b2 6bbe 3eb8 82be
00000060: 123a 79be e813 a73d 9563 243e 78bd 0dbd
00000070: 3289 653e 92ea 203e fce7 a23e f22b 833e
-0.2783579 0.24274312 -0.25666782 -0.21414654 0.002226759 -0.016858434 -0.09022288 -0.20170364
-0.16745678 0.16856484 -0.04670254 0.059581902 0.20399825 -0.087974556 -0.114415 0.25671425
0.13438292 -0.095026225 -0.20421597 -0.04477053 0.10177082 0.24651018 -0.23017202 -0.2553119
-0.24338558 0.08158094 0.16053613 -0.03460452 0.22415617 0.15714481 0.31817615 0.25619465

layers.2.weight f4 [32, 32]
00000000: cf40 62be af3c 95bd 1f33 18be 787e 563b
00000010: 48fd be3e 964b f1bd 8a95 c1be ef48 efbe
00000020: 4c91 91bd 27c0 a33e d5d5 35bd 8ddf 12bd
00000030: b64c a1bd 0d00 01bf 091b 53be e5f5 6b3d
00000040: 6a2d 273e b81a ac3e 6a12 8fbe 20ea 773d
00000050: 8fc0 ae3d 4e2f a8bd 3277 a63d 9cf8 d43a
00000060: f3e3 a73d add3 ee3d fa5f 5b3e 1893 4cbe
00000070: e9b2 543e bd32 2bbd 9597 fabd bab0 56bd
00000080: 8053 c0bd 1f35 05bd 262a 143e e5c4 6b3d
00000090: d031 b0bd 94e9 083e bf01 973e f874 50bd
000000a0: 205c acbc 9213 46bd cf6f 263e 9fd0 07be
000000b0: 73a8 4f3d fb53 60be 1025 4e3e 219a 69be
000000c0: 7c27 ec3b 79b2 bb3d bd13 e43c 2549 c73d
000000d0: c414 83bd de4c 4abe 62d8 cf3d befa 26be
000000e0: f489 f23c ac02 bbbd 2a30 c03c 29cb 59be
000000f0: b2a2 2dbd 517d 0e3d 90a7 94bd 2c54 62be
00000100: 798a dcbd 258c e6bc 0943 d93b 21a3 9f3d
00000110: a35a 2ebd f66f c73d b52c 0d3e 509d 8ebd
00000120: b843 b23d edd3 86be 8d99 45be bf97 093c
00000130: dbad 35be 8361 b03d d760 dfbc c37d 513d
00000140: cee9 f53c 7eac 9f3e 912d 9dbd 9024 ba3d
00000150: cae9 53be f5d7 08be 2efa 4e3e da0f c5bd
00000160: 709b 283e 7461 8abc 849b 5e3d 4852 ec3c
00000170: c29c c83c 42e7 b43b 5b3a 1cbd 6cb9 d1bd
00000180: 3e3d 85be 4dfe eb3d faf2 65be 2643 87be
00000190: 126e e93d 31c5 6dbe b064 f9bd 8607 1dbe
000001a0: 33ae 8d3d b3e9 b83d 6653 cf3d a96a f5bd
000001b0: 5633 123e 108f 79bd 0cf6 1e3d dbdc 1b3e
000001c0: 35ba 903d d934 08be 09c7 2bbe 1ba7 80bd
000001d0: 171f b1ba 4b26 713d 9ea5 7abe 8164 84bd
000001e0: 2379 8ebd 4dc8 ba3d 1d04 163e fe46 a43d
000001f0: e6a4 b6bd 21b6 193e 5153 5e3e 21dc 59bd
00000200: b17e c3bd 9637 cdbb 847e 4cbe 71f8 eebd
00000210: 179a 9d3e ab07 f1bd b766 fcbd d7d7 47be
00000220: 45ba 01bd 593a 963d 5b3f 2f3d 549a 17bc
00000230: e739 02be 459e b8be 914e 023e 22a9 3c3d
00000240: aba3 c4bb 4591 9cbe f871 79bd 9b79 0c3e
00000250: 5e3a c43b 59c8 393d 6d42 d5bd 5e94 2f3e
00000260: af5e 38be 28d1 a33d 185a 063e adb8 413e
00000270: 3a67 c23d c481 85bd 9e5e 1bbc 8ff4 be3d
00000280: 62d1 74be 0852 343e f7b5 b33d e490 37be
00000290: e95e 3b3b bfa2 efbc f0ba a8bd 39a6 e1bd
000002a0: fe9f 8dbd ffcc 2c3e b496 7dbe d394 c83d
000002b0: 8a96 35bb f0c6 b3bd 2c04 29be a041 2d3e
000002c0: a01c f73c 955f 0abe 0d4f 0f3e 3332 d0be
000002d0: 37e8 dd3d 5287 14be dddc 15be 3a2e 0d3e
000002e0: ec5f f7bc 8da6 c93d 8b66 ee3b a925 33be
000002f0: 4378 e43d fa9b 543e 5f73 8b3e 3452 2c3d
00000300: 07ed 0f3e 330a 163e cd70 ee3d 2b26 353e
00000310: f1b4 69be ed77 27bd 491f 27be 1f4c 293e
00000320: fe2e 1f3e 8324 51be 6c53 7cbc 6b2d c33d
00000330: 6eb4 48be 02dd 373e 9c9c 96bd 80b8 c33d
00000340: fdc8 3cbe 69e6 06be 5b37 1e3e b811 6f3e
00000350: e079 0cbe a02d 283b 5e60 87bd 5ddd c13d
00000360: 0939 c93d 7d93 60be d4c7 93be 7950 d13c
00000370: 79c7 efbd 183f cebd 716b 003e ec9e c83c
00000380: 64ae fb3a 358f ecba 61e1 c93d 90da 863e
00000390: a09c af3d fde4 303e 5311 aebb db31 ddbe
000003a0: 3f4f b73d 873b 3d3e 762e a53e f443 cd3d
000003b0: 72a2 d4bc 2b1a 90be dd95 01bd e7a7 46be
000003c0: fc28 83bd 84d2 253e eb9e a23c 0ed1 ccbd
000003d0: 3916 58be 815a 20be 2b30 4b3e 2dff c1bd
000003e0: 5255 a13d b9aa 383e ec06 17bd ae24 fbbd
000003f0: 8345 953e 801a 9e3c bb72 d8bd c40a 34bd
-0.22095035 -0.07286965 -0.14863251 0.003272919 0.37302613 -0.11781995 -0.37809402 -0.4673533
-0.07107791 0.31982538 -0.04439338 -0.035857726 -0.078759596 -0.503907 -0.20615782 0.05760755
0.16325918 0.33614135 -0.27943736 0.060526013 0.085328214 -0.08212148 0.081282035 0.0016248408
0.08197775 0.11661468 0.21423331 -0.19977987 0.20771374 -0.041796435 -0.12235943 -0.052414633
-0.09390926 -0.032521363 0.14469203 0.05756082 -0.08603251 0.13370353 0.2949352 -0.0508928
-0.021040022 -0.048358507 0.16253589 -0.13263176 0.050697755 -0.21907036 0.20131326 -0.22812702
0.0072068553 0.091649 0.027841443 0.09730748 -0.06400445 -0.19755885 0.101486936 -0.16306588
0.029606797 -0.09131369 0.023460466 -0.21268906 -0.042391486 0.03478748 -0.072585225 -0.22102422
-0.10768599 -0.028142998 0.0066303057 0.07794786 -0.042566907 0.09738152 0.13786586 -0.06963599
0.087043226 -0.26333562 -0.19296856 0.0083979955 -0.17742102 0.08612349 -0.027267857 0.051145326
0.030018713 0.3118629 -0.07674707 0.09089005 -0.20694652 -0.13363631 0.20212623 -0.09622164
0.16465545 -0.016892172 0.05434753 0.028847829 0.02448881 0.005520732 -0.03814159 -0.102404445
-0.26023287 0.115231134 -0.2245597 -0.26418418 0.11397947 -0.23219754 -0.12177408 -0.15334901
0.069179915 0.090289496 0.10123329 -0.119832344 0.14277396 -0.06092745 0.038808867 0.15220968
0.07066766 -0.1330141 -0.16775145 -0.06281873 -0.0013513294 0.05887441 -0.2447724 -0.06464482
-0.06956699 0.091202356 0.14650007 0.08021353 -0.08918171 0.15010883 0.2171147 -0.053188447
-0.09545649 -0.00626273 -0.19970137 -0.1166848 0.30781624 -0.11769041 -0.12324279 -0.1951593
-0.03167178 0.07335348 0.04278503 -0.009253103 -0.127174 -0.3605825 0.12725283 0.046059735
-0.006000956 -0.30579582 -0.060899705 0.13718264 0.005988403 0.045357082 -0.1041306 0.17146441
-0.18004869 0.07998878 0.13120306 0.18918104 0.09492345 -0.065188915 -0.009483008 0.093239896
-0.23907998 0.17609417 0.087749414 -0.17926365 0.0028590506 -0.029252408 -0.082387805 -0.110180326
-0.06915282 0.16875075 -0.2476452 0.09794011 -0.0027708136 -0.08778179 -0.16505498 0.16919565
0.030165017 -0.13513024 0.13994999 -0.406633 0.10835307 -0.14504746 -0.14635034 0.13787165
-0.030197106 0.0984622 0.0072754077 -0.17494835 0.111557506 0.20762625 0.2723646 0.042070583
0.14055263 0.14652328 0.11642609 0.17690341 -0.2282293 -0.040885855 -0.16320528 0.16532944
0.1554527 -0.20424084 -0.015400749 0.09530147 -0.19600078 0.17955402 -0.073540896 0.09556675
-0.18436046 -0.13173832 0.15450804 0.23346603 -0.13718367 0.002566196 -0.066101775 0.0946605
0.09825332 -0.21931262 -0.28863394 0.025551068 -0.11707968 -0.10070628 0.12540986 0.024489842
0.0019201753 -0.001804805 0.09857441 0.26338625 0.08574796 0.17274852 -0.005312124 -0.432021
0.08950662 0.18479739 0.3226201 0.10022727 -0.025956366 -0.28144965 -0.03163706 -0.19399987
-0.064043015 0.16193587 0.019851169 -0.100008115 -0.21102227 -0.15659525 0.19842593 -0.09472499
0.07877602 0.18033876 -0.036871836 -0.122628555 0.29154596 0.019299746 -0.10568758 -0.04395558

layers.2.bias f4 [32]
00000000: c23c 203e 550e 3ebe bfb0 3abe 5b2a 613e
00000010: 1bfb 0b3e 7f35 c6bc 1361 adbb 1895 e4bd
00000020: 813a 183e d919 21be 41fc 64bd 9a60 6cbe
00000030: bcf1 5a3d 667d 763e c407 4f3e a412 833c
00000040: 4505 073e a541 febc 4262 d43d 8abe 26bd
00000050: 9540 8b3e a71b 973d e942 3c3e 9e8b 683e
00000060: 32ac 5ebe 3bc8 50be bb23 323e 9ab1 edbd
00000070: 92ce d1bc e30e d13c f3fc 31be b370 bc3d
0.15648177 -0.18560155 -0.18231486 0.21988814 0.13670008 -0.02419543 -0.005291113 -0.1116125
0.14866067 -0.15732516 -0.05590463 -0.23083726 0.053453192 0.24071273 0.20217806 0.0160001
0.13185604 -0.031037161 0.10370304 -0.040709056 0.2719771 0.07378321 0.18384899 0.2270951
-0.21745375 -0.20388882 0.17396443 -0.116061404 -0.025611196 0.025519794 -0.17381649 0.09201183

layers.3.weight f4 [32, 32]
00000000: 6832 fd3c f872 523d fbbb 6b3e 3178 afbd
00000010: 686c 5cbe d40b 0abe 3aa9 7c3e f010 d13c
00000020: 83fc e8bd b01a abbd 1ca6 063e 75fc d3bd
00000030: a629 283e 246e bd3d 7f2f 0c3d 7f92 d7bd
00000040: cd8e 67be 7cb6 bdbd 72af 523e ee29 52bd
00000050: bfb6 adbd 40a5 87bc 7183 6d3e 93dc 1fbc
00000060: 5f11 443e 1f5e 523e bc7b a5bd 140a e13d
00000070: e273 6bbe 15fe 14bc 5e93 533e 2be5 f63d
00000080: 8215 c43c 3775 15be cdcd b13c c125 823e
00000090: 7323 fc3b 16d9 673e 989c 1fbe 7cef 29be
000000a0: 6626 93bd b3d4 22be 58c4 ce36 b80b e23c
000000b0: 8bc3 233d 0352 14bd 8e25 613e 4855 30bd
000000c0: 537d b13d 3458 29be 8c06 3abe c847 50be
000000d0: 15d3 233e 30dd 64bc 27b4 8a3d 24fc 9c3d
000000e0: 30c9 3cbe c1b2 5bbe e8eb 233e a288 3b3d
000000f0: 46e1 683d 1152 d9bd fb84 eabd eec5 063e
00000100: e432 d23d 3693 76bd d5df dfbd 6283 9e3d
00000110: eb84 883d 4dcb 933e 3e29 8ebd 9818 013d
00000120: caeb b8bd ae56 58bd 64f8 49be 0f8b f2bc
00000130: 6e01 123d efc6 ec3d 185b 003e 1d6c 80be
00000140: 310a 3e3e 8c39 08be faf3 84be 7d32 dcbd
00000150: 3d87 593e 65cd 003e cfcc 033e bde3 143e
00000160: d875 0abe 1550 26bc d638 473e 07da c33d
00000170: 4478 c6bd 2af1 853e 5cf5 47be 16d3 233e
00000180: 2eae 57be cddb 633d 5aed 35bd 479d ef3c
00000190: 9e9f 2bbe 2b2c 573d 8a6d edbb ad85 26be
000001a0: 4107 cebd 078d c73a eaf7 433c c173 36be
000001b0: fc90 4a3e 5552 25bd 4c6d b2bd 8ff0 bebc
000001c0: cc45 b1be 4305 1b3e e3e5 043d 8f1f 8c3d
000001d0: 2e7c fbbd 3752 7d3d 3676 903e 130f 21bd
000001e0: 32ed ccbd ccde 97bd d07c 09be bbac c3bd
000001f0: b339 97be 1721 353e 9080 f53d 74f9 7e3e
00000200: 89c2 413e dd59 183d 4096 d13c ec01 12be
00000210: c0c7 d9bb e2da 28be 6443 e13d 5908 6c3e
00000220: 494b 89be b33f 833d e5cf 213e cb1b 473e
00000230: a646 b9bd 489f 273d 9462 3b3c 7100 c93d
00000240: aeb0 153d e75b e63d 221b cfbd ef44 a5bd
00000250: dad0 3dbe a5ba 66be 3c26 87bc 8bef d73d
00000260: 7671 cbbc 7692 713d 0729 c0bd c379 28bd
00000270: 93c8 f9bd 0303 68be 5d90 d23d 60eb a23d
00000280: 0774 8abc 9461 7b3c 9a0d 5dbd 18f8 903d
00000290: e63e 86bd c623 6cbd ee21 ef3c 536a 5d3e
000002a0: 716e 333e e122 a3bd def7 f9bb 0aae 4cbe
000002b0: 373e 4ebe 2b97 d23e 0937 013e 5c70 683a
000002c0: 45a0 583e 3b81 883d b964 8a3d 0f31 bc3d
000002d0: 3aad 843d c10b ddbd b977 99be 0c47 75bd
000002e0: 977b 973d cbf4 f13c 7cb7 263e 9a3e df3e
000002f0: 8bd0 073f 4c8e e33d 17b3 b03c b073 cd3d
00000300: 80ba 81be 3b58 7f3e b123 f53d 820d 90bd
00000310: 9c67 99be 2196 13be ee8d 21bd 31ba babd
00000320: ce21 b9bc f7c3 80bd 82e8 bfbc 87ad abbd
00000330: 26c6 e03c e781 383e 825a 06be 5b4c 243e
00000340: 48f1 bfbd da9b d13d 421a d33d 417b ac3e
00000350: bc41 8d3d 43a8 313c b1db 443e c5e3 c0bc
00000360: d79d 923e aeb6 1ebd aee5 2dbe fc1d 25be
00000370: c672 87be fa64 4b3d 04e1 cdbc ecea 2c3c
00000380: e77d 143e bc01 28be 6cf3 89bd 7261 543e
00000390: 0a61 b5bc f3aa 3d3d a58e 8dbe 561f 203e
000003a0: e846 ba3d 9bbc 19bc fed5 0c3e a4b1 12be
000003b0: e40b 7d3d d5eb 1bbe 65f6 153e 99fe a9bb
000003c0: edca 9c3e fb1b ddbd 80f4 25be 3683 7f3d
000003d0: 167f 413e 2a4b b63c 6206 64be 4ad5 90bd
000003e0: 2445 3ebe a28b f33d dad9 903d 5747 fc3d
000003f0: 5c1b 11bd 8a20 b43d 07ba 21be fdab 67be
0.030907825 0.051379174 0.23020928 -0.085678466 -0.21525729 -0.13481075 0.2467393 0.025520772
-0.11376288 -0.083546996 0.13149303 -0.10350887 0.16422138 0.09249523 0.034224983 -0.10525989
-0.22613068 -0.09263322 0.2057474 -0.05130952 -0.08482122 -0.01655829 0.23194672 -0.009757179
0.19147252 0.20543717 -0.08080241 0.109882504 -0.22993425 -0.009093781 0.20661685 0.12055429
0.023936037 -0.14595495 0.021704579 0.2541943 0.0076946556 0.22641405 -0.1558708 -0.16595262
-0.07185058 -0.15901451 6.162136e-06 0.027593479 0.039981406 -0.036211025 0.21986982 -0.04305008
0.08666482 -0.16537553 -0.1816656 -0.20339882 0.1599849 -0.013968751 0.067726426 0.076652795
-0.18436122 -0.21454908 0.1600796 0.0457846 0.056855462 -0.10611356 -0.11451145 0.13161442
0.10263613 -0.060198985 -0.109313644 0.07739903 0.06665977 0.28866044 -0.0694146 0.031517595
-0.09029348 -0.05281704 -0.1972366 -0.029607324 0.035645895 0.11561381 0.1253475 -0.25082484
0.18558575 -0.13303202 -0.2596739 -0.107518174 0.21242996 0.12578352 0.12871097 0.1454
-0.13521516 -0.010150929 0.19455275 0.0956307 -0.096909076 0.26160556 -0.19527191 0.15998492
-0.21062538 0.05562954 -0.04441581 0.0292498 -0.16760108 0.052532356 -0.007245724 -0.16261931
-0.10059977 0.0015224525 0.011960963 -0.17817594 0.1978187 -0.04036172 -0.08712253 -0.023308067
-0.34623563 0.15138726 0.0324458 0.06841957 -0.12279545 0.061845984 0.28215188 -0.039321017
-0.10006179 -0.07415542 -0.13426518 -0.0955443 -0.2953621 0.17688404 0.11987412 0.24899846
0.18921866 0.037195075 0.02558434 -0.14258546 -0.0066461265 -0.16489747 0.10999182 0.2305006
-0.2681525 0.06408634 0.15801962 0.19444196 -0.09046678 0.040923387 0.011437077 0.09814537
0.036545448 0.11247998 -0.10112597 -0.08069789 -0.18536702 -0.22532137 -0.016497724 0.10543736
-0.024834376 0.058977567 -0.09382825 -0.041131746 -0.121964596 -0.22657399 0.10281441 0.079550505
-0.01690103 0.015343089 -0.05396805 0.0707857 -0.06554966 -0.057651304 0.029190984 0.2162259
0.17522599 -0.07965637 -0.007628425 -0.19988266 -0.2014092 0.41130957 0.1261865 0.00088668405
0.21154888 0.06665274 0.067574926 0.09189045 0.06478353 -0.107932575 -0.29974154 -0.05988221
0.0739662 0.029535672 0.16280931 0.4360245 0.53052586 0.11111125 0.021569772 0.10031831
-0.253376 0.24936001 0.11969698 -0.070338264 -0.2996186 -0.14412738 -0.039441995 -0.091175444
-0.022599127 -0.06287377 -0.023426298 -0.08382707 0.027438235 0.18018304 -0.13120463 0.16044752
-0.093721926 0.102348045 0.10307743 0.33687785 0.068973035 0.010843339 0.1922443 -0.023546109
0.28636047 -0.038748436 -0.16982147 -0.1612472 -0.26454753 0.049656846 -0.02513171 0.010554057
0.14501153 -0.16406912 -0.06735882 0.20740297 -0.022140998 0.046305608 -0.27647892 0.15636954
0.090955555 -0.009383346 0.13753507 -0.14325577 0.061778918 -0.15226682 0.14644773 -0.005187821
0.3062357 -0.107963525 -0.1620655 0.062380992 0.18896136 0.022252638 -0.2226806 -0.07071932
-0.18581063 0.11891867 0.07072802 0.123182945 -0.035426483 0.08795269 -0.1579362 -0.22624202

layers.3.bias f4 [32]
00000000: db9d 29bd 1bd1 533e 4e73 263e c2fd 013c
00000010: e71b cfbd 1e9c a3bd 6563 da3d b209 00be
00000020: 5027 323d 2475 d43c ba52 0f3e be84 03be
00000030: aa13 d0bd 5844 c93d 04ed 61be c34a 65bc
00000040: 5f34 d5bd 7c1a e4bc 72cb 263e cd96 57be
00000050: c636 52bd 6e73 16be 99c9 3e3e 8d50 8abd
00000060: 1421 4fbb ef40 6dbc 07cc f0bd d5cc 53be
00000070: 2caf 1abd 622a e03c 3a0a 023e 3702 883d
-0.04141031 0.20685236 0.16254923 0.007934036 -0.10112744 -0.07988761 0.10663489 -0.12503698
0.043494523 0.025934763 0.13996401 -0.12843606 -0.101600006 0.09827489 -0.2206307 -0.013994875
-0.104103796 -0.02784466 0.16288546 -0.2105362 -0.051321767 -0.1469247 0.18631591 -0.06753645
-0.003160541 -0.014480813 -0.11757665 -0.20683606 -0.037764713 0.02736396 0.12699214 0.066410474

out.weight f4 [3, 32]
00000000: 802c d9bd 998f 493d 7841 983b 1111 8cbd
00000010: f378 a53c 78da 9b3d 6795 89be b767 903d
00000020: b04f 273c a4a9 0fbe 9998 ee3e 03a7 ccbc
00000030: b634 cf3d 1c88 30bf d81d 0c3e c923 b83d
00000040: 22a0 ff3d a877 07be 17da ffbd ea77 4a3c
00000050: 53b2 1abe 6b23 9d3d 5cd4 11be f615 22be
00000060: 2253 da3d 5691 a1bd 1081 923d ad52 a83d
00000070: 439e b4bd 1f58 d63d da1c 023e d450 35ba
00000080: b8b7 9fbd d92a 243d b76b d6bd 3029 3bbe
00000090: 8585 4b3e 5d90 dbbc db25 41bb b22a 093e
000000a0: 77a7 223e c4f1 2fbe 3bcf d83e 1662 463e
000000b0: 93ed 28be ab56 263f d0bf 89bd 89fc 3bbe
000000c0: b7bd d7bd a927 b6bd ebd6 bd3d c67c bbbd
000000d0: 17e6 243c 6cc1 f53d 42a9 b03d 0bbc bbbd
000000e0: 2aaf 24be ffd0 8fbc b78c 07bd 8ea7 c53d
000000f0: 8087 c83d 9405 45bb 843f 16be 7eb0 f53d
00000100: 49f9 403e 8966 7fbe 494d 7dbe 30dc 8e3e
00000110: 5958 403e b174 a7be 6c4f 353e 5065 63be
00000120: be09 d63d 359a 1dbe c107 edbd 787b 023e
00000130: 8222 3a3e 52ed f3bb c022 093e 2734 57be
00000140: d08c 81be b531 883e 046b 43be cd19 813e
00000150: e4ee 243e ed67 b73d 94ff 41be 0bdd 843e
00000160: 04a9 6a3e 2971 0e3e 01e1 f63d 8c69 913d
00000170: 0e27 fabd 6e85 27be b8e0 333e ccb2 6cbe
-0.10604191 0.04920921 0.0046464764 -0.06839193 0.020199275 0.07610029 -0.26871797 0.07051032
0.01021187 -0.14029557 0.46600798 -0.024981981 0.10117476 -0.68957686 0.1368326 0.089912005
0.12481715 -0.13229239 -0.12492769 0.012357691 -0.15107088 0.07672771 -0.14241165 -0.1582869
0.106603876 -0.07889049 0.07153523 0.08218894 -0.088192485 0.104660265 0.12706318 -0.00069166464
-0.077987134 0.040079925 -0.10469764 -0.1827743 0.19875152 -0.026802236 -0.0029472027 0.13395193
0.15884195 -0.1718207 0.42345604 0.19373354 -0.16496877 0.64975995 -0.067260385 -0.18358053
-0.10534232 -0.08894283 0.09269508 -0.09154658 0.010064623 0.11999783 0.08626033 -0.09166726
-0.16082445 -0.017555712 -0.03309318 0.09651099 0.097914696 -0.003006314 -0.14672667 0.11996554
0.18845095 -0.24941458 -0.24736513 0.27902365 0.18783702 -0.32706216 0.17706078 -0.22206616
0.10451077 -0.15390857 -0.115737446 0.12742412 0.18177226 -0.0074440623 0.13392162 -0.21015988
-0.25302744 0.26600423 -0.19083792 0.25214997 0.16106755 0.08955369 -0.18945152 0.25949892
0.22916037 0.13910355 0.12054635 0.071002096 -0.1221448 -0.16359493 0.17566192 -0.2311508

out.bias f4 [3]
00000000: 4055 853c 8328 7a3d b961 babd
0.016276002 0.06107379 -0.0910067
