Region 1 B-Field Trained On Boundary (32, 8).pth (torch, 37326 bytes, 18 tensors)

layers.0.weight f4 [32, 3]
0	0x3ef067d0	0.46954203
1	0xbe49b3fa	-0.19697562
2	0x3e81ad25	0.2532741
3	0xbc6bfdaa	-0.01440374
4	0xbeb86283	-0.36012658
5	0x3e96af2f	0.2943053
6	0x3ee881d6	0.45411557
7	0x3a6169d7	0.000859884
8	0xbf1bb46f	-0.60822195
9	0xbe8fa1db	-0.28053173
10	0x3e531b2b	0.20615833
11	0x3ec241ca	0.37940818
12	0x3d09e740	0.033667803
13	0x3ce829b6	0.028340202
14	0x3f01df91	0.5073176
15	0x3d2c8954	0.042123154
16	0x3e42970d	0.19002934
17	0x3d2ae308	0.04172042
18	0xbdc9c5d9	-0.098521896
19	0xbe1eae56	-0.15496191
20	0xbeb357b9	-0.35027865
21	0x3c48fa42	0.012266697
22	0x3e9f8a6c	0.31160295
23	0x3f049eec	0.51804996
24	0x3e9613d5	0.29312006
25	0x3ea2da57	0.31807205
26	0x3f08841b	0.53326577
27	0xbeb54f18	-0.35411906
28	0x3e6f37e4	0.23361164
29	0x3d986411	0.07440961
30	0x3e29f7c4	0.16598421
31	0x3c94afdc	0.018150263
32	0x3c8b22ef	0.016984431
33	0xbe3fe801	-0.18740846
34	0x3c8c7e79	0.01715015
35	0x3dfda28b	0.12384518
36	0x3e407844	0.18795878
37	0xbe2e8c4e	-0.1704571
38	0x3f2de06b	0.6792056
39	0x3e53c48e	0.20680448
40	0xbebd306c	-0.36951005
41	0xbde52baa	-0.11189969
42	0xbe1af904	-0.15134054
43	0xbe13133d	-0.14362808
44	0xbf47e038	-0.78076506
45	0xbc7705dd	-0.0150770815
46	0x3e5cf69b	0.21578448
47	0xbc9fb47c	-0.019495241
48	0x3eb1594c	0.3463844
49	0xbe442811	-0.19155909
50	0xbf6adab1	-0.91739947
51	0xbe8ad87c	-0.2711829
52	0xbe2d8e96	-0.16948923
53	0x3f14a73e	0.5806769
54	0xbce30765	-0.027713487
55	0x3ee59c56	0.44845837
56	0xbf669c49	-0.9008222
57	0x3d61adcc	0.055097386
58	0x3d33c003	0.04388429
59	0xbf0af51e	-0.5428027
60	0x3d6aa39c	0.057284936
61	0x3c58fa1b	0.013243224
62	0x3f0fdd53	0.5619709
63	0x3b67ec6d	0.0035388723
64	0x3ac93d96	0.0015353437
65	0xbba90974	-0.0051585976
66	0xbe8fedac	-0.28111017
67	0x3ec946c3	0.393118
68	0xbeac304a	-0.33630592
69	0xbe8fa0c4	-0.28052342
70	0xbe34f3c7	-0.17671119
71	0x3e949f8f	0.29027984
72	0xbd66c479	-0.056339715
73	0xbe127496	-0.14302287
74	0x3dcebb38	0.10094303
75	0xbd91181d	-0.07084677
76	0xbdba88e7	-0.09108143
77	0x3e210e7f	0.15728186
78	0xbe6ac459	-0.22926463
79	0x3c88aa1e	0.01668268
80	0x3cce9a53	0.025220072
81	0xbea53d69	-0.32273415
82	0xbd169f87	-0.03677323
83	0xbf084d71	-0.53243166
84	0x3ea2b119	0.3177574
85	0xbed8b818	-0.42327952
86	0x3e0efaca	0.13962856
87	0xbcbfed73	-0.023428654
88	0x3c43fd56	0.011962255
89	0x3ed67e5d	0.41893283
90	0xbde696f5	-0.112592615
91	0xbd8adf44	-0.06780866
92	0xbe1cd8dd	-0.15317102
93	0xbd7768f3	-0.06040282
94	0x3ead521d	0.3385171
95	0x3e21dd9e	0.15807196

layers.0.bias f4 [32]
0	0x3f48f3b7	0.7849688
1	0x3f0a8395	0.5410703
2	0xbf652826	-0.89514387
3	0xbe9f4264	-0.3110534
4	0x3c6e2b86	0.014536744
5	0xbf4bd9ac	-0.79629016
6	0x3ebc1dfb	0.36741623
7	0x3f380f82	0.71898663
8	0xbd13d969	-0.03609601
9	0x3d6d532e	0.057940654
10	0xbf2aef63	-0.66771525
11	0xbf2e11b2	-0.6799575
12	0x3f320f37	0.69554466
13	0x3e3d014b	0.18457524
14	0x3c944279	0.018098103
15	0x3f767fb9	0.9628864
16	0xbf7e5fae	-0.99364746
17	0x3f120e48	0.5705304
18	0xbf20f634	-0.62875676
19	0x3f0ecd41	0.5578194
20	0xbe663f49	-0.22485079
21	0x3f7f4e02	0.99728405
22	0xbf026b4f	-0.5094499
23	0x3f01b5d2	0.5066806
24	0xbe1f3551	-0.15547682
25	0x3be73be3	0.0070566996
26	0xbf88fee2	-1.0702784
27	0xbf41a7cf	-0.7564668
28	0x3b8d5d8c	0.00431413
29	0x3de07890	0.109604955
30	0x3f4123ba	0.7544514
31	0x3f32aea3	0.69797724

layers.1.weight f4 [32, 32]
0	0x3d9ef3e1	0.0776136
1	0xbdf1cd19	-0.118066974
2	0x3da413c6	0.08011584
3	0xbe190752	-0.14944199
4	0xbc7b179c	-0.015325453
5	0x3e3b8c16	0.18315157
6	0xbe1e00f8	-0.15430057
7	0xbd971a50	-0.073780656
8	0xbde5ca8a	-0.11220272
9	0xbd3b8337	-0.045779433
10	0xbb868e1e	-0.004106297
11	0x3db48787	0.08814912
12	0xbc57ea34	-0.013178397
13	0x3e0dbe55	0.13842137
14	0xbda1bf8a	-0.07897861
15	0xbcfec6e8	-0.031100705
16	0x3d1c74a5	0.03819718
17	0xbd875ccb	-0.06609496
18	0x3db4b838	0.088241994
19	0xbd779770	-0.060447156
20	0x3e4af547	0.19820128
21	0x3eca590d	0.39521065
22	0x3d6831bd	0.05668806
23	0x3daa4027	0.08313017
24	0xbc7e2644	-0.015512053
25	0xbd126382	-0.03573943
26	0x3e791d61	0.24327613
27	0x3e2ed3d8	0.17073
28	0x3d6f67fc	0.058448777
29	0x3e2fedd5	0.1718057
30	0x3d37141b	0.04469691
31	0x3c3be6c2	0.011468591
32	0xbe30d14d	-0.17267342
33	0x3e13a520	0.14418459
34	0x3db8a2d0	0.09015429
35	0xbe328081	-0.17431833
36	0xbd81853b	-0.0632424
37	0x3e8eeaa7	0.279134
38	0xbdbb2137	-0.091371946
39	0x3e2dd47e	0.1697559
40	0x3e53bf66	0.20678481
41	0xbe09755b	-0.13423674
42	0x3d486286	0.048922084
43	0xbb83d29c	-0.0040229093
44	0xbd116166	-0.035493277
45	0xbdcbb6b8	-0.0994696
46	0xbe9dd99f	-0.30830094
47	0x3e09d4a9	0.1346003
48	0xbdc49dc4	-0.09600404
49	0x3d371799	0.04470024
50	0xbda2733d	-0.07932136
51	0x3e1fdd9b	0.1561188
52	0x3e3cf33d	0.18452163
53	0xbe3955a1	-0.18099071
54	0xbb4eb62a	-0.0031541684
55	0xbd09491f	-0.033517
56	0xbd07228b	-0.032991927
57	0xbe2497bc	-0.16073507
58	0xbd8cb97b	-0.06871315
59	0xbde37b0f	-0.11107456
60	0xbc8ac1ab	-0.016938051
61	0xbd204bf1	-0.039134923
62	0xbe9f4326	-0.31105918
63	0x3dbf99f4	0.09355536
64	0xbdc44bac	-0.09584746
65	0xbdd4fb3e	-0.10399483
66	0x3d7c95c5	0.06166627
67	0x3cb8aaff	0.022542475
68	0x3e07587d	0.1321735
69	0xbdec468b	-0.115368925
70	0xbd4c7330	-0.04991454
71	0xbdc1928b	-0.09451779
72	0xbdec665c	-0.11542961
73	0xbd1df434	-0.03856297
74	0x3cc98834	0.02460108
75	0x3d9e86d2	0.07740559
76	0x3d190882	0.03736163
77	0xbdae5f9f	-0.08514332
78	0x3e1016db	0.14071219
79	0xbe87f80b	-0.2655643
80	0x3e072cb2	0.13200644
81	0x3e06bbae	0.13157532
82	0x3e36659a	0.17812195
83	0xbe77ac37	-0.24186788
84	0x3dfcd799	0.123458095
85	0x3ef99de7	0.48753282
86	0xbc7a3f10	-0.015273824
87	0xbc3d73d8	-0.011563264
88	0x3d99bcdf	0.075067274
89	0x3dfd227d	0.12360094
90	0x3e286ab7	0.16446958
91	0x3cc22110	0.023697406
92	0xbd498f0b	-0.049208682
93	0x3d6feb50	0.05857402
94	0xbd1cb465	-0.038257975
95	0xbdffef9a	-0.12496872
96	0x3e0d8db4	0.13823587
97	0x3de02d2b	0.10946115
98	0xbdcdf98f	-0.10057365
99	0x3e207b67	0.15672074
100	0x3e308a40	0.17240238
101	0x3cb716d5	0.022349754
102	0xbd49d64f	-0.049276646
103	0x3d13be81	0.03607035
104	0x3d9cd7be	0.07658337
105	0xbd9065c1	-0.07050658
106	0x3c95a9d3	0.018269455
107	0xbcb32577	-0.02186845
108	0x3ddd78f3	0.10814085
109	0xbd10429e	-0.03521978
110	0x3d174e15	0.0369397
111	0xbe421b9b	-0.18955843
112	0x3d93ebe6	0.072227284
113	0x3ed48d1b	0.41513905
114	0xbe98fe18	-0.29881358
115	0xbf0bd526	-0.54622114
116	0x3e123117	0.14276539
117	0x3e199cdb	0.15001242
118	0xbe8871db	-0.26649365
119	0x3e4033d6	0.18769774
120	0x3ee08ae8	0.43855977
121	0x3e01b7d4	0.12667781
122	0x3e40f54f	0.18843578
123	0x3db70976	0.089373514
124	0x3dbfc168	0.09363061
125	0x3e6e3a03	0.23264317
126	0xbe93ad90	-0.28843355
127	0x3d0b4590	0.034001887
128	0x3e327771	0.17428376
129	0xbe06250d	-0.13100071
130	0xbd545294	-0.051836565
131	0xbe2da0de	-0.16955897
132	0x3d7093f9	0.058734868
133	0xbe2a176e	-0.166105
134	0x3e236d85	0.15959747
135	0xbd56068f	-0.05225235
136	0xbe1ab813	-0.15109281
137	0x3dff926f	0.12479102
138	0x3da2b639	0.079449125
139	0xbe7b67e8	-0.24551356
140	0x3e42cba7	0.19023
141	0x3d6fda91	0.05855805
142	0xbce5a4ff	-0.028032778
143	0x3e17843a	0.14796534
144	0xbd9de645	-0.07709936
145	0xbe231ade	-0.15928218
146	0xbd697317	-0.056994524
147	0x3cd01d7a	0.02540468
148	0xbe1ae037	-0.15124594
149	0xbf100ae4	-0.5626662
150	0xbd9515d4	-0.07279554
151	0x3dc998fa	0.09843631
152	0x3dd58a8d	0.10426817
153	0xbe30dbd1	-0.17271353
154	0xbd15cd61	-0.036572818
155	0xbb4aed0e	-0.003096405
156	0x3c96faba	0.018430103
157	0x3da3fb42	0.08006908
158	0x3b65d69e	0.0035070549
159	0x3c987a32	0.018612955
160	0xbd8d673d	-0.06904457
161	0x3e198eb5	0.14995845
162	0xbdadb6bb	-0.08482119
163	0x3e0d0dbc	0.1377477
164	0xbdb8431a	-0.089971736
165	0x3bab6ada	0.0052312436
166	0xbd513fd2	-0.051086254
167	0xbc852ccf	-0.016256718
168	0xbdc5aea3	-0.0965245
169	0xbde38f87	-0.1111136
170	0xbe1805cc	-0.14845961
171	0x3d861965	0.06547812
172	0x3d347c0e	0.04406362
173	0xbdec2cfb	-0.11532017
174	0xbaeae848	-0.0017922008
175	0xbdba5dec	-0.090999454
176	0xbd853a3b	-0.06505247
177	0x3da56d7f	0.08077525
178	0xbc7bf60b	-0.015378485
179	0x3d77c34f	0.060488995
180	0x3cdee0e7	0.027206851
181	0x3e2483ae	0.16065857
182	0xbd15927e	-0.03651666
183	0x3e3c267a	0.18374053
184	0x3e61cb0c	0.22050112
185	0x3dedd140	0.11612177
186	0x3c8ee7e4	0.017444558
187	0xbe077000	-0.13226318
188	0xbe29751e	-0.16548583
189	0x3ddaf288	0.106907904
190	0xbdac4e97	-0.08413427
191	0xbdc76281	-0.09735585
192	0xbdeef3e4	-0.11667612
193	0x3da3e0a0	0.08001828
194	0xbe542554	-0.20717365
195	0x3dae4c46	0.08510642
196	0xbd66e2a1	-0.056368474
197	0xbe3764fe	-0.17909619
198	0xbdb05105	-0.08609203
199	0xbc92c5fb	-0.01791667
200	0x3c97dfba	0.018539298
201	0xbc86a1b2	-0.016434524
202	0xbe760fd0	-0.2402947
203	0x3e09963b	0.13436215
204	0xbe1accea	-0.15117231
205	0x3de80660	0.11329341
206	0x3cc955f2	0.024577115
207	0x3e1c12d8	0.15241563
208	0xbe3f2fa5	-0.18670519
209	0x3b525c07	0.003209831
210	0xbde50c7f	-0.11184024
211	0x3c107d4e	0.008818937
212	0xbdbfb305	-0.09360317
213	0xbed09911	-0.4074178
214	0xbddaa882	-0.106766716
215	0x3d31ff1c	0.043456182
216	0xbdacea4a	-0.084431246
217	0xbe3413af	-0.17585634
218	0xbdae30c4	-0.08505395
219	0x3cf76b1f	0.030202447
220	0xbcd6e8f3	-0.026234126
221	0x3d822bf6	0.06356041
222	0xbd363adc	-0.044489726
223	0x3d3744b7	0.044743266
224	0x3dc98725	0.0984023
225	0xb9c48b18	-0.00037487666
226	0x3d03a1b7	0.032136645
227	0xbe3d78a8	-0.18503058
228	0x3de62266	0.1123703
229	0xbd455c2c	-0.048183605
230	0x3d65afd5	0.05607589
231	0xbe75fb77	-0.24021707
232	0x3d06671b	0.032813173
233	0xbc8b7de5	-0.017027805
234	0x3d8ee366	0.069769666
235	0xbe41c6c1	-0.18923475
236	0x3cdcd03f	0.026954768
237	0xbde90ca0	-0.11379361
238	0xbe4f08d7	-0.20218216
239	0x3e0d54dd	0.13801904
240	0x3e4bb705	0.19894035
241	0xbe4be2ab	-0.19910686
242	0xbdb84e8b	-0.08999356
243	0x3d035f2f	0.032073196
244	0x3e40e876	0.18838677
245	0xbca29367	-0.019845678
246	0x3e0c9632	0.1372917
247	0xbe4f6a0a	-0.20255294
248	0x3da93766	0.082625195
249	0xbd6cdedb	-0.05782972
250	0x3df2a5a2	0.11847998
251	0x3bf82171	0.007572346
252	0x3d397b12	0.045283385
253	0xbdf66b64	-0.12032202
254	0xbe179c5e	-0.14805743
255	0xbe419201	-0.18903352

layers.1.bias f4 [32]
0	0x3dc8cac7	0.09804302
1	0x3e4a8798	0.19778287
2	0xbcaef327	-0.021356178
3	0x3d9aabff	0.07552337
4	0x3dd05653	0.10172715
5	0xbd85d549	-0.065348215
6	0x3d8604c4	0.06543878
7	0xbdb0762b	-0.08616289
8	0xbdb88452	-0.09009613
9	0xbc9ed2b2	-0.019387577
10	0x3b91f685	0.0044544362
11	0xbcaa825c	-0.020814113
12	0xbdf7367f	-0.12070941
13	0x3de9f074	0.11422816
14	0xbe2d0791	-0.16897418
15	0x3ce138f6	0.027492981
16	0x3e18c9aa	0.14920679
17	0xbd39e1aa	-0.045381226
18	0x3e06f540	0.13179493
19	0x3e3a2e90	0.18181825
20	0xbd48e911	-0.049050394
21	0xbdab159e	-0.083537325
22	0x3c95e1d3	0.018296158
23	0xbdb16db0	-0.08663499
24	0xbd954134	-0.07287827
25	0xbda011b5	-0.07815877
26	0x3db3aad4	0.08772817
27	0xbe03a984	-0.12857634
28	0x3cd23396	0.025659364
29	0x3b4ba495	0.003107344
30	0xbdb4b877	-0.088242464
31	0xbdee254f	-0.1162821

layers.2.weight f4 [32, 32]
0	0x3e390f37	0.1807221
1	0x3daf824b	0.08569773
2	0x3de244bd	0.11048267
3	0x3e10ef7f	0.1415386
4	0xbe22b798	-0.15890348
5	0x3d349344	0.044085756
6	0xbdd62ceb	-0.10457786
7	0xbe3af679	-0.18258084
8	0x3d96e6dc	0.07368252
9	0xbda8514c	-0.08218631
10	0xbe85c8d8	-0.26129794
11	0x3e75739c	0.23969883
12	0xbe251fdf	-0.16125439
13	0xbe3e4027	-0.1857916
14	0x3dca1021	0.098663576
15	0xbea71409	-0.32632473
16	0x3db63fd8	0.08898896
17	0x3cc43135	0.023949245
18	0x3d58bd16	0.0529147
19	0x3e0ba2cc	0.13636321
20	0x3e2a71cc	0.16644973
21	0x3c8820db	0.01661723
22	0x3d6a5bb2	0.057216354
23	0xbe65342b	-0.22383182
24	0xbe39091f	-0.18069886
25	0xbe312063	-0.17297511
26	0xbe18c84a	-0.14920154
27	0xbdaf5603	-0.08561327
28	0xbdfcf82b	-0.12352022
29	0x3d5719d1	0.052514855
30	0x3d7340cb	0.059387963
31	0xbe4858b1	-0.19565083
32	0x3e977e79	0.29588678
33	0x3dc84a2d	0.09779773
34	0x3e62cef2	0.22149256
35	0xbe0913d7	-0.13386475
36	0xbe9b6c59	-0.303561
37	0x3e0bf704	0.13668448
38	0xbef47d06	-0.47751635
39	0xbdebd5c6	-0.115153834
40	0xbd93fc29	-0.0722583
41	0xbda30e2a	-0.07961686
42	0xbe3009fb	-0.17191307
43	0x3ef0a36f	0.4699969
44	0xbd7ec9ad	-0.06220405
45	0xbe0185d2	-0.12648705
46	0x3ec3c23e	0.38234133
47	0x3d5e5de4	0.05428876
48	0xbdcf5b84	-0.10124877
49	0xbe62907e	-0.22125432
50	0x3e22bc5e	0.15892169
51	0xbd9f1944	-0.07768491
52	0x3e0fe5d8	0.14052522
53	0xbe4e078c	-0.20120066
54	0x3e7e39f2	0.24826792
55	0x3ed4bfd4	0.41552603
56	0xbe1082ac	-0.14112347
57	0xbcf46f74	-0.029838301
58	0x3dd3e45d	0.10346291
59	0x3dad7820	0.08470178
60	0x3e535f3c	0.20641798
61	0x3ccab87c	0.024746172
62	0xbc8684e4	-0.016420789
63	0x3ddd23b5	0.10797826
64	0xbd9bfbd7	-0.07616394
65	0x3dc4bb48	0.096060336
66	0xbd4d0d1b	-0.050061326
67	0xbcc8c7e0	-0.02450937
68	0x3d7c7814	0.061637953
69	0xbd65f4f5	-0.056141812
70	0xbea77792	-0.32708412
71	0xbdd5d7fe	-0.10441588
72	0xbd5bd2b8	-0.053667754
73	0x3d6e30b4	0.058151916
74	0xbe22ce88	-0.15899098
75	0x3e432340	0.19056416
76	0x3d17b2b5	0.037035663
77	0xbe4d0c36	-0.2002419
78	0x3c874f9a	0.01651745
79	0xbd964143	-0.073366664
80	0x3dd2d14e	0.10293828
81	0xbdf0bfe2	-0.11755349
82	0xbd9cb0b6	-0.076508924
83	0x3e4ab24b	0.19794576
84	0x3e69c6e2	0.22829774
85	0xbd9b39d3	-0.075793885
86	0x3c6e168c	0.014531743
87	0x3e7190a3	0.23590331
88	0xbe60cd76	-0.21953377
89	0x3dd88363	0.10571935
90	0x3d9cfe46	0.07665686
91	0xbdb9f85c	-0.09080574
92	0xbd9527ca	-0.0728298
93	0x3e5d05ae	0.21584198
94	0xbd7aff38	-0.06127855
95	0x3c01fffe	0.007934568
96	0xbe8b1414	-0.27163756
97	0xbe1edd34	-0.1551407
98	0xbe5a2adb	-0.2130541
99	0x3e18f992	0.14938954
100	0x3e4fefcb	0.20306318
101	0xbde90733	-0.11378326
102	0x3d2622c0	0.040560484
103	0x3e646e46	0.22307691
104	0xbc9b66e1	-0.018969955
105	0x3e887d62	0.2665816
106	0x3ecd9fd3	0.40161
107	0xbe9aa39e	-0.30202955
108	0x3cda0829	0.02661522
109	0x3e03dfa1	0.12878276
110	0x3da98d5f	0.082789175
111	0xbdd509ad	-0.10402236
112	0xbd86fe98	-0.06591529
113	0xbe6bd90f	-0.2303202
114	0x3d51db3c	0.05123447
115	0xbd229857	-0.039696064
116	0x3e79be88	0.24389088
117	0x3df21de0	0.118221045
118	0x3d335479	0.04378173
119	0xbe336289	-0.17518057
120	0xbde8f5a0	-0.11374974
121	0x3e938186	0.28809756
122	0xbdb0f027	-0.086395554
123	0xbc8530b8	-0.016258582
124	0xbdedeab5	-0.116170324
125	0x3df0f8f3	0.11766233
126	0xbe61005a	-0.2197279
127	0x3ea59e2f	0.32347247
128	0x3d5e4af7	0.05427071
129	0xbe1e3360	-0.15449286
130	0x3aa1cc7c	0.0012344266
131	0xbd46e3f0	-0.048557222
132	0x3eb6de86	0.35716647
133	0xbd6997ca	-0.057029523
134	0xbdfa5cf6	-0.12224762
135	0x3c2a906d	0.01041041
136	0x3d108286	0.035280727
137	0x3da5b2ca	0.08090742
138	0x3ea447b0	0.32085943
139	0xbe7224fd	-0.23646922
140	0xbae78d56	-0.0017666023
141	0x3eb69367	0.35659334
142	0x3dac1a04	0.084033996
143	0x3eb22b14	0.3479849
144	0xbcc06988	-0.023487821
145	0xbeb0d100	-0.34534454
146	0xbb6dad08	-0.0036266465
147	0xbda28c5f	-0.0793693
148	0x3e48fad2	0.1962693
149	0xbcef1bde	-0.029188093
150	0xbb62d17b	-0.0034609723
151	0x3d27b9d1	0.040948693
152	0x3e22b50c	0.15889376
153	0x3e46ca2f	0.19413064
154	0xbddb97a4	-0.107222825
155	0xbd0f2306	-0.03494551
156	0xbe1901f3	-0.1494215
157	0xbc9b5d02	-0.018965248
158	0xbeab0346	-0.33400935
159	0x3d070a3f	0.032968756
160	0x3dfb7c3d	0.12279556
161	0x3d4945cb	0.049138825
162	0x3ebebe7e	0.3725471
163	0xbe0821bc	-0.13294119
164	0xbe86311e	-0.26209348
165	0x3dcf4582	0.101206794
166	0x3e5ad879	0.2137164
167	0xbdbeb965	-0.09312705
168	0x3e32dd72	0.17467287
169	0xbe488ac4	-0.19584185
170	0x3c2742c0	0.0102087855
171	0xbe5196c7	-0.20467673
172	0xbc848362	-0.01617593
173	0xbd8f2ef5	-0.06991378
174	0x3cc8ab11	0.024495633
175	0xbc20dfea	-0.00981901
176	0xbe477b3b	-0.19480602
177	0x3e29d5b3	0.16585426
178	0x3e36cfef	0.17852758
179	0x3dfbe3dd	0.12299321
180	0x3d636bc5	0.0555227
181	0x3dc58c5a	0.096459106
182	0x3d9f7ec0	0.077878475
183	0xbe10318b	-0.14081399
184	0xbe6bbaec	-0.23020524
185	0x3c23c749	0.009996244
186	0xbe329321	-0.17438938
187	0x3bdb8c20	0.006700054
188	0xbc056e76	-0.008144012
189	0xbd3e7f2e	-0.046508007
190	0x3cbb54c9	0.022867577
191	0x3b097cde	0.0020978968
192	0xbcb84246	-0.02249254
193	0xbdc1352a	-0.09433968
194	0x3e2a3644	0.16622263
195	0xbd82a5ff	-0.063793175
196	0x3d16a869	0.036781702
197	0x3b592d01	0.0033138397
198	0xbd322b81	-0.04349852
199	0x3e2c2e80	0.16814613
200	0x3e27e75c	0.1639685
201	0xbd24c2d7	-0.040224876
202	0xbc006a4c	-0.007837843
203	0x3c1ccf7e	0.009570954
204	0xbe6f1270	-0.23346877
205	0xbe339e79	-0.17540921
206	0x3b9a1659	0.004702371
207	0xbd15124b	-0.0363944
208	0xbe2a0108	-0.16601956
209	0x3d5f798b	0.05455927
210	0xbca9b3a6	-0.020715546
211	0xbda924fd	-0.08259008
212	0x3dd21e85	0.102597274
213	0x3d087e9a	0.03332386
214	0xbe325858	-0.17416513
215	0xbe124da2	-0.14287427
216	0x3d817275	0.06320659
217	0xbe54f848	-0.20797837
218	0xbe22bbe7	-0.15891992
219	0xbc84a642	-0.01619256
220	0xbd0ba1ff	-0.03409004
221	0xbe18c85b	-0.1492018
222	0x3e7d2797	0.24722134
223	0xbe2761e5	-0.16345938
224	0x3d108de0	0.035291553
225	0xbe90d073	-0.28284034
226	0x3d0c65ad	0.034276653
227	0xbddca354	-0.1077334
228	0xbdf47719	-0.119367786
229	0xbdc3fe19	-0.0956995
230	0x3e586acb	0.21134488
231	0xbde43e17	-0.11144655
232	0x3e090fea	0.13384977
233	0x3e26a735	0.16274722
234	0xbdbbcbff	-0.091697685
235	0xbe96bc92	-0.29440743
236	0xbe6293ca	-0.2212669
237	0x3e0d0be9	0.13774075
238	0xbdecca6b	-0.11562046
239	0x3edb238e	0.42800564
240	0xbada113b	-0.0016637215
241	0x3e5873dc	0.21137947
242	0xbdff9e5d	-0.12481377
243	0xbea8f59e	-0.3299989
244	0x3dfbe46d	0.12299428
245	0x3dacd833	0.08439674
246	0xbe5fb3b1	-0.2184589
247	0x3e4f9e1e	0.2027516
248	0x3c41c176	0.01182591
249	0xbe02c466	-0.12770233
250	0xbe060d74	-0.1309107
251	0x3e9e5869	0.30926827
252	0xbd996eaa	-0.074918106
253	0xbe2c2b2f	-0.16813348
254	0xbe004b5a	-0.12528744
255	0x3e8119a0	0.25214863

layers.2.bias f4 [32]
0	0x3e17167e	0.14754674
1	0xbe1ba0df	-0.15198086
2	0xbe1139a4	-0.14182144
3	0x3c2b52b3	0.010456729
4	0xbb7ac8fc	-0.0038266769
5	0x3debf016	0.11520402
6	0x3d6e5279	0.05818412
7	0xbe7187ea	-0.23587003
8	0xbd1115cb	-0.035421174
9	0xbcb76cba	-0.022390712
10	0xbe1f88d5	-0.15579541
11	0xbdc79bd6	-0.0974652
12	0xbd4b95dc	-0.049703464
13	0x3dc3c37e	0.095587716
14	0xbd264dcf	-0.040601548
15	0xbd182039	-0.037140105
16	0xbdaa2572	-0.083079234
17	0xbab54c58	-0.0013831956
18	0x3e58a5d8	0.21157014
19	0xbca833c0	-0.020532489
20	0x3dc8c19c	0.09802553
21	0x3cffdb4c	0.031232499
22	0xbbd7a3b4	-0.006580794
23	0x3b7cab64	0.0038554305
24	0x3dd90fe8	0.10598737
25	0x3d33e57d	0.04392003
26	0x3da6c3b7	0.081427984
27	0x3c5d5fa5	0.013511573
28	0xbc12c454	-0.008957941
29	0xbe00740d	-0.1254427
30	0x3d976f64	0.07394293
31	0xbd924bee	-0.07143389

layers.3.weight f4 [32, 32]
0	0xbd0b7b21	-0.03405297
1	0xbd968b80	-0.07350826
2	0x3db0efe6	0.08639507
3	0x3e4f7d1b	0.20262568
4	0x3cbaf107	0.022820009
5	0xbe981f14	-0.2971121
6	0x3e643c97	0.22288738
7	0xbc3c0133	-0.011474895
8	0xbd6cd747	-0.057822492
9	0x3e385c40	0.1800394
10	0x3ea50310	0.322289
11	0xbe86ddba	-0.2634104
12	0xbdbb3e8a	-0.09142788
13	0x3ea94ea9	0.33067825
14	0x3a40a2a8	0.00073484564
15	0x3e466796	0.19375452
16	0x3ea2459e	0.3169374
17	0x3e53bdc7	0.20677863
18	0xbe749286	-0.2388402
19	0xbcbf9991	-0.023388656
20	0x3ca66cbf	0.020315526
21	0x3d455e65	0.048185725
22	0x3e93634c	0.28786695
23	0x3ea403cd	0.3203415
24	0xbd8bebdd	-0.06832097
25	0x3dab5f73	0.08367815
26	0xbe8f6023	-0.28003034
27	0xbc7ce9ea	-0.015436629
28	0xbe2d0139	-0.16894998
29	0xbe867b0b	-0.2626575
30	0xbc327cdc	-0.010894027
31	0xbe296b03	-0.16544728
32	0xbc0854b5	-0.008320977
33	0x3e548c62	0.20756677
34	0x3e6cc996	0.23123774
35	0xbdb44669	-0.08802492
36	0xbe44046c	-0.19142312
37	0xbdcdf7ba	-0.10057016
38	0xbe5777da	-0.21041813
39	0xbe3534d9	-0.17695941
40	0x3c16c018	0.009201072
41	0xbd9076c2	-0.07053901
42	0xbd58a012	-0.05288703
43	0x3e7261fa	0.23670188
44	0x3e14eb4e	0.14542887
45	0x3dddbedc	0.10827419
46	0x3da41fc5	0.08013872
47	0xbe02c5eb	-0.12770812
48	0x3e241d55	0.16026814
49	0xbb2a5a31	-0.00259937
50	0xbe1e156b	-0.15437858
51	0x3e7dfccd	0.24803467
52	0xbd486c90	-0.04893166
53	0x3e587e25	0.2114187
54	0xbe1fb994	-0.15598136
55	0x3d0af932	0.033929057
56	0xbe5dddc8	-0.21666634
57	0x3d64c26c	0.055849478
58	0xbd07e5fd	-0.03317832
59	0x3e21c7b1	0.15798832
60	0x3c90ff45	0.017699847
61	0x3b7e405b	0.0038795683
62	0x3dd23b16	0.10265176
63	0x3d79ef5f	0.061019298
64	0x3da330ba	0.07968278
65	0xbd39a349	-0.045321736
66	0x3d6bb189	0.057542358
67	0x3e013a4c	0.12619895
68	0xbcb96df2	-0.022635434
69	0x3dc3d0a8	0.095612824
70	0xbe37a781	-0.17934991
71	0xbe0a1114	-0.13483077
72	0x3e33d4f7	0.17561708
73	0xbdc516ea	-0.09623511
74	0x3d802eb4	0.06258908
75	0x3dcfb262	0.10141446
76	0xbc87dee1	-0.01658577
77	0xbcf8476f	-0.0303075
78	0x3dd35a5c	0.10319969
79	0x3c9b0974	0.018925406
80	0xbdb6b776	-0.08921711
81	0xbd3438c5	-0.043999452
82	0x3e3320a1	0.17492916
83	0xbd65965f	-0.05605161
84	0x3d842aea	0.06453498
85	0xbd6c8c3a	-0.057750918
86	0xbd87050e	-0.06592761
87	0xbde3e17f	-0.11126994
88	0xbd00f3a8	-0.03148237
89	0xbd3f7809	-0.046745334
90	0xba845abb	-0.001009784
91	0xbe3c03cb	-0.18360822
92	0x3e1ec402	0.15504459
93	0xbdb59bb4	-0.08867589
94	0xbd0106ca	-0.031500615
95	0xbd813893	-0.06309619
96	0x3e47e7e6	0.19522056
97	0xbe5f8c79	-0.2183093
98	0x3d9925fd	0.07477949
99	0xbe236810	-0.15957665
100	0xbc0a3fee	-0.008438094
101	0x3d0278b0	0.031853378
102	0xbd9d58b1	-0.07682932
103	0xbdd015a1	-0.101603754
104	0xbd4c8c35	-0.0499384
105	0xbdf07fc4	-0.11743119
106	0x3cf6ea50	0.030141026
107	0xbdec9add	-0.11552975
108	0xbe49011d	-0.19629331
109	0x3d3ceba7	0.046123173
110	0x3e418352	0.18897751
111	0x3dfe61bc	0.12420985
112	0x3d942bd1	0.0723492
113	0x3d27a4af	0.04092854
114	0xbcf06eb6	-0.029349666
115	0xb9fae901	-0.00047857317
116	0x3d8adf3e	0.06780861
117	0xbdbbb1d4	-0.091647774
118	0x3e009af8	0.12559116
119	0x3d1e1759	0.038596485
120	0xbe6a96c6	-0.22909078
121	0x3c60dee0	0.013725013
122	0x3b90ff04	0.0044249315
123	0xbd635766	-0.05550327
124	0x3de2bd76	0.11071293
125	0xbcfa5ea6	-0.03056271
126	0xbe0f6658	-0.14003885
127	0xbd85777e	-0.06516932
128	0xbe49367f	-0.19649695
129	0x3d8d6352	0.069037095
130	0x3db71f6a	0.08941539
131	0xbddc9539	-0.107706495
132	0x3e23fcb4	0.16014367
133	0xbe299171	-0.16559388
134	0xbe43ed7a	-0.19133559
135	0x3cf7b309	0.030236738
136	0x3db7da3f	0.08977174
137	0xbde8724f	-0.11349928
138	0x3e07d727	0.13265668
139	0xbdcd5f02	-0.10027887
140	0x3d8294fa	0.06376071
141	0x3daae6d8	0.08344811
142	0xbe469639	-0.19393243
143	0xbe55fec2	-0.20897964
144	0x3dab91b6	0.083774015
145	0xbde0739e	-0.10959552
146	0xbbf3f067	-0.0074444297
147	0xbe1f39b5	-0.15549357
148	0x3d450acb	0.048105996
149	0xbdace42d	-0.084419586
150	0xbdf743b8	-0.12073463
151	0x3e16ef97	0.14739834
152	0xbd2ac1f4	-0.041688874
153	0xbd8330b0	-0.06405771
154	0x3dd14958	0.10219067
155	0x3e3004de	0.17189357
156	0x3ce29aee	0.027661767
157	0x3de80f71	0.1133107
158	0xbacb0d9c	-0.0015491727
159	0xbdce003c	-0.100586385
160	0xbd6dd838	-0.05806753
161	0xbe4fc4e5	-0.20289953
162	0xbe29de0e	-0.16588613
163	0x3de66807	0.112503104
164	0x3d4c940c	0.049945876
165	0xbdeec217	-0.116581134
166	0x3cfa8b19	0.030583905
167	0xbe766123	-0.24060492
168	0x3d9629ca	0.073321894
169	0xbe581c9d	-0.21104665
170	0x3d596106	0.053071044
171	0x3c960dcf	0.018317131
172	0xbe1e8b25	-0.15482767
173	0xbd8f0b4e	-0.06984578
174	0xbe348e95	-0.17632516
175	0xbd56e251	-0.052461926
176	0xbdda65b0	-0.106639266
177	0xbc519975	-0.012792935
178	0xbddc3d25	-0.1075385
179	0x3d82fc8b	0.06395825
180	0xbddc6ca1	-0.10762907
181	0x3dd6cc10	0.104881406
182	0xbdc56dff	-0.09640121
183	0x3dbf4792	0.09339823
184	0x3da78643	0.08179905
185	0x3e72d0e0	0.23712492
186	0xbdbee8ca	-0.09321745
187	0x3e10e78e	0.14150831
188	0xbda4b275	-0.080418505
189	0x3c01ea53	0.007929402
190	0x3e485ebd	0.1956739
191	0xbe39cfc5	-0.18145664
192	0x3d459fea	0.04824821
193	0x3dec9677	0.115521364
194	0xbc692bb1	-0.014231608
195	0xbe01ee39	-0.12688531
196	0x3e053952	0.13010147
197	0xbd8a96ac	-0.0676702
198	0xbd126a1e	-0.035745732
199	0xbe064f85	-0.13116272
200	0x3d5b70a3	0.053574216
201	0x3dcdacfd	0.100427605
202	0xbd4df20e	-0.05027967
203	0xbd337e0a	-0.043821372
204	0xbc788d60	-0.015170425
205	0x3d87bbea	0.06627639
206	0x3c7fe72d	0.015619081
207	0xbda96940	-0.08272028
208	0xbcbe0bfd	-0.023199076
209	0x3de55f5e	0.111998305
210	0x3c0f6ede	0.00875446
211	0x3d403720	0.04692757
212	0xbe6b139b	-0.22956698
213	0x3c998af2	0.018743012
214	0x3ce8c30b	0.028413316
215	0xbd102cfc	-0.03519915
216	0x3cce3b77	0.02517484
217	0xbce63973	-0.028103566
218	0xb9e68c7d	-0.0004397369
219	0x3d208a01	0.03919411
220	0x3dceb516	0.10093133
221	0xbd95d6c6	-0.073163554
222	0xbe09d32a	-0.13459459
223	0x3dc69c72	0.09697808
224	0x3df3ace2	0.11898209
225	0x3d9f7aba	0.0778708
226	0xbe16e297	-0.14734875
227	0x3d48babd	0.049006213
228	0xbdf92b99	-0.12166519
229	0x3d83a18e	0.064272985
230	0x3df7a462	0.120919004
231	0x3cb2b473	0.02181456
232	0x3d21b12c	0.039475605
233	0xbe2525f7	-0.16127764
234	0xbd9c01d2	-0.07617535
235	0xbe6fc305	-0.23414238
236	0xbdf3dc45	-0.119072475
237	0x3e469333	0.1939209
238	0x3dac7ac0	0.0842185
239	0x3e5fd8bc	0.21860021
240	0x3e5039fe	0.20334622
241	0x3e422bfe	0.18962094
242	0xbe055d16	-0.1302379
243	0xbe1a28e3	-0.1505466
244	0xbd2b5909	-0.041832957
245	0x3d990841	0.074722774
246	0x3c9e0c0a	0.01929285
247	0x3db07f33	0.08618011
248	0x3e16d67f	0.14730261
249	0xbd4e7f8f	-0.050414618
250	0x3d7f3be2	0.062312968
251	0xbd9c61d1	-0.076358445
252	0xbe0e0d90	-0.13872361
253	0xbdfebe86	-0.12438683
254	0x3d9d0f3e	0.07668923
255	0x3e034413	0.12818937

layers.3.bias f4 [32]
0	0xbdb723ea	-0.08942397
1	0xbd6db26c	-0.058031484
2	0xbd144114	-0.036194876
3	0x3e171c54	0.147569
4	0xbdefc803	-0.11708071
5	0xbd92301b	-0.07138082
6	0xbe448967	-0.1919304
7	0x3dd915ac	0.10599837
8	0xbdb184dc	-0.08667919
9	0xbc4186f2	-0.011811959
10	0xbd18724a	-0.03721837
11	0xbd270231	-0.040773574
12	0xbcd0fd1b	-0.025511315
13	0x3e1ef7c9	0.1552421
14	0x3dcd866b	0.10035404
15	0x3d76084c	0.060066506
16	0xbe4960a1	-0.19665767
17	0xbcffcfac	-0.031226955
18	0xbc4b933d	-0.012425241
19	0x3de6ee8f	0.1127597
20	0x3d6d39ef	0.057916578
21	0xbe0e86d8	-0.13918626
22	0xbcf9dd05	-0.030500898
23	0x3dce0571	0.100596316
24	0xbdd0119c	-0.10159609
25	0xbe003e0e	-0.12523672
26	0x3d3b1b7b	0.045680504
27	0x3dfa7c61	0.12230755
28	0xbe071f04	-0.13195425
29	0xbe006a38	-0.12540519
30	0xbe3edfa9	-0.18640007
31	0xbd85021e	-0.064945444

layers.4.weight f4 [32, 32]
0	0xbe1e3672	-0.15450457
1	0xbd66d44b	-0.056354802
2	0xbe3f1249	-0.18659319
3	0x3dbb76cd	0.09153519
4	0xbea0842a	-0.31350833
5	0x3e015d76	0.12633309
6	0xbc0d60e1	-0.008629055
7	0xbd322d68	-0.043500334
8	0x3e1f96ff	0.15584944
9	0x3bbe05a6	0.005799013
10	0xbe3513db	-0.17683356
11	0x3e02e52d	0.12782736
12	0x3d884471	0.06653679
13	0x3e48ab4e	0.19596598
14	0xbd915a57	-0.07097309
15	0x3cf01e43	0.029311305
16	0x3dd84ab3	0.10561123
17	0xbb424c51	-0.002964754
18	0xbe29e625	-0.165917
19	0xbd2226c8	-0.039587766
20	0xbd8e523a	-0.06949277
21	0x3e4384d2	0.19093636
22	0x3da34dc1	0.07973815
23	0x3cf62781	0.030048134
24	0xbd099945	-0.033593435
25	0x38eae474	0.00011200542
26	0xbde7b130	-0.11313093
27	0x3e2e653a	0.17030802
28	0xbcfafee1	-0.030639114
29	0x3d98e5b2	0.07465686
30	0xbe5d580f	-0.21615623
31	0x3df8d137	0.121492796
32	0x3d736eca	0.05943183
33	0x3e53a17c	0.2066707
34	0x3dc0baaa	0.09410603
35	0xbe18372c	-0.14864796
36	0xbdc8a4b2	-0.09797038
37	0x3dacbfaf	0.08434998
38	0xbdeb650c	-0.114938825
39	0x3d758d72	0.059949346
40	0x3d6ef876	0.05834242
41	0xbcfa8c27	-0.030584408
42	0xbcb48031	-0.022033783
43	0x3d89fcf6	0.067377016
44	0x3e62344f	0.22090267
45	0xbdb32ea1	-0.08749128
46	0x3d83066e	0.06397711
47	0xbe1ece73	-0.15508442
48	0x3c606855	0.01369675
49	0x3e3ba978	0.18326366
50	0xbdac7592	-0.08420862
51	0xbd66ed37	-0.05637857
52	0x3d817eda	0.06323023
53	0x3d185870	0.037193716
54	0x3d81fbb1	0.063468345
55	0xbbbe300d	-0.005804068
56	0x3e1867e1	0.14883377
57	0x3bbae4dd	0.005703552
58	0x3b43866a	0.0029834756
59	0x3e10754b	0.14107244
60	0xbe386afc	-0.18009561
61	0x3dbd1077	0.09231656
62	0x396ec2f2	0.00022770072
63	0xbe2e8136	-0.17041478
64	0x3d5c18e4	0.053734675
65	0xbe050f46	-0.12994108
66	0xbcb81653	-0.022471583
67	0x3cee1e98	0.029067323
68	0xbd57a309	-0.052645717
69	0x3d2fc333	0.042910766
70	0xbe116781	-0.1419964
71	0x3dfb3c65	0.12267379
72	0x3cd7c1fe	0.02633762
73	0xbe023991	-0.12717272
74	0x3daf6b61	0.08565403
75	0xbe026b0f	-0.12736152
76	0xbc235862	-0.009969803
77	0x3c95328c	0.01821258
78	0xbe561a37	-0.20908438
79	0xbc9cc0be	-0.019134875
80	0x3c3b2229	0.011421719
81	0xbe0e34fa	-0.13887396
82	0xbc8e3dad	-0.017363394
83	0xbd033a54	-0.032038048
84	0x3d95bf04	0.07311824
85	0xbe4d54cf	-0.20051883
86	0xbe0dc0c6	-0.13843068
87	0x3d9887e3	0.07447793
88	0xbe159f9b	-0.14611666
89	0xbe255c21	-0.16148426
90	0xbdbdce34	-0.09267846
91	0xbdda0aa4	-0.10646561
92	0xbe40b919	-0.18820609
93	0xbdf67e41	-0.120358
94	0x3d9c5cad	0.07634864
95	0xbe5257d5	-0.20541318
96	0xbde17857	-0.11009281
97	0x3d7df0ba	0.061997153
98	0xbdce8b96	-0.10085218
99	0xbd808821	-0.062759645
100	0x3cfb6beb	0.030691108
101	0x3e7ba770	0.24575591
102	0x3d6e1a8e	0.058130793
103	0x3d712eac	0.0588824
104	0xbe0a04f3	-0.1347845
105	0x3c9e400b	0.019317647
106	0xbd4fff89	-0.050780807
107	0xbc78bff1	-0.015182481
108	0xbda99eca	-0.0828224
109	0xbe0aaefd	-0.13543315
110	0xbe35fd5b	-0.17772429
111	0xbdce0f18	-0.10061473
112	0xbdebd86e	-0.1151589
113	0x3e2e685e	0.17032
114	0x3ddcb394	0.10776439
115	0x3e1f32a5	0.15546663
116	0x3d24bcd7	0.040219154
117	0x3dd56f75	0.10421649
118	0xbd22f14a	-0.039780892
119	0xbd3ffa08	-0.046869308
120	0x3d990918	0.074724376
121	0x3e0cb2a7	0.13740025
122	0x3e7d64c8	0.24745476
123	0xbd687ab3	-0.05675764
124	0xbe04317f	-0.12909506
125	0x3de8816f	0.113528125
126	0x3cddd76d	0.027080262
127	0xbe2a4dc0	-0.16631222
128	0x3e1b1a5b	0.15146773
129	0x3db4768a	0.08811672
130	0x3cd4db0b	0.025983354
131	0xbce4ca53	-0.027928507
132	0xbd8d3b2f	-0.06896054
133	0xbd9a710a	-0.07541092
134	0x3e05b247	0.13056289
135	0xbd9afa47	-0.07567268
136	0x3dc68988	0.09694201
137	0xbdbea100	-0.09308052
138	0xbd2461f5	-0.04013248
139	0x3e01ae3a	0.12664118
140	0x3d0072ac	0.03135936
141	0xbe507575	-0.20357306
142	0xbd93c447	-0.07215171
143	0x3d803864	0.06260756
144	0xbdf80e48	-0.12112099
145	0x3d05e8ad	0.0326926
146	0x3d52eda1	0.05149615
147	0x3cbd5dff	0.02311611
148	0x3e2f0e2e	0.17095253
149	0xbd3fbbfc	-0.046810135
150	0xbe7bab87	-0.24577151
151	0xbbaac171	-0.0052110483
152	0xbbc1542e	-0.0058999276
153	0x3d70313c	0.058640704
154	0x3e63a0af	0.22229265
155	0x3e17c16e	0.14819881
156	0x3dceffaf	0.101073615
157	0x3dea43dd	0.11438725
158	0x3d044e5c	0.03230129
159	0xbe1505ee	-0.14553043
160	0xbe1821de	-0.1485667
161	0xbe249a10	-0.16074395
162	0x3d35219c	0.044221506
163	0xbddf0ba8	-0.10890895
164	0xbdf6fc43	-0.12059834
165	0x3d83ec1e	0.0644152
166	0x3d8e32a3	0.06943252
167	0xbddeb13e	-0.1087365
168	0x3ce6f5e9	0.028193431
169	0xbdddb05f	-0.10824656
170	0xbe0c4415	-0.13697846
171	0x3d0ecf3c	0.034865603
172	0x3c5fe45e	0.013665287
173	0xbe5b89b4	-0.21439248
174	0xbabde3c0	-0.001448743
175	0xbc8e6c9d	-0.017385775
176	0x3d867594	0.06565395
177	0xbe16bd24	-0.14720589
178	0x3d2b4eb0	0.04182309
179	0x3c8b25eb	0.016985854
180	0xbe4c2354	-0.19935352
181	0x3d8beb50	0.06831992
182	0x3debb6ca	0.115094736
183	0xbad47c86	-0.0016211427
184	0x3dc97311	0.098364
185	0xbced9b98	-0.029004857
186	0x3db2aa6b	0.08723911
187	0xbdee0511	-0.1162206
188	0x3e20fe95	0.15722115
189	0xbe172f4f	-0.1476414
190	0x3cb1c1f2	0.021698926
191	0xbdf15ea2	-0.11785628
192	0x3d9a0ed0	0.075223565
193	0xbb6b294d	-0.0035882771
194	0xbc32fb1e	-0.010924129
195	0x3d120c2f	0.03565615
196	0x3e4f36e9	0.2023579
197	0x3d5aed6e	0.053449087
198	0x3e0877cc	0.13326949
199	0x3dc4c79d	0.09608386
200	0x3d5713da	0.052509166
201	0x3da59cfd	0.08086584
202	0x3d560ed4	0.052260235
203	0x3dc9aab7	0.098470144
204	0x3e4cbcf3	0.19993953
205	0x3c267ca2	0.010161551
206	0xbd97279d	-0.073806025
207	0x3e1788dc	0.14798301
208	0xbdcb156f	-0.099161975
209	0x3dcd6d01	0.100305565
210	0x3db86b84	0.09004882
211	0xbdfcbe8b	-0.12341031
212	0x3dac2088	0.08404642
213	0x3e0dbfbe	0.13842675
214	0xbaa4643d	-0.001254208
215	0x3e61b6d6	0.22042403
216	0x3df6b7f2	0.120468035
217	0x3e147ade	0.14499995
218	0xbd742b44	-0.059611574
219	0xbdedbee2	-0.11608674
220	0xbe447b9f	-0.19187783
221	0x3e1d46d3	0.15359049
222	0x3dd3514f	0.10318243
223	0xbe49b5dd	-0.19698282
224	0x3d95ec3c	0.07320449
225	0x3e18ff7c	0.1494121
226	0xbd34f5d9	-0.04417977
227	0x3da309be	0.079608425
228	0xbcc6384e	-0.02419677
229	0xbe40af10	-0.18816781
230	0x3e49978d	0.19686718
231	0xbdb42880	-0.08796787
232	0xbc8f3647	-0.017481936
233	0x3e2c1fed	0.16809054
234	0xbe233b34	-0.15940553
235	0x3df8c4c0	0.12146902
236	0x3da2969d	0.079388835
237	0xbe025098	-0.12726057
238	0xbdb0effc	-0.086395234
239	0x3e600d7e	0.21880147
240	0xbc4a542c	-0.01234917
241	0x3d83a150	0.06427252
242	0x3c8b2a5f	0.016987978
243	0xbe0f216b	-0.13977592
244	0x3e12fbe0	0.14353895
245	0xbd843308	-0.06455046
246	0x3da3b9c2	0.07994415
247	0x3d88e0f2	0.0668353
248	0xbdaa0441	-0.083015926
249	0xbd8270be	-0.0636916
250	0x3dd7808b	0.105225645
251	0x3e6e1a89	0.2325231
252	0xbc150b38	-0.009096913
253	0x3dfec284	0.12439445
254	0x3db743ca	0.089484766
255	0xbe43ac44	-0.19108683

layers.4.bias f4 [32]
0	0x3c1b34e8	0.009473063
1	0x3d77951e	0.060444944
2	0xbd932ca8	-0.07186252
3	0xbe5199a4	-0.20468765
4	0x3dbfab93	0.09358897
5	0xbd8370fa	-0.06418033
6	0x3dbbe0f3	0.09173765
7	0x3e3815fe	0.1797714
8	0x3d271e5c	0.040800437
9	0xbe00dd43	-0.12584405
10	0xbe214f77	-0.1575297
11	0xbd7445a6	-0.059636734
12	0xbe1bf723	-0.15230994
13	0x3dae89b1	0.08522356
14	0x3ca7b51e	0.020472106
15	0xbd98c166	-0.07458763
16	0xbd6adf72	-0.057342
17	0xbdf6da3c	-0.12053344
18	0xbe26c3c9	-0.16285624
19	0x398b4e48	0.0002657047
20	0x3e0aa570	0.13539672
21	0x3e0ab348	0.13544953
22	0xbdd4647e	-0.1037073
23	0xbd8b9466	-0.06815414
24	0xbdf584b3	-0.11988201
25	0x3d9f862f	0.07789265
26	0x3c8003a2	0.015626732
27	0xbdb5bbf4	-0.0887374
28	0x3da53f79	0.08068747
29	0x3c0ed57e	0.008717893
30	0xbba5a370	-0.0050548837
31	0xbe1390b7	-0.14410673

layers.5.weight f4 [32, 32]
0	0xbd880ae9	-0.06642706
1	0xbd830b54	-0.06398645
2	0xbd99d03b	-0.0751042
3	0x3e42f7bf	0.1903982
4	0xbdc81540	-0.09769678
5	0xbe38730c	-0.18012637
6	0x3d2a3f3a	0.041564204
7	0xbc8cbb98	-0.017179295
8	0x3d290ffe	0.041275017
9	0xbe33dab7	-0.17563902
10	0x3d3dd1e1	0.046342734
11	0xbcbcbe20	-0.023039877
12	0xbdef8f4e	-0.11697255
13	0xbe0b67b5	-0.1361378
14	0xbda7d437	-0.08194774
15	0xbc6496ba	-0.013951952
16	0xbde83d53	-0.11339822
17	0x3e5da171	0.21643616
18	0xbd259638	-0.040426463
19	0xbe159fa2	-0.14611676
20	0xbcacf5ae	-0.021113243
21	0xbdefa3dd	-0.11701176
22	0xbe1b53a5	-0.15168627
23	0xbdee8893	-0.11647143
24	0xbc4ce160	-0.012504905
25	0xbd8ed3d2	-0.06973995
26	0xbdd58a26	-0.1042674
27	0x3d248131	0.04016227
28	0xba72b6fa	-0.0009258833
29	0xbdbd16cd	-0.092328645
30	0xbe3a91cb	-0.18219678
31	0x3df9297e	0.12166117
32	0x3d11636b	0.035495203
33	0x3ddf94ae	0.1091703
34	0x3dbca0dc	0.09210369
35	0x3df98ec0	0.121854305
36	0xbd8abfa2	-0.06774832
37	0x3e33062a	0.1748282
38	0x3ccb2f49	0.02480282
39	0xbd2747b7	-0.040839877
40	0x3da559da	0.080737785
41	0xbdd7cbad	-0.10536895
42	0x3e75dd11	0.24010111
43	0xbd796960	-0.06089151
44	0x3d5c2252	0.053743668
45	0x3d36c02a	0.044616856
46	0xbc8b3a81	-0.01699567
47	0xbd9098c0	-0.07060385
48	0xbdbcb826	-0.09214811
49	0xbdf303bf	-0.11865949
50	0x3dcbbbac	0.09947905
51	0xbd495595	-0.049153883
52	0x3dbbb41f	0.09165215
53	0xbd94460a	-0.072399214
54	0xbc01bbd1	-0.007918314
55	0xbdcf6b37	-0.101278715
56	0x3e45fcab	0.19334666
57	0xbd2c5f95	-0.04208334
58	0x3d11f93d	0.035638083
59	0x3d0ae795	0.03391226
60	0xbdb8dc5f	-0.090264075
61	0x3dc41b25	0.0957549
62	0xbd88b7b0	-0.066756606
63	0x3cff46d4	0.031161703
64	0x3e25e519	0.16200675
65	0xbe4f1b99	-0.20225371
66	0x3e00cac3	0.12577347
67	0x3db02781	0.08601285
68	0xbda29c2f	-0.07939946
69	0x3dc1b89f	0.09459042
70	0xbd8c3b81	-0.06847287
71	0x3c45c48c	0.012070786
72	0x3da00b08	0.07814604
73	0xbe2da409	-0.16957106
74	0x3d645027	0.0557405
75	0xbc9efd7d	-0.019407982
76	0xbe4aec47	-0.19816695
77	0x3cb63572	0.022242282
78	0x3e2ac552	0.16676834
79	0xbdbd8adb	-0.09255
80	0x3e1e1cc8	0.15440667
81	0x3d90d7ce	0.070724115
82	0x3db933a3	0.09043052
83	0xbd2a78de	-0.041619174
84	0xbd4a1030	-0.049331844
85	0xbd568108	-0.052369148
86	0xbe172850	-0.14761472
87	0xbdb81007	-0.08987432
88	0xbdf0eb6a	-0.11763652
89	0xbdd3fdb2	-0.10351123
90	0xbdc728ac	-0.097245544
91	0xbe21dc2a	-0.15806642
92	0x3c3e3815	0.011610051
93	0xbcdd0dc8	-0.02698411
94	0x3d6f76f7	0.058463063
95	0x3cdb6eea	0.026786286
96	0x3dab6bd3	0.08370175
97	0x3e1cdae1	0.1531787
98	0xbe26f045	-0.16302593
99	0xbdf2dd89	-0.11858661
100	0x3e42cbeb	0.19023101
101	0xbdfa68ca	-0.12227018
102	0xbd027cc2	-0.03185726
103	0xbcbcab75	-0.023030976
104	0xbe00c177	-0.12573801
105	0xbd881d90	-0.066462636
106	0x3d0278a7	0.031853344
107	0xbe107f81	-0.14111139
108	0xbe0a4f19	-0.13506736
109	0xbd484eb0	-0.048903167
110	0xbdddf7b6	-0.10838263
111	0xbc9b8e38	-0.018988714
112	0xbd76e30f	-0.060275134
113	0xbe1aadb8	-0.15105331
114	0x3dea172f	0.11430203
115	0x3deeba8a	0.11656673
116	0xbe0fc380	-0.14039421
117	0xbde809c6	-0.11329989
118	0xbd6a604f	-0.057220753
119	0xbd9d55a0	-0.07682347
120	0x3dfde4c5	0.1239715
121	0x3d3fc812	0.04682166
122	0x3e28b34d	0.16474648
123	0x3dfc3de1	0.1231649
124	0x3cd602d7	0.026124401
125	0xbd9460ca	-0.072450235
126	0xbe2732f8	-0.16328037
127	0x3bba79c6	0.005690786
128	0xbdb2a2a9	-0.08722431
129	0xbe583dbb	-0.21117298
130	0xbbd76894	-0.006573746
131	0xbe25dd73	-0.16197757
132	0x3d6dd50e	0.058064513
133	0x3cbcf3a0	0.023065388
134	0x3c44a0a0	0.012001187
135	0xbe0ae653	-0.13564424
136	0xbe209904	-0.15683371
137	0x3c3a6a18	0.011377834
138	0xbe00b233	-0.12567978
139	0x3d108143	0.035279524
140	0x3e0de04e	0.13855097
141	0xbe01f739	-0.12691964
142	0xbe1eb407	-0.15498362
143	0xbe7a43f6	-0.24439988
144	0xbd4be48d	-0.04977851
145	0x3ca0a9e9	0.01961227
146	0xbd7a4b12	-0.06110675
147	0x3e0e98cc	0.13925475
148	0xbdf6eff8	-0.12057489
149	0xbe0c37c0	-0.13693142
150	0xbdb79ba8	-0.08965236
151	0x3ae86373	0.0017729833
152	0x3e02eb25	0.12785013
153	0x3d6d5929	0.057946358
154	0x3da871f7	0.08224862
155	0x3e4d5d9a	0.20055237
156	0xbd1860be	-0.037201636
157	0x3dd1d453	0.10245576
158	0xbd205a4f	-0.039148625
159	0x3e4303f2	0.19044474
160	0x3d886e2a	0.06661637
161	0xbddeee27	-0.10885268
162	0x3df7d360	0.121008635
163	0xbe07bad0	-0.13254857
164	0x3df5e7d6	0.1200711
165	0x3cfa5447	0.030557765
166	0x3e266b8d	0.16251965
167	0x3d4b9a84	0.049707904
168	0xbd75a9a0	-0.05997622
169	0x3e1b05ca	0.15138927
170	0xbe56eb5e	-0.20988223
171	0xbc054486	-0.008134013
172	0xbb895a66	-0.0041916845
173	0x3e5c8e89	0.21538748
174	0xbdc57e9d	-0.0964329
175	0x3e4d65c6	0.20058355
176	0xbe056349	-0.13026156
177	0x3db8d3a2	0.09024741
178	0x3cd62885	0.026142368
179	0xbcaf905b	-0.021431139
180	0x3ce03cfe	0.027372833
181	0x3e47728b	0.19477288
182	0x3d81f911	0.06346334
183	0xbdc79981	-0.097460754
184	0xbe1db0b0	-0.15399432
185	0xbe1f3561	-0.15547706
186	0x3d51258b	0.051061194
187	0x3ac3e87d	0.0014946606
188	0xbdc17a94	-0.09447208
189	0x3ca9a6f3	0.02070949
190	0xbdf12cd9	-0.11776132
191	0xbe16e8b0	-0.147372
192	0x3e629ecc	0.22130889
193	0x3d25601d	0.040374864
194	0x3dcf06dc	0.1010873
195	0x3d2c3fab	0.042052906
196	0x3cc80ab6	0.02441917
197	0xbd9a6133	-0.075380705
198	0x3dd83cc1	0.10558463
199	0xbdceeb7e	-0.1010351
200	0x3dd5c497	0.10437887
201	0xbdbccabf	-0.09218358
202	0xbd049b32	-0.03237457
203	0xbe1dfa53	-0.15427522
204	0x3d9af8c3	0.07566979
205	0x3dafab70	0.08577621
206	0x3d767083	0.060165893
207	0x3d611723	0.054953706
208	0x3e1cda2c	0.15317601
209	0x3e37b344	0.17939478
210	0xbdfe004c	-0.124024004
211	0x3e0ab1a0	0.13544321
212	0x3e02604c	0.12732047
213	0xbd7774be	-0.06041407
214	0x3db0a27f	0.08624744
215	0x3dcf585d	0.10124276
216	0xbdea8fba	-0.11453195
217	0x3ddd008f	0.10791122
218	0xbe03175a	-0.12801877
219	0x3caf3a23	0.021390026
220	0xbdfb5b24	-0.12273243
221	0x3e46c429	0.19410767
222	0xbde8ff5f	-0.11376833
223	0x3d9fe3d3	0.07807126
224	0x3e29f8eb	0.16598861
225	0xbe33d314	-0.17560989
226	0xbde63512	-0.11240591
227	0xbc50b3eb	-0.012738208
228	0xbdb210e6	-0.08694629
229	0xbdc230f0	-0.0948199
230	0xbd176090	-0.036957324
231	0xbdcda204	-0.10040668
232	0xbdf553e8	-0.119788945
233	0xbe1d2dad	-0.15349455
234	0xbe02aa46	-0.12760267
235	0x3e076faa	0.1322619
236	0xbd4f5924	-0.05062212
237	0xbd8a1965	-0.06743125
238	0xbe15a161	-0.14612342
239	0xbdd59d22	-0.10430361
240	0x3d96e178	0.073672235
241	0x3e384dd8	0.17998445
242	0xbda04d59	-0.07827253
243	0x3d02f525	0.03197207
244	0xbdc60680	-0.096692085
245	0x3d959df9	0.073055215
246	0x3cf5db05	0.030011663
247	0xbd74ed1a	-0.05979643
248	0xbdaeb6ce	-0.08530961
249	0xbd3406fb	-0.04395197
250	0xbd0ebc9b	-0.034847837
251	0x3d1f0bf5	0.038829762
252	0xba103863	-0.00055015663
253	0xbd96e958	-0.073687255
254	0xbd02f235	-0.031969268
255	0xbd1ed9da	-0.03878198

layers.5.bias f4 [32]
0	0x3d983036	0.074310705
1	0x3df9f144	0.12204221
2	0x3da2b244	0.07944158
3	0x3e41e0ce	0.18933412
4	0xbd86472e	-0.06556545
5	0xbd8a6e18	-0.0675928
6	0x3c1f242a	0.009713212
7	0xbe0119f2	-0.12607554
8	0x3d539498	0.051655382
9	0xbe57d08b	-0.21075647
10	0x3e1346ba	0.14382449
11	0x3d5c42c0	0.053774595
12	0xbdd1bb18	-0.102407634
13	0x3d3abad0	0.045588315
14	0x3e1f6198	0.15564573
15	0xbdacfe32	-0.084469214
16	0xbaad539a	-0.0013223768
17	0x3df58e70	0.119900584
18	0xbe39781f	-0.18112229
19	0xbda37429	-0.0798114
20	0xbd637f64	-0.05554141
21	0xbe46e9c3	-0.1942511
22	0xbcb786e1	-0.022403182
23	0x3d315638	0.043295115
24	0x3e40fc07	0.18846141
25	0x3e293563	0.16524272
26	0x3e041249	0.128976
27	0xbd2c730f	-0.042101916
28	0xbe5cbd0f	-0.21556495
29	0xbde5f7ce	-0.112289056
30	0xbd139264	-0.03602828
31	0x3e1d964d	0.15389366

layers.6.weight f4 [32, 32]
0	0x3dfce45f	0.12348246
1	0xbc5479ae	-0.012968464
2	0x3df9efcb	0.1220394
3	0xbd61ae14	-0.055097654
4	0x3d855aac	0.06511435
5	0xbcfccfa1	-0.030860724
6	0x3d21b3a7	0.03947797
7	0x3d830fa5	0.06399468
8	0x3d216028	0.039398342
9	0x3db957d9	0.09049959
10	0x3e228544	0.1587115
11	0xbdf63cc2	-0.120233074
12	0xbbf58b19	-0.0074933884
13	0x3d01a98a	0.031655826
14	0x3dda9a20	0.10673928
15	0xbb7e0a45	-0.0038763445
16	0x3d957e95	0.07299534
17	0xbd7463c5	-0.05966546
18	0xbc98e0e4	-0.018661924
19	0xbdea3f35	-0.11437837
20	0xbda326ab	-0.0796636
21	0xbe15ae09	-0.1461717
22	0xbd5c9703	-0.053854953
23	0xbc23038e	-0.009949578
24	0x3e158e10	0.14604974
25	0x3c2c042d	0.010499042
26	0xbdea9bdb	-0.11455508
27	0x3d5fabfb	0.054607373
28	0xbd9b7094	-0.07589832
29	0x3af20307	0.0018464037
30	0xbe3490e4	-0.17633396
31	0xbe38b836	-0.18039021
32	0xbd88c39c	-0.066779345
33	0xba60b633	-0.00085720717
34	0xbe375bc5	-0.17906101
35	0xbd47d9ee	-0.04879182
36	0x3c6e7142	0.01455337
37	0x3b810bd3	0.003938177
38	0xbdf730aa	-0.12069829
39	0xbd25cf8d	-0.04048114
40	0x3dd7ab58	0.10530728
41	0xbe194c0b	-0.14970414
42	0x3e16ee12	0.14739254
43	0x3e4ac3c8	0.19801247
44	0xbda22fe4	-0.07919291
45	0x3d0e3ebc	0.034727797
46	0xbb927553	-0.0044695525
47	0xbe30ae1a	-0.17253914
48	0xbe4a749c	-0.19771045
49	0xbdc11121	-0.09427095
50	0x3d001332	0.031268306
51	0x3e446d85	0.19182403
52	0x3d9392ee	0.07205759
53	0xbd186f8d	-0.037215758
54	0x3c8eef92	0.01744822
55	0x3d062454	0.03274949
56	0x3e18f614	0.14937621
57	0x3d999c14	0.07500473
58	0x3e34c07a	0.17651549
59	0xbdb0e410	-0.086372495
60	0xbe026a47	-0.12735854
61	0x3dba1bc3	0.090873264
62	0x3d9d6019	0.07684345
63	0xbe0b00c4	-0.13574511
64	0x3de51663	0.111859106
65	0x3d5780e1	0.052613143
66	0x3e02a7ba	0.12759295
67	0xbded6c3c	-0.1159291
68	0xbe30bcb6	-0.17259488
69	0xbde9fcf6	-0.114252016
70	0xbdcdc316	-0.10046975
71	0x3979f81a	0.00023838916
72	0xbe4d0e8c	-0.2002508
73	0x3e5bb173	0.2145441
74	0xbdb3ca39	-0.08778805
75	0x3dbe11e1	0.09280754
76	0xbdcca1ab	-0.09991773
77	0xbcf0e41e	-0.02940565
78	0x3e4fc74e	0.20290872
79	0xbdc40178	-0.09570593
80	0xbdcc721d	-0.09982703
81	0x3d707226	0.05870261
82	0x3b05cdbf	0.0020416824
83	0xbd8b3c17	-0.067985706
84	0xbb84cbfa	-0.004052636
85	0xbe1f4016	-0.1555179
86	0xbdee9006	-0.11648564
87	0xbe3c9e64	-0.18419796
88	0xbe6d5481	-0.23176767
89	0xbe15aefb	-0.14617531
90	0x3dae08e8	0.084977925
91	0xbd01f418	-0.031726927
92	0x3dd610ba	0.10452409
93	0xbd68b738	-0.056815356
94	0xbe1eb0aa	-0.1549708
95	0xbdf39224	-0.118931085
96	0x3db55620	0.08854318
97	0xbd84f784	-0.06492522
98	0x3e34716a	0.17621389
99	0x3bbdae15	0.0057885745
100	0x3dbb8eba	0.09158082
101	0xbd3d7d3d	-0.046262015
102	0xbe561ff3	-0.20910625
103	0xbd085842	-0.033287294
104	0xbe0695f1	-0.13143136
105	0x3d5ebdb3	0.05438013
106	0x3de43cfb	0.111444436
107	0xbba82f53	-0.0051325946
108	0xbe202d2e	-0.15642235
109	0x3de1331c	0.109960765
110	0xbd194903	-0.037423145
111	0xbe3b53e3	-0.18293719
112	0x3d1140c3	0.035462152
113	0xbdb8028a	-0.08984859
114	0x3d44a1d4	0.048005894
115	0xbd5a2caf	-0.05326527
116	0x3db6bcb6	0.089227125
117	0xbdaf4904	-0.085588485
118	0x3e6632d9	0.22480334
119	0xbdebd37a	-0.11514945
120	0x3e17648c	0.1478445
121	0xbd0de061	-0.034637813
122	0x3e07e755	0.1327184
123	0x3e39c39e	0.18141028
124	0xbd2ea30d	-0.042635966
125	0x3d721dc4	0.059110418
126	0x3d6f4a0c	0.058420226
127	0xbe1f0ae9	-0.15531506
128	0xbdfac520	-0.1224463
129	0xbdb5fd6d	-0.08886228
130	0x3dd0201b	0.10162374
131	0x3e56b28b	0.20966546
132	0xbd89e985	-0.067339934
133	0x3ddc830f	0.10767185
134	0x3d6af2f3	0.0573606
135	0x3dce2ec1	0.10067511
136	0x3e1d2987	0.15347873
137	0xbdab8a70	-0.08376014
138	0x3e3a8c50	0.18217587
139	0xbe1acfba	-0.15118304
140	0xbe0ae5f6	-0.13564286
141	0xbcc69b42	-0.024243955
142	0x3c945f0e	0.018111732
143	0xbca826a9	-0.020526247
144	0xbde540eb	-0.11194023
145	0x3d34373c	0.043997988
146	0x3d7ab565	0.061208148
147	0xbc84280a	-0.016132373
148	0xbe1681b6	-0.14697918
149	0xbd68664f	-0.056738194
150	0x3df7e426	0.12104063
151	0x3cd75723	0.026286667
152	0xbd2974e0	-0.041371226
153	0x3d7bf9bc	0.061517462
154	0xbde0a575	-0.109690584
155	0x3e2f8413	0.17140226
156	0xbe161264	-0.14655453
157	0x3d8ce2bf	0.06879186
158	0xbdad110f	-0.08450519
159	0x3cea2c70	0.028585643
160	0xbe1f8353	-0.1557744
161	0xbda354ab	-0.079751335
162	0xbd8fcaa0	-0.070210695
163	0x3db15bd1	0.08660091
164	0x3e0cf79b	0.13766329
165	0xbdcdfb74	-0.100577265
166	0x3e31682d	0.17324896
167	0x3dc86327	0.09784537
168	0x3c96c14b	0.018402716
169	0xbb43e99a	-0.0029893876
170	0x3df79afc	0.12090108
171	0x3e87f4fa	0.2655409
172	0xbdcbe25c	-0.09955284
173	0x3dc286f9	0.094984
174	0xbe381fb9	-0.17980851
175	0xbe5ce5bc	-0.21572012
176	0x3df12af0	0.11775768
177	0xbd9d23c0	-0.076728344
178	0xbd8c9c6e	-0.06865774
179	0x3e3bb284	0.18329817
180	0xbe5f7176	-0.21820626
181	0xbe60e28c	-0.21961421
182	0x3e030667	0.12795411
183	0x3d869be8	0.065727055
184	0x3e5f3760	0.21798468
185	0x3c8b915e	0.01703709
186	0xbe01e019	-0.12683143
187	0xbcc0ca40	-0.02353394
188	0x3cf7e586	0.030260812
189	0x3e1973e6	0.14985618
190	0x3d497177	0.049180474
191	0x3c5c1639	0.013433033
192	0x3d7562cd	0.059908677
193	0x3da93dff	0.08263778
194	0x3d0a129d	0.033709157
195	0x3e23c03f	0.15991305
196	0xbd5912e9	-0.05299655
197	0x3cb0840e	0.021547344
198	0xbe499df4	-0.1968916
199	0x3d9db99e	0.07701419
200	0xbdf6ad53	-0.12044778
201	0x3d52f9ba	0.05150769
202	0x3d33ba63	0.043878924
203	0xbe6169ae	-0.2201297
204	0xbdd99bcf	-0.10625421
205	0x3d924f07	0.071439795
206	0x3dc6091f	0.096697085
207	0xbc1badcd	-0.009501887
208	0x3c9569ff	0.01823902
209	0x3d966c0e	0.073448285
210	0x3c2154ba	0.009846861
211	0x3dc5188e	0.09623824
212	0xbdfd63b1	-0.1237253
213	0xbddbab15	-0.10725991
214	0x3c13bd61	0.009017319
215	0xbe44cc70	-0.19218612
216	0xbdcee19e	-0.10101627
217	0xbd46cc59	-0.048534725
218	0xbe16bf12	-0.14721325
219	0xbd1d0897	-0.03833827
220	0x3e29519e	0.1653504
221	0xbe114c66	-0.141893
222	0x3e1706a2	0.14748624
223	0xbd1ba483	-0.037998687
224	0xbd1813c8	-0.03712824
225	0xbd00702f	-0.031356987
226	0x3daaae6c	0.083340496
227	0x3e22d533	0.15901642
228	0xbe27ee35	-0.16399463
229	0x3d2fc52e	0.042912655
230	0xbde48c4b	-0.11159571
231	0xbd88c553	-0.066782616
232	0x3dc46464	0.095894605
233	0xbe2e2708	-0.17007077
234	0xbe073888	-0.13205159
235	0x3dbef33f	0.09323739
236	0x3e1683e0	0.14698744
237	0x3e0d5578	0.13802135
238	0x3daf5d04	0.08562663
239	0x3d8899b6	0.06669943
240	0x3dbc4bcd	0.09194145
241	0xbdaeb82b	-0.08531221
242	0x3d846b0d	0.06465731
243	0x3d368aab	0.044565838
244	0xbdb62bb1	-0.08895052
245	0xbdc1c8af	-0.094621055
246	0x3c60304f	0.013683393
247	0x3cbc5412	0.022989307
248	0x3dec7a51	0.115467675
249	0x3e3a18f1	0.18173577
250	0x3daf74c2	0.08567192
251	0x3c67810a	0.014129886
252	0xbe55495e	-0.20828769
253	0xbda23db8	-0.07921928
254	0x3e1979c5	0.14987858
255	0xbd8d9d80	-0.06914806

layers.6.bias f4 [32]
0	0xbd89b8f1	-0.06724728
1	0xbdd07254	-0.10178056
2	0xbdfe23d0	-0.124091744
3	0xbc4e9cc0	-0.012610614
4	0x3d93dbd1	0.07219661
5	0xbc50c11a	-0.0127413515
6	0xbd60a8a8	-0.054848343
7	0x3d458e21	0.048231248
8	0x3b34ee9b	0.002760804
9	0xbd3d890e	-0.046273284
10	0xbcfe37f2	-0.031032536
11	0xbe4da921	-0.20084049
12	0x3ded34c6	0.11582331
13	0xbe36d2fd	-0.17853923
14	0xbcc0548f	-0.02347782
15	0x3daefcda	0.08544321
16	0x3e66b353	0.22529344
17	0xbe4c77ab	-0.19967525
18	0xbdec0835	-0.11525003
19	0xbe0bc26b	-0.13648383
20	0x3e5c7218	0.21527898
21	0xbd051720	-0.032492757
22	0xbd2492a0	-0.040178895
23	0xbd85d606	-0.06534962
24	0x3ba1c0ca	0.0049363123
25	0x3e1f6263	0.15564875
26	0xbe1cc24d	-0.15308495
27	0x3d996656	0.07490222
28	0xbda6a4cd	-0.08136902
29	0xbdb5f9ce	-0.08885537
30	0xbdac1efb	-0.084043466
31	0x3dbb4629	0.09144241
