Region 3 B-Field Trained On Boundary (32, 8).pth (torch, 37326 bytes, 18 tensors)

layers.0.weight f4 [32, 3]
0	0x3e96bf9a	0.29443055
1	0xbdf5e45c	-0.12006447
2	0x3d7c8f3c	0.061660036
3	0x39947047	0.00028312413
4	0xbe967a5b	-0.29390225
5	0x3d77391a	0.06035719
6	0x3e696e0f	0.2279589
7	0xbdf36cf9	-0.11886019
8	0xbe9082e6	-0.28224868
9	0xbe8cbab8	-0.27486205
10	0x3e2054c9	0.15657343
11	0x3f13dec5	0.57761794
12	0x3ba35edf	0.0049856748
13	0xbd1acbd8	-0.037792057
14	0x3f1b0a56	0.60562646
15	0x3d427c61	0.0474819
16	0x3eaa97cf	0.33318946
17	0x3d590f35	0.05299302
18	0xbded9f04	-0.116025954
19	0xbec6e6e8	-0.38848042
20	0xbebff9d7	-0.374953
21	0x3d733b7d	0.059382904
22	0x3e82be0b	0.25535616
23	0x3f17b4b9	0.59260136
24	0x3f16a83f	0.58850473
25	0x3f1f212c	0.6215999
26	0x3ef07d7a	0.4697073
27	0xbef5588d	-0.4791912
28	0x3e94984b	0.2902244
29	0x3e368816	0.1782535
30	0x3ea2ff65	0.31835476
31	0xbd16a42a	-0.036777653
32	0x3d8e1aff	0.06938743
33	0xbead0261	-0.33790877
34	0xbde09495	-0.1096584
35	0x3e66893c	0.22513288
36	0x3c978e77	0.01850055
37	0xbdbfc835	-0.09364358
38	0x3f01c890	0.5069666
39	0x3f00c88a	0.50306
40	0xbf0470a1	-0.5173436
41	0xbe4a060d	-0.1972887
42	0xbe37cc64	-0.17949063
43	0xbe815e0b	-0.25267062
44	0xbf9db13c	-1.2319713
45	0x3c26acf8	0.010173075
46	0x3ed6435b	0.41848263
47	0xbe58449f	-0.21119927
48	0x3e8971d0	0.26844645
49	0xbe26b39c	-0.16279453
50	0xbf2643b2	-0.64947045
51	0xbdb65a11	-0.089038976
52	0xbdf1634a	-0.11786516
53	0x3f0405de	0.5157145
54	0xbe4b356e	-0.198446
55	0x3eadc6ee	0.33940834
56	0xbeebb25c	-0.46034515
57	0x3e135a37	0.14389883
58	0x3e39028c	0.18067378
59	0xbf20fe42	-0.62887967
60	0x3dac5632	0.08414878
61	0xbe0e2a9c	-0.13883442
62	0x3f24d5bd	0.6438864
63	0xbb9330c0	-0.0044918954
64	0xbc20bb6b	-0.009810309
65	0x3d5b8cbe	0.05360102
66	0xbea2045d	-0.31643954
67	0x3ec5d9d8	0.38642764
68	0xbe954ce4	-0.29160225
69	0xbe887d95	-0.2665831
70	0x3b90eef3	0.004423016
71	0x3d95e2c9	0.073186465
72	0xbe2bbc9b	-0.16771166
73	0xbe3430e7	-0.1759678
74	0x3e28fad1	0.16501929
75	0xbe134ed2	-0.14385536
76	0xbded44a4	-0.11585358
77	0x3e25b5c7	0.16182624
78	0xbec170db	-0.37781414
79	0x3ce4e713	0.027942216
80	0x3dbda423	0.09259822
81	0xbe9d1838	-0.3068254
82	0xbcca0d09	-0.024664419
83	0xbeae6b13	-0.34066066
84	0x3ef57f1f	0.47948548
85	0xbefdb2ff	-0.49550626
86	0x3e2dbfb4	0.1696766
87	0xbc92c339	-0.017915355
88	0xbcb79504	-0.022409923
89	0x3f0847fd	0.53234845
90	0xbe9ca2a0	-0.30592823
91	0xbea0c4a1	-0.31400016
92	0xbddd7e5f	-0.10815119
93	0xbe045d82	-0.12926295
94	0x3eab516b	0.33460554
95	0xbd017cb6	-0.031613074

layers.0.bias f4 [32]
0	0x3f969728	1.1764879
1	0x3f98254f	1.1886386
2	0xbfa52f17	-1.2904996
3	0xbee2ad92	-0.4427305
4	0x3e079903	0.13241963
5	0xbf2e99c8	-0.682034
6	0x3f33e6de	0.7027415
7	0x3f591249	0.84793526
8	0x3e4e8cb8	0.20170867
9	0x3de32a55	0.110920586
10	0xbf752c89	-0.9577108
11	0xbf4f7333	-0.81035155
12	0x3f7f4a71	0.99722964
13	0x3eb190e0	0.34680843
14	0x3e15b70c	0.14620608
15	0x3f904250	1.1270237
16	0xbf99dba0	-1.2020149
17	0x3ede6afe	0.43441004
18	0xbf4e2eaa	-0.80539954
19	0x3f0f0d42	0.55879605
20	0xbe331d4a	-0.17491642
21	0x3fbd2fa3	1.4780163
22	0xbf38d315	-0.72197086
23	0x3f9bb0cc	1.2163329
24	0xbe7bdb02	-0.24595264
25	0x3ceb8024	0.028747626
26	0xbf9abf5a	-1.2089646
27	0xbf5d9df9	-0.8656917
28	0xbe877b8d	-0.2646145
29	0x3de58b62	0.11208226
30	0x3f220a6d	0.6329716
31	0x3f801242	1.0005572

layers.1.weight f4 [32, 32]
0	0x3c9dfacc	0.019284628
1	0xbed4f4fe	-0.41593164
2	0x3d83a727	0.06428366
3	0xbdce3d3d	-0.10070274
4	0xbc5e8101	-0.013580562
5	0x3e6988e9	0.22806133
6	0xbeaea78d	-0.34112206
7	0xbdb2e2c2	-0.08734657
8	0xbe8d03fe	-0.27542108
9	0x3dc60505	0.09668926
10	0x3cb37622	0.021906916
11	0x3e1bea43	0.15226083
12	0x3bf8fd98	0.00759859
13	0xbd37cc7d	-0.04487275
14	0xbee92156	-0.45533246
15	0xbd56145b	-0.052265506
16	0xbd8e2a61	-0.06941677
17	0xbdab50f8	-0.08365053
18	0xbd806515	-0.0626928
19	0x3d43f441	0.04784036
20	0x3df7d714	0.1210157
21	0x3f31e980	0.6949692
22	0x3e3c2c24	0.18376213
23	0xbd8da8e1	-0.06916977
24	0xbe1b9e3f	-0.15197085
25	0xbe52e97c	-0.2059688
26	0x3eb7c84b	0.35895
27	0x3e80b08b	0.25134692
28	0xbd76d690	-0.060263216
29	0x3e19d290	0.1502173
30	0xbc92d555	-0.01792399
31	0x3dc82bf1	0.09774006
32	0x3dcc405d	0.09973214
33	0x3ed3577c	0.41277683
34	0x3e10756c	0.14107293
35	0xbe45d9b1	-0.19321324
36	0xbbcbf690	-0.006224461
37	0x3eac94be	0.3370723
38	0x3cb8c4c8	0.02255477
39	0xbd909d73	-0.07061281
40	0x3e3f7e58	0.1870054
41	0xbea1cd4f	-0.3160195
42	0x3e7ec2f5	0.24879058
43	0xbd2b769a	-0.041861154
44	0xbd1198fe	-0.035546295
45	0xbdcbb02f	-0.09945714
46	0xbe4b9fc1	-0.1988516
47	0x3dcabadc	0.09898922
48	0x3df39848	0.1189428
49	0x3dc420a5	0.09576539
50	0xbdddd400	-0.108314514
51	0x3d1fc739	0.039008353
52	0x3e9c139a	0.30483705
53	0xbcdc9457	-0.026926203
54	0xbe54ae6f	-0.20769666
55	0x3d82aab0	0.06380212
56	0xbd0672d8	-0.032824367
57	0xbe0217d8	-0.12704408
58	0xbd8a6528	-0.06757575
59	0xbde7c18e	-0.113162145
60	0x3e81845a	0.2529629
61	0xbb98a873	-0.0046587526
62	0xbed1d583	-0.4098321
63	0x3e1b8f76	0.15191445
64	0xbe909522	-0.2823878
65	0xbdd6da7d	-0.10490892
66	0x3e822c5b	0.25424466
67	0xbc4a6880	-0.012354016
68	0x3d60e134	0.05490227
69	0xbe24990c	-0.16074008
70	0xbc98310c	-0.018578075
71	0xbe215a99	-0.15757217
72	0xbd624b2f	-0.055247482
73	0xbbb92348	-0.005649958
74	0x3d10aa96	0.035318933
75	0x3e7b9a08	0.24570477
76	0xbd123588	-0.035695583
77	0xbe4436bf	-0.19161509
78	0x3ec88d1e	0.39170164
79	0xbf1c9ae8	-0.6117387
80	0x3e6d588a	0.23178306
81	0x3dff8bda	0.124778464
82	0x3e3d097a	0.18460646
83	0xbe40d3bc	-0.1883077
84	0x3dda404a	0.106567934
85	0x3f038896	0.5138029
86	0x3dd8b75b	0.10581847
87	0xbddc647f	-0.107613556
88	0x3ecea0a4	0.40356934
89	0x3e66c535	0.22536166
90	0x3e95a0c0	0.29224205
91	0x3e26d079	0.16290464
92	0xbda5a4e7	-0.08088093
93	0x3cffeb8f	0.031240253
94	0xbd059da4	-0.03262104
95	0xbe9aaa4a	-0.30208045
96	0x3e819429	0.2530835
97	0x3e2fc172	0.17163637
98	0xbe625c38	-0.22105491
99	0x3deb4352	0.1148745
100	0x3ea83e4c	0.3286003
101	0xbd1232a7	-0.035692837
102	0x3d115c8b	0.035488646
103	0x3e1ab412	0.15107754
104	0xbd9257d1	-0.07145656
105	0xbd841819	-0.06449909
106	0xbe1cd321	-0.15314914
107	0xbdd96725	-0.106153764
108	0x3ec355bd	0.3815135
109	0xbe6c72bb	-0.23090641
110	0xbe207ca5	-0.15672548
111	0x3e01bebb	0.12670414
112	0xbcf0cc01	-0.029394152
113	0x3ebdb03f	0.37048528
114	0xbeb1af4b	-0.3470405
115	0xbf23a036	-0.6391634
116	0x3da5e615	0.08100525
117	0x3d7b67c4	0.061378255
118	0xbe94ce87	-0.29063818
119	0x3e8a2224	0.26979172
120	0x3ebcdd7d	0.36887732
121	0x3e035e17	0.12828861
122	0x3d94c9dc	0.07265064
123	0xbbee9288	-0.0072806515
124	0x3e2917b6	0.16512951
125	0x3e94e1d6	0.2907855
126	0xbe8aeee6	-0.2713539
127	0x3e8b0ef1	0.27159837
128	0x3f1d62f0	0.6147909
129	0xbe6c751f	-0.23091553
130	0xbd7bd91c	-0.06148635
131	0xbed9c40c	-0.42532384
132	0xbd471d23	-0.04861177
133	0xbd990250	-0.07471144
134	0x3eae60b1	0.34058145
135	0xbe5126e9	-0.20425
136	0xbee66287	-0.44997045
137	0x3b7cd719	0.0038580357
138	0x3d9ae741	0.075636394
139	0xbf3d23dc	-0.7388284
140	0x3e9d3a3c	0.30708492
141	0x3e60c3b0	0.21949649
142	0x3d60052a	0.054692425
143	0x3e85aea8	0.26109815
144	0xbe5a3f3f	-0.21313189
145	0xbe306e52	-0.17229584
146	0x3d4268fa	0.047463395
147	0x3e420180	0.18945885
148	0xbe2bc913	-0.16775922
149	0xbf09805d	-0.5371149
150	0xbe2e70c8	-0.1703521
151	0x3df88aef	0.121358745
152	0xbe1dab3b	-0.1539735
153	0xbef69eb5	-0.4816796
154	0xbf103ac1	-0.5633965
155	0x3b324181	0.0027199688
156	0x3e42efc8	0.19036782
157	0xbd424799	-0.047431562
158	0x3cdecb7b	0.027196636
159	0x3d91505c	0.070954055
160	0x3e17b342	0.14814475
161	0x3e81872a	0.25298434
162	0xbe00e43a	-0.12587062
163	0x3e936021	0.28784278
164	0x3e583f00	0.21117783
165	0x3dc5e3a7	0.09662562
166	0x3d3cecff	0.046124455
167	0x3e3ade81	0.18248941
168	0xbe60192e	-0.21884605
169	0xbc83d7fb	-0.016094198
170	0xbe20bb86	-0.15696535
171	0xbe1cd566	-0.1531578
172	0x3eeb0a96	0.45906514
173	0xbe84dde7	-0.25950548
174	0xbe467c35	-0.19383319
175	0x3bcd27a7	0.0062608304
176	0xbe9c1977	-0.30488178
177	0x3e4c38b0	0.199435
178	0xbe0ebefc	-0.13940042
179	0xbd7ee2f5	-0.06222816
180	0x3dd8ac7c	0.10579774
181	0x3da069ee	0.078327045
182	0xbd7d01cb	-0.061769288
183	0x3e9aca63	0.30232534
184	0x3ea9f894	0.33197463
185	0x3e58a385	0.21156128
186	0xbe92dbcb	-0.28683314
187	0xbe7b1182	-0.24518397
188	0xbde23ebc	-0.11047122
189	0x3eca6c31	0.39535668
190	0xbe3f8f23	-0.18706946
191	0x3c2b6f44	0.0104635395
192	0xbeb96148	-0.36207032
193	0x3d760f88	0.060073406
194	0xbdf325e9	-0.11872465
195	0x3e48bf02	0.19604114
196	0x3d16afe9	0.036788855
197	0xbd728aa3	-0.059214246
198	0xbd91dece	-0.07122575
199	0x3d9674f7	0.07346528
200	0x3db5bb50	0.08873618
201	0xbe58db38	-0.21177375
202	0xbe21f7fe	-0.15817258
203	0x3e777581	0.24165918
204	0xbde43af3	-0.11144056
205	0x3e1c49d1	0.15262534
206	0x3d3277c4	0.04357125
207	0x3e3df6d0	0.18551183
208	0xbe39d1d3	-0.18146448
209	0xbcf579e7	-0.029965354
210	0xbe6a7747	-0.22897063
211	0xbdd171bd	-0.10226772
212	0xbd0a7da8	-0.03381124
213	0xbf6c1ece	-0.92234504
214	0xbe90cad6	-0.28279752
215	0x3c52db06	0.012869602
216	0xbdc85bec	-0.09783158
217	0xbe1e6fb8	-0.15472305
218	0x3d1624e5	0.03665628
219	0xbd5d4fb3	-0.054031085
220	0x3d384e7a	0.044996716
221	0x3e1ca478	0.15297115
222	0xbd92d6d8	-0.071698844
223	0xbc521082	-0.012821319
224	0x3dcfadfd	0.101406075
225	0xbe0270a3	-0.1273828
226	0x3ea3195d	0.31855288
227	0xbe420b9b	-0.1894974
228	0x3e769e58	0.24083841
229	0x3cb82767	0.022479726
230	0xbe468f23	-0.1939054
231	0xbe6ce8ab	-0.23135631
232	0xbc3ad74c	-0.01140387
233	0xbe456b3c	-0.19279188
234	0x3ee708ac	0.45123804
235	0xbde0648d	-0.109566785
236	0x3d61de49	0.05514363
237	0x3dd37a6b	0.10326084
238	0xbecc1211	-0.39857534
239	0x3c2df43f	0.010617315
240	0x3de0a1af	0.10968339
241	0xbe475b03	-0.19468312
242	0xbd6239b8	-0.055230826
243	0xbdb73423	-0.08945491
244	0x3ef329ab	0.47492728
245	0xbe2fcdd5	-0.17168362
246	0x3e515cc0	0.20445538
247	0xbf593dcb	-0.84859914
248	0x3d763b86	0.06011536
249	0xbe168ccf	-0.14702152
250	0x3e5888f6	0.21145996
251	0xbd34691e	-0.04404556
252	0x3e864ea6	0.2623188
253	0xbd9490ef	-0.072542064
254	0xbeb292af	-0.34877536
255	0xbe6e8adb	-0.23295157

layers.1.bias f4 [32]
0	0x3e0c26ad	0.13686629
1	0x3e2c928c	0.16852778
2	0x3cc8de7e	0.024520155
3	0xbc5efdb8	-0.013610296
4	0x3e04356b	0.12911002
5	0xbe284048	-0.16430771
6	0xbdc06966	-0.09395103
7	0xbe3ffbbd	-0.18748374
8	0x3e1ae4f8	0.15126407
9	0xbc07f330	-0.0082977265
10	0xbcd66a9e	-0.026173886
11	0x3d8ab9e1	0.06773735
12	0xbdc6484a	-0.09681757
13	0x3cf57967	0.029965116
14	0xbe21da79	-0.15805997
15	0x3da46039	0.080261655
16	0x3e10b084	0.14129835
17	0xbd801374	-0.062537104
18	0x3df2cb65	0.11855201
19	0x3df44b47	0.119284205
20	0xbd1ab192	-0.037767
21	0xbe2db046	-0.16961774
22	0x3d610291	0.05493409
23	0x3d81774d	0.06321583
24	0xbe25e926	-0.1620222
25	0xbdf6ad7a	-0.12044807
26	0x3e2e2cad	0.1700923
27	0xbd6bd824	-0.057579175
28	0x3d83b18e	0.0643035
29	0x3cb7f434	0.022455312
30	0xbd5bfb1d	-0.053706277
31	0xbe803bf0	-0.2504573

layers.2.weight f4 [32, 32]
0	0x3e91c8dd	0.2847356
1	0x3d6639d6	0.0562075
2	0x3ea90651	0.33012632
3	0x3e55e647	0.20888625
4	0xbf49868e	-0.7872094
5	0x3e079a89	0.13242544
6	0xbd3b32c1	-0.0457027
7	0xbe6a6017	-0.22888218
8	0x3db1f268	0.086888134
9	0xbe8ca06c	-0.27466142
10	0xbe970c50	-0.2950158
11	0x3e83d582	0.2574883
12	0xbe0d760c	-0.13814563
13	0xbd44f9d2	-0.04808981
14	0x3e72c456	0.23707709
15	0xbe89bd23	-0.26902112
16	0x3d06c857	0.032905903
17	0x3e9ef4c0	0.31046104
18	0x3e271210	0.16315484
19	0x3e1ca377	0.15296732
20	0x3d86a495	0.0657436
21	0x3e7cbce4	0.24681431
22	0x3d42d1f8	0.047563523
23	0xbe631e74	-0.22179586
24	0xbe7ec738	-0.24880683
25	0xbdfdcbd9	-0.123923965
26	0xbd09c030	-0.03363055
27	0xbd3ec8f9	-0.04657838
28	0xbe4dc59e	-0.20094916
29	0xbe614c09	-0.22001661
30	0x3e30d2ae	0.17267868
31	0xbe573947	-0.21017943
32	0x3f193a81	0.59854895
33	0x3e1d07c5	0.15334995
34	0x3ed12508	0.40848565
35	0xbe4ee687	-0.20205127
36	0xbef18f7a	-0.47179776
37	0x3e01b2c7	0.12665854
38	0xbf4c0c71	-0.79706484
39	0xbe591578	-0.21199596
40	0x3dcc3452	0.09970917
41	0xbe44eadf	-0.19230221
42	0xbe35df1e	-0.17760894
43	0x3f6d25a3	0.92635554
44	0xbf293863	-0.66101664
45	0xbc9e4078	-0.01931785
46	0x3ef0247b	0.46902832
47	0xbda047c4	-0.07826188
48	0xbe982b6c	-0.29720628
49	0xbebcc753	-0.36870822
50	0xbd999f96	-0.07501142
51	0xbdfb0372	-0.122565165
52	0x3ea01449	0.31265476
53	0xbe3c854d	-0.18410225
54	0x3e3c9319	0.18415488
55	0x3ed59333	0.41713867
56	0xbe95d8ff	-0.29267117
57	0xbe1f3e1c	-0.15551037
58	0xbe6ba03a	-0.2301034
59	0xbcad610e	-0.021164443
60	0x3ecf7e76	0.4052617
61	0x3d7f71e6	0.06236448
62	0x3e4f40a9	0.2023951
63	0x3cab7f2c	0.020934664
64	0xbd9498cb	-0.072557054
65	0x3e0ab94e	0.1354725
66	0xbc502ee2	-0.01270649
67	0xbe6ac24b	-0.2292568
68	0x3e9f8c10	0.31161547
69	0xbdc0dc2e	-0.09416996
70	0xbe71f090	-0.23626924
71	0xbe485a95	-0.19565804
72	0x3d33bc46	0.043880723
73	0x3e53236d	0.20618983
74	0xbc9c2ea2	-0.019065205
75	0x3e8f182e	0.27948135
76	0xbcfdadb1	-0.030966612
77	0xbe82bf0e	-0.25536388
78	0xbc8d718f	-0.017266063
79	0xbd86abc2	-0.06575729
80	0x3e4ddc01	0.20103456
81	0xbe04ed18	-0.12981069
82	0xbd8ba7b3	-0.068190955
83	0x3ea2edb1	0.3182197
84	0x3e5f4ac5	0.21805866
85	0xbe36f5d7	-0.17867218
86	0xbe24557e	-0.16048238
87	0x3e59e19d	0.21277471
88	0xbdd8121c	-0.10550329
89	0x3b0ac938	0.0021177065
90	0x3daa43c3	0.08313706
91	0xbde3b88e	-0.111191854
92	0xbd847bc5	-0.0646892
93	0x3e91b29f	0.2845659
94	0xbda832f9	-0.08212847
95	0x3d21d029	0.039505158
96	0xbeb98812	-0.36236626
97	0xbe4570a6	-0.19281253
98	0xbea8c60e	-0.32963604
99	0xbde36202	-0.11102678
100	0x3e691c62	0.22764733
101	0xbeb440fe	-0.35205835
102	0xbe2c1931	-0.16806485
103	0x3e5ad068	0.21368563
104	0x3e1798b3	0.14804344
105	0x3ecd1b2f	0.40059802
106	0x3ed2e621	0.411912
107	0xbe91f27c	-0.28505313
108	0x3e5da9aa	0.21646753
109	0x3ed4e645	0.41581932
110	0xbd911fb0	-0.07086122
111	0xbe32fbfc	-0.17478937
112	0x3e01b99c	0.1266846
113	0xbefa612e	-0.48902267
114	0x3e1a908a	0.150942
115	0xbe930aa3	-0.28719053
116	0x3e973406	0.29531878
117	0xbd2a0fba	-0.041518904
118	0xbe11c67a	-0.14235869
119	0xbc9a87ca	-0.018863577
120	0xbd44cf01	-0.048048977
121	0x3ec1fd0e	0.37888378
122	0xbdb67dc6	-0.08910708
123	0x3e21ba9b	0.1579384
124	0xbe1db1e8	-0.15399897
125	0x3ea9f8b3	0.33197555
126	0xbd9fba90	-0.07799256
127	0x3f03365a	0.5125481
128	0xbd3438c0	-0.043999434
129	0xbe0bf564	-0.13667828
130	0xbd0926a6	-0.033484124
131	0xbe5b7bde	-0.2143397
132	0x3f2061ee	0.6264943
133	0xbe9d5294	-0.30727065
134	0xbeae9f99	-0.34106138
135	0x3bc0bf48	0.0058821775
136	0x3e034545	0.12819393
137	0x3e950aef	0.29109904
138	0x3e24debc	0.16100591
139	0xbe6cc3b7	-0.23121534
140	0x3dd8ddde	0.10589193
141	0x3efca125	0.49341694
142	0x3d98daa9	0.07463581
143	0x3ee35a4c	0.4440483
144	0x3e24ac8b	0.16081445
145	0xbead37d8	-0.33831668
146	0xbd42e253	-0.04757912
147	0xbed4ebb3	-0.41586074
148	0x3ea614f6	0.32437867
149	0xbc188aaf	-0.0093104085
150	0xbd6dd96e	-0.058068685
151	0x3e0e4d46	0.13896665
152	0x3e05537b	0.13020127
153	0x3e62aa26	0.22135219
154	0xbdaa7d62	-0.08324696
155	0x3d689d1e	0.056790464
156	0xbe04eb36	-0.12980351
157	0x3e74937e	0.23884389
158	0xbed04aa4	-0.40681946
159	0x3dfb1d60	0.12261462
160	0xbd3ac189	-0.045594726
161	0x3dafdc5f	0.08586954
162	0x3ef4f415	0.4784247
163	0x3dcfcdc9	0.10146672
164	0xbe9e9dcb	-0.3097976
165	0x3d3028df	0.043007728
166	0x3df2dce7	0.1185854
167	0x3d983175	0.07431308
168	0x3e64ac80	0.22331429
169	0xbe5b932c	-0.2144286
170	0x3cb4c518	0.022066638
171	0xbec60235	-0.3867356
172	0x3e15e833	0.14639358
173	0x3ddc1948	0.107470095
174	0x3e0c5486	0.13704118
175	0x3eaac125	0.33350483
176	0xbe3e66bf	-0.18593882
177	0x3e43992e	0.19101402
178	0x3e81b92c	0.25336587
179	0x3e414939	0.18875588
180	0x3d94d81d	0.07267783
181	0x3e84d2c8	0.25942063
182	0x3e1af238	0.15131462
183	0xbd356ff9	-0.04429624
184	0xbea9ddfb	-0.3317717
185	0x3d71d756	0.05904325
186	0xbe729dbc	-0.23692983
187	0x3ddc71f0	0.10763919
188	0xbc41a80a	-0.011819849
189	0xbd10694f	-0.03525668
190	0xbdbf8d3a	-0.09353109
191	0xbd28bf52	-0.041198082
192	0x3f06f349	0.52714974
193	0x3c5f7d99	0.013640785
194	0x3e2dba0a	0.169655
195	0xbe62008b	-0.2207052
196	0x3ceec6ab	0.029147467
197	0xbd42361f	-0.047414895
198	0xbe0a531d	-0.13508268
199	0x3e24894e	0.16068003
200	0x3e9dbdfc	0.3080901
201	0xbddbec51	-0.10738433
202	0xbe4bce54	-0.19902927
203	0x3e689a03	0.22715001
204	0xbee1477a	-0.43999845
205	0xbd9976a8	-0.07493335
206	0xbdb1f808	-0.08689886
207	0xbe7347a8	-0.23757803
208	0xbeabb9ed	-0.33540288
209	0x3cb2de54	0.02183453
210	0x3e0e2017	0.13879429
211	0xbe182c51	-0.14860655
212	0x3e46c109	0.19409575
213	0xbcd2bf2f	-0.025725929
214	0x3bb7097c	0.0055858474
215	0xbda94ab1	-0.082661994
216	0x3dcc3c76	0.099724695
217	0xbec98158	-0.39356494
218	0xbd21a1bb	-0.03946088
219	0xbd39290b	-0.045205157
220	0x3d69d6c0	0.057089567
221	0xbe50dbab	-0.20396297
222	0x3ec1728b	0.37782702
223	0xbed9b69c	-0.42522132
224	0x3b8b6d4d	0.004254973
225	0xbdd98adf	-0.10622191
226	0xbe3ebcc7	-0.186267
227	0xbd65e748	-0.05612877
228	0x3dac765b	0.08421012
229	0x3a3c06cf	0.00071726454
230	0x3dc3bf08	0.09557921
231	0x3da7b2cc	0.081884
232	0x3ef74c79	0.48300532
233	0x3ea8d190	0.32972383
234	0xbe4c4c88	-0.1995107
235	0xbe3b3112	-0.18280438
236	0xbdd6f9da	-0.10496874
237	0x3f1fdf67	0.6245026
238	0xbe2e206b	-0.17004554
239	0x3ede91b0	0.43470526
240	0xbda597a1	-0.080855615
241	0xbdfb9878	-0.122849405
242	0xbc4f83c2	-0.012665691
243	0xbd2fbf2c	-0.042906925
244	0x3ec31e51	0.38109067
245	0xbe8d1d0a	-0.27561218
246	0xbea2d957	-0.31806442
247	0x3e53a230	0.20667338
248	0x3ee5bcc1	0.4487057
249	0xbe92a084	-0.2863809
250	0xbea522dc	-0.32253158
251	0x3eb931b9	0.36170748
252	0x3e2e5dba	0.17027941
253	0xbe0ba3ad	-0.13636656
254	0xbe79c40a	-0.24391189
255	0x3e257dfc	0.1616134

layers.2.bias f4 [32]
0	0x3dc01be0	0.09380317
1	0xbde5511b	-0.1119711
2	0xbda7413d	-0.0816674
3	0x3d83320e	0.064060315
4	0xbd015a8f	-0.031580504
5	0x3e216407	0.15760814
6	0x3da160bd	0.078797795
7	0xbdff22bf	-0.12457799
8	0xbde65f8e	-0.11248694
9	0xbd68b296	-0.056810938
10	0xbe1876ae	-0.14889023
11	0xbca4159e	-0.02002984
12	0xbe020784	-0.1269818
13	0xbd684632	-0.05670757
14	0x3c44d0c3	0.012012663
15	0x3bb64096	0.0055618985
16	0xbe47dae1	-0.1951709
17	0x3de65dd6	0.112483665
18	0x3db90164	0.09033468
19	0x3e05f90b	0.13083284
20	0xbb3b6f53	-0.002860029
21	0x3d68545f	0.056721088
22	0xbda8167b	-0.08207413
23	0x3ed09eb6	0.40746087
24	0x3bbb9eac	0.0057257023
25	0xbd868da3	-0.06569984
26	0x3d8e6122	0.0695212
27	0xbdd18b16	-0.10231607
28	0xbd2a327d	-0.041552056
29	0xbe1b3f5e	-0.15160891
30	0x3c831d73	0.016005253
31	0xbdcaa7cd	-0.09895287

layers.3.weight f4 [32, 32]
0	0xbd4d5fa5	-0.05014004
1	0xbd80eb1e	-0.06294845
2	0xbad0eafc	-0.0015939171
3	0x3e716f5b	0.23577635
4	0x3e2b3701	0.16720201
5	0xbdf871d9	-0.1213109
6	0x3e51f0fb	0.20502083
7	0x3e1f8adb	0.15580313
8	0x3d2e2b66	0.042521857
9	0x3cc5b970	0.024136275
10	0x3e53d27f	0.20685767
11	0xbd4ad2ea	-0.04951755
12	0xbc4cea09	-0.01250697
13	0x3da24a1d	0.07924292
14	0x3c8739de	0.016507085
15	0x3e63e9cb	0.22257154
16	0xbe00a7eb	-0.12564056
17	0x3e57a51a	0.21059075
18	0xbebe1ec1	-0.37132838
19	0xbe2c55ff	-0.1682968
20	0xbd9e7199	-0.07736511
21	0xbe116825	-0.14199884
22	0x3ea2d594	0.31803572
23	0x3ed9487f	0.42438123
24	0xbd9a2786	-0.0752707
25	0xbe9434c1	-0.28946498
26	0xbe3352a7	-0.17511998
27	0xbec7ab3f	-0.38997838
28	0xbdf6524f	-0.12027418
29	0xbee4da97	-0.4469802
30	0xbe1a9e77	-0.15099512
31	0xbeac2adb	-0.33626446
32	0x3c63e63d	0.013909874
33	0x3d993b24	0.07481983
34	0x3d5fe057	0.054657307
35	0xbe1b9b8d	-0.15196057
36	0xbe6289f4	-0.22122937
37	0x3cfda688	0.030963197
38	0xbeb710b8	-0.35754943
39	0xbd5bbf51	-0.05364925
40	0x3e28ced1	0.16485144
41	0xbe5d74ed	-0.21626635
42	0xbdf9a7fd	-0.12190244
43	0x3e65a2c2	0.22425368
44	0x3e819733	0.25310668
45	0x3d17a893	0.037026
46	0x3cfade03	0.030623442
47	0xbdfd55f2	-0.123699084
48	0x3dc4b3de	0.096046194
49	0xbce7c506	-0.02829219
50	0xbe73e8a4	-0.23819214
51	0x3e591e4d	0.21202965
52	0xbd980e18	-0.07424563
53	0xbd7dd042	-0.06196619
54	0xbe2e9132	-0.17047575
55	0x3d77bb00	0.06048107
56	0xbe122833	-0.14273147
57	0xbc692122	-0.014229091
58	0x3e99ec07	0.30062887
59	0x3d05476a	0.03253881
60	0x3b8c95be	0.0042903116
61	0xbd216489	-0.03940252
62	0x3bd2cf0c	0.0064333733
63	0x3e06879d	0.1313767
64	0x3ddbf73f	0.10740518
65	0xbe06c4b8	-0.1316098
66	0xbd973c1b	-0.07384511
67	0x3e283577	0.16426645
68	0x3ce46248	0.027878895
69	0x3e5cf9c5	0.21579655
70	0xbe653340	-0.22382832
71	0xbe3a2527	-0.18178235
72	0x3ecf1cdf	0.40451714
73	0xbe0c1444	-0.13679606
74	0x3d8cd544	0.06876615
75	0x3e504bbb	0.20341389
76	0x3e27dee0	0.16393614
77	0xbe30f798	-0.1728195
78	0x3d06b53a	0.032887675
79	0xbc8c7b6d	-0.017148698
80	0x3babcefe	0.0052431813
81	0xbe522d49	-0.20525087
82	0x3e64074e	0.22268412
83	0x3b991c34	0.0046725515
84	0x3df67aaa	0.12035115
85	0xbe29ead2	-0.16593483
86	0xbe718e6d	-0.23589487
87	0xbe24e9cb	-0.1610481
88	0xbdff79b5	-0.12474386
89	0x3cc3e816	0.023914378
90	0x3e389952	0.18027237
91	0xbe43b096	-0.19110331
92	0x3dd826a4	0.10554245
93	0xbc616d6f	-0.013759001
94	0xbc4d547c	-0.01253235
95	0x3d5b602a	0.053558506
96	0x3e67db22	0.22642186
97	0xbeb11d23	-0.34592542
98	0x3d9324ec	0.07184777
99	0xbe908c9c	-0.28232276
100	0x3d271c0c	0.040798232
101	0x3d8b5785	0.068038024
102	0xbd386462	-0.045017608
103	0xbdec96a4	-0.1155217
104	0x3da2c1df	0.07947134
105	0xbe08db5d	-0.1336493
106	0xbe71b051	-0.23602416
107	0x3d353671	0.044241372
108	0xbe3082a5	-0.17237337
109	0xbe81166e	-0.25212425
110	0x3e279e2f	0.16368936
111	0x3dbd610e	0.09247027
112	0xbe9583e0	-0.29202175
113	0xbe0370ce	-0.12836
114	0xbe437435	-0.19087298
115	0x3dcb0892	0.09913744
116	0x3d4d7b53	0.05016644
117	0xbb901238	-0.004396703
118	0x3d2ea098	0.042633623
119	0x3d09a776	0.03360697
120	0xbee74554	-0.4517008
121	0xbc488608	-0.012238987
122	0x3cdb62e4	0.026780553
123	0x3c1d3f73	0.009597647
124	0x3bc3285f	0.0059557403
125	0xbc36e3d2	-0.011162715
126	0xbce1fd7d	-0.027586693
127	0xbd95384b	-0.07286128
128	0xbe76c88f	-0.24099945
129	0x3bdfe79e	0.006833031
130	0x3de0acde	0.10970472
131	0xbe2d3786	-0.16915712
132	0x3e2ee2fc	0.17078775
133	0xbe36d163	-0.17853312
134	0xbec49d2b	-0.3840116
135	0x3d65c3a9	0.0560948
136	0x3dd3c638	0.103405416
137	0xbd48cfda	-0.049026348
138	0xbd1e824a	-0.038698472
139	0xbd4c4c79	-0.049877618
140	0x3d8cb72f	0.06870877
141	0x3da0f61f	0.07859444
142	0xbe729931	-0.2369125
143	0xbe8a2d28	-0.26987576
144	0x3dc4d5a7	0.096110635
145	0xbda4f7ca	-0.080550745
146	0xbecaf727	-0.39641687
147	0xbdfab6a0	-0.12241864
148	0x3df65864	0.12028578
149	0xbda72c06	-0.08162694
150	0x3d74b9ab	0.05974738
151	0x3e6cda65	0.23130186
152	0xbd1e7bb0	-0.038692176
153	0xbe5f21e6	-0.21790275
154	0x3dd611da	0.10452624
155	0x3dc18d7b	0.094508134
156	0x3e2c1197	0.16803585
157	0x3d8af3c7	0.06784778
158	0x3b4f75bd	0.003165587
159	0xbea6b611	-0.3256078
160	0xbd933b62	-0.07189061
161	0xbe7cb7a6	-0.24679431
162	0x3cf65ccf	0.030073551
163	0x3df112ce	0.11771165
164	0x3de18acc	0.110128015
165	0xbdba8968	-0.091082394
166	0x3d0f661c	0.03500949
167	0xbe69c8e7	-0.22830544
168	0x3e013507	0.12617885
169	0xbda3e621	-0.08002878
170	0xbcf63842	-0.030056123
171	0xbd872e78	-0.0660066
172	0xbe2851e7	-0.16437493
173	0xbdfbe0ef	-0.12298762
174	0xbe3b8dbe	-0.18315789
175	0xbdc1d547	-0.094645076
176	0xbdb5d4c2	-0.08878471
177	0xbd0159bc	-0.031579718
178	0xbe071327	-0.131909
179	0x3ddadb66	0.10686378
180	0xbd9798ee	-0.07402216
181	0x3e659bf1	0.22422768
182	0xbd9ef16a	-0.0776089
183	0x3e1cce66	0.1531311
184	0xbc4ac584	-0.012376193
185	0x3e98f659	0.29875448
186	0xbdd77542	-0.10520412
187	0x3d40baf2	0.047053285
188	0x3dad5ee4	0.084653646
189	0x3d48bb3e	0.049006693
190	0x3e193cba	0.14964572
191	0xbeba808c	-0.36426198
192	0x3d47acb6	0.048748694
193	0x3de2a3de	0.110664114
194	0xbe855bed	-0.26046696
195	0xbd926c7a	-0.071495965
196	0x3df0a653	0.11750474
197	0xbe05cd25	-0.13066538
198	0xbc83f562	-0.016108219
199	0xbde8c035	-0.113647856
200	0x3d669923	0.056298386
201	0x3e2307b8	0.15920913
202	0x3d1219a9	0.035669003
203	0xbe017208	-0.12641156
204	0xbcc690a5	-0.024238894
205	0x3e343b29	0.17600693
206	0x3da32b01	0.07967187
207	0xbd7e8a49	-0.062143598
208	0x3dbc2b17	0.09187906
209	0x3e44d1d7	0.19220673
210	0x3e1fb9f8	0.15598285
211	0x378670c0	1.6026548e-05
212	0xbe493dd8	-0.19652498
213	0xbe0c0ce9	-0.136768
214	0x3d2c8d54	0.04212697
215	0xbde3bb6a	-0.11119731
216	0x3e289c48	0.16465867
217	0xbe2f93b2	-0.17146185
218	0xbbd65eec	-0.0065420773
219	0x3c12ed7f	0.008967756
220	0x3d883791	0.066512235
221	0xbd53dd18	-0.051724523
222	0xbe408b4b	-0.18803136
223	0x3df7a74a	0.12092455
224	0x3d6f6695	0.05844744
225	0xbcb30458	-0.021852657
226	0xbdd15d8d	-0.102229215
227	0x3dd6a6d1	0.104810365
228	0xbdb3540d	-0.08756266
229	0x3d7875d1	0.060659233
230	0xbdb70557	-0.08936565
231	0x3ceb9fa9	0.028762655
232	0x3e08ad23	0.13347296
233	0xbda5402d	-0.08068881
234	0xbe2a6c09	-0.16642775
235	0x3d5d2395	0.05398901
236	0xbe1f22bc	-0.15540594
237	0x3cda187f	0.026623009
238	0x3e69f1bc	0.2284612
239	0x3e972786	0.2952234
240	0xbcbd71fc	-0.023125641
241	0x3df85bbd	0.12126873
242	0xbec8c48f	-0.39212462
243	0xbe593e3d	-0.21215148
244	0x3c7d65f5	0.015466203
245	0x3dc330cc	0.09530792
246	0x3e723d7f	0.23656271
247	0x3dd2e67f	0.1029787
248	0x3e446f46	0.19183072
249	0xbedfa031	-0.43676904
250	0x3c4191ee	0.0118145775
251	0xbe7c37a0	-0.24630594
252	0xbda5f048	-0.08102471
253	0xbeb8dcf3	-0.3610607
254	0x3e1f59ab	0.1556155
255	0xbded7198	-0.11593932

layers.3.bias f4 [32]
0	0x3dd0a2f9	0.101873346
1	0x3d3368ed	0.043801237
2	0xbde378bd	-0.111070134
3	0x3e1b8b24	0.15189797
4	0xbc27b32f	-0.010235592
5	0x3cb29a7b	0.021802178
6	0xbe875007	-0.26428244
7	0x3e264477	0.16237055
8	0xbb900b15	-0.0043958523
9	0x3dd005ca	0.10157354
10	0x3c926ade	0.017873224
11	0xbdccc872	-0.099991694
12	0xbd8c1c58	-0.06841344
13	0x3e6569a0	0.22403574
14	0x3d9b6a47	0.0758863
15	0x3dc44d0b	0.09585007
16	0xbdf5b86f	-0.119980685
17	0xbdf894b3	-0.12137737
18	0xbb7cf949	-0.0038600734
19	0x3e87b18f	0.26502654
20	0x3b7e09e5	0.0038763222
21	0xbecaff63	-0.3964797
22	0xbd1d8add	-0.03846251
23	0x3e35f87e	0.17770573
24	0xbd976d49	-0.07393891
25	0xbe09c30c	-0.1345331
26	0xbd3da7f0	-0.046302736
27	0x3de1a348	0.110174716
28	0xbe835a78	-0.2565496
29	0xbe1f3101	-0.15546037
30	0xbe641719	-0.22274436
31	0xbe362082	-0.17785838

layers.4.weight f4 [32, 32]
0	0xbe187d4c	-0.14891547
1	0xbd803dc3	-0.0626178
2	0xbe406b4a	-0.18790928
3	0x3d278b9d	0.04090463
4	0xbeb33cdb	-0.35007367
5	0x3dd651cc	0.1046482
6	0xbd005b63	-0.031337153
7	0xbd0a324a	-0.033739366
8	0x3de3f09c	0.11129877
9	0xbddeb927	-0.10875159
10	0xbe540ef0	-0.20708823
11	0x3e0a1a3b	0.13486569
12	0x3d8c4e94	0.06850925
13	0x3e290943	0.1650744
14	0xbdc3b70f	-0.095564
15	0xbdcb43f5	-0.09925071
16	0x3e174d4e	0.14775583
17	0x3beb07e8	0.0071725734
18	0xbe99683c	-0.29962337
19	0xbd406616	-0.046972357
20	0xbda1f1d3	-0.079074524
21	0x3e689ba1	0.22715618
22	0x3e023801	0.12716676
23	0x3caebc31	0.021329971
24	0xbd4f9c9a	-0.050686456
25	0xbc9c9f01	-0.019118788
26	0xbd1609c7	-0.03663042
27	0x3e165a21	0.14682819
28	0xbd4cbeb4	-0.049986556
29	0x3cb93dcd	0.022612477
30	0xbe76a81e	-0.24087569
31	0x3dbe8525	0.09302739
32	0xbcfb0ea7	-0.030646635
33	0x3e8e1775	0.2775227
34	0x3e7a7ce7	0.24461709
35	0xbe3b8cda	-0.1831545
36	0xbe4ed409	-0.20198072
37	0xbc8d512c	-0.01725062
38	0xbdbb40d8	-0.09143227
39	0x3c0e01d2	0.008667426
40	0x3d93f728	0.07224876
41	0x3dab7996	0.083728
42	0x3ce9c2aa	0.028535206
43	0x3d237e57	0.03991541
44	0x3e737fd3	0.2377923
45	0xbd9c3f1f	-0.07629227
46	0x3dab123a	0.08353086
47	0xbe8ea51f	-0.27860352
48	0xbbba9e52	-0.005695143
49	0x3e3b26ba	0.18276492
50	0xbdab04bb	-0.08350512
51	0xbd1d9fa1	-0.038482312
52	0x3e0586f8	0.13039768
53	0x3dd2b86f	0.10289084
54	0x3dc8a34d	0.09796772
55	0x3e50ccde	0.2039065
56	0x3e8d6cca	0.27622062
57	0xbd3e09eb	-0.046396177
58	0x3d8f9358	0.070105255
59	0x3df1d76a	0.11808665
60	0xbe780ebe	-0.24224374
61	0x3d674c2e	0.056469135
62	0x3e9f6cda	0.31137735
63	0xbda2e478	-0.07953733
64	0xbcc05a64	-0.023480602
65	0xbde1312c	-0.10995707
66	0x3e0daf4c	0.13836402
67	0x3dca82ee	0.09888254
68	0xbd34e314	-0.04416187
69	0x3e239c9a	0.15977708
70	0xbe76d687	-0.24105273
71	0x3da6accf	0.081384294
72	0xb9a02f7e	-0.00030552963
73	0xbd9653ce	-0.07340203
74	0x3e4f0356	0.20216116
75	0xbdad09ac	-0.084491104
76	0x3c78433b	0.015152748
77	0xbddb7a5c	-0.107166976
78	0xbe82d9af	-0.25556704
79	0x3c025d5f	0.007956832
80	0xbd57c3a1	-0.0526768
81	0xbe4fc27e	-0.20289037
82	0x3cd47986	0.025936853
83	0xbce4f1dc	-0.027947359
84	0x3dc6421c	0.09680578
85	0xbe91c39c	-0.2846955
86	0xbe4ff60f	-0.20308708
87	0x3d122cec	0.035687372
88	0xbd77b837	-0.060478415
89	0xbd381865	-0.04494514
90	0xbdf3a9f0	-0.118976474
91	0xbe08970f	-0.13338874
92	0xbe3a7ed4	-0.18212444
93	0xbe34ab59	-0.17643489
94	0x3dc73ccc	0.09728393
95	0xbe1b7515	-0.15181382
96	0xbde9d157	-0.114168815
97	0x3d747b1c	0.05968772
98	0xbd7be7ce	-0.061500363
99	0xbe238f8d	-0.15972729
100	0x3db8562c	0.09000811
101	0x3e348f2b	0.17632739
102	0x3e366793	0.17812948
103	0x3cd982fa	0.026551712
104	0xbe71dd63	-0.23619609
105	0xbe7f5b08	-0.2493707
106	0xbd94e155	-0.07269541
107	0x3e44fd23	0.19237189
108	0xbda2eaac	-0.07954916
109	0xbe2dca6e	-0.16971752
110	0xbe5771b1	-0.21039464
111	0xbedb6b7b	-0.4285544
112	0xbe385ca8	-0.18004096
113	0x3e531908	0.20615017
114	0x3dbc06a9	0.09180958
115	0x3d315828	0.043296963
116	0x3ce4f1b1	0.027947279
117	0x3d8d03c0	0.06885481
118	0x3b3ef54c	0.0029137908
119	0xbe3a8352	-0.18214157
120	0x3deb92ee	0.11502634
121	0x3ec3edbb	0.3826731
122	0x3ec52dc8	0.3851149
123	0xbdaa3d8b	-0.0831252
124	0xbcbc2cef	-0.022970645
125	0x3dad220b	0.08453759
126	0x3d2de411	0.04245383
127	0xbe76468e	-0.24050352
128	0x3d3bc729	0.04584423
129	0x3dc5825c	0.09644005
130	0x3e16d1be	0.14728448
131	0xbd001212	-0.031267233
132	0x3cd63d86	0.026152384
133	0xbd9665c4	-0.07343629
134	0x3e23db6d	0.16001673
135	0xbe08c6ae	-0.1335704
136	0x3e1a6d41	0.1508074
137	0x3d48f4b6	0.0490615
138	0x3dc5878d	0.09644995
139	0x3e572d1b	0.210133
140	0x3d728e76	0.059217893
141	0xbe1dfd45	-0.15428646
142	0xbd8fd96b	-0.07023891
143	0x3e2abd63	0.16673808
144	0xbce2457a	-0.02762102
145	0x3d808da5	0.062770166
146	0x3d912559	0.070872016
147	0x3d7cb5f0	0.061696947
148	0x3e4bdbce	0.19908068
149	0xbdf1eb72	-0.11812486
150	0xbe75d2d5	-0.24006207
151	0x3ce0e526	0.027453016
152	0xbbeddd2b	-0.0072590313
153	0xbcc66374	-0.024217345
154	0x3db3cb73	0.08779039
155	0x3e39e7ad	0.18154784
156	0x3ddbcfa2	0.10732962
157	0x3e3a0cdb	0.18168966
158	0x3e5fe27f	0.21863745
159	0xbdcd72e8	-0.10031682
160	0xbdcdc4bc	-0.1004729
161	0xbe32d5e4	-0.17464405
162	0xbd488e3f	-0.04896378
163	0xbe61cae5	-0.22050054
164	0xbde75134	-0.11294785
165	0x395620b0	0.00020420807
166	0x3e60f271	0.21967484
167	0xbdd92e9e	-0.10604595
168	0xbd86ba92	-0.06578554
169	0xbeb5672f	-0.35430285
170	0xbe2c75a0	-0.16841745
171	0x3e008091	0.12549044
172	0x3c7799e6	0.015112376
173	0xbe7ec079	-0.2487811
174	0x3c1807ea	0.009279231
175	0xbe5db72b	-0.21651904
176	0x3ccb09d6	0.024784964
177	0xbdcec8ed	-0.10096917
178	0x3cb8c611	0.022555383
179	0xbdde8365	-0.10864905
180	0xbe6d7faf	-0.23193239
181	0x3d9d9fca	0.07696493
182	0x3de27e53	0.11059251
183	0xbdc562e1	-0.09638
184	0x3dbf68b4	0.093461424
185	0x3daf8bff	0.08571624
186	0x3e81dbd2	0.25363022
187	0xbd5fc284	-0.054628864
188	0x3e3c3fb6	0.18383679
189	0xbdfe29dc	-0.12410328
190	0xbd5afa8f	-0.053461608
191	0xbe0de722	-0.13857701
192	0xbd758046	-0.059936784
193	0x3da8c548	0.082407534
194	0x3deee76e	0.116652355
195	0x3dfb3f31	0.12267912
196	0x3d17fe8f	0.037108
197	0xbd9d6083	-0.07684424
198	0x3df1d8d6	0.11808936
199	0x3d6a6a26	0.057230137
200	0x3da40c0c	0.0801011
201	0x3e5992db	0.21247427
202	0x3dc73705	0.09727291
203	0x3d044f57	0.032302227
204	0x3e61f2dc	0.220653
205	0x3d3b1b6d	0.045680452
206	0xbdc5c9f7	-0.09657662
207	0x3d4c2558	0.0498403
208	0xbe16d0cc	-0.14728087
209	0x3d88a675	0.06672374
210	0x3e054251	0.13013579
211	0xbe6e407d	-0.23266788
212	0x3e20995e	0.15683505
213	0x3e602ea8	0.21892798
214	0x3bed3d98	0.0072400086
215	0x3eea933f	0.45815465
216	0x3e74b85e	0.23898456
217	0x3d8a80a7	0.0676282
218	0x3db90962	0.09034993
219	0xbdf49793	-0.11942973
220	0xbe81573a	-0.2526186
221	0x3e2b7ddd	0.16747232
222	0x3eb59672	0.35466343
223	0xbde4eee7	-0.111783795
224	0x3ba90918	0.0051585548
225	0x3e1760ba	0.14782992
226	0x3d5645bd	0.0523126
227	0x3d2d742d	0.042347122
228	0xbd9fdafb	-0.07805439
229	0xbe2b4bdc	-0.16728157
230	0x3dba9fce	0.091125116
231	0xbe02ab6f	-0.12760709
232	0x3cab16a0	0.020884812
233	0x3e8ac7ba	0.27105504
234	0xbe11e718	-0.14248312
235	0x3e4f7f3e	0.20263383
236	0x3d886c49	0.06661279
237	0xbe06f769	-0.13180317
238	0xbdac3e74	-0.084103495
239	0x3e6b3510	0.2296946
240	0x3c13432d	0.008988184
241	0x3d2dbb05	0.042414684
242	0xbd36bf48	-0.044616014
243	0xbdf1e104	-0.118104964
244	0x3e35153d	0.17683883
245	0xbd1ad182	-0.03779746
246	0x3dcd04b0	0.1001066
247	0x3e454d60	0.19267797
248	0xbd56e616	-0.05246552
249	0xbe58771f	-0.21139191
250	0x3c8f6dfc	0.0175085
251	0x3e7d03dc	0.24708503
252	0x3b17322a	0.0023070672
253	0x3e0d7f10	0.13818002
254	0x3e98757f	0.29777142
255	0xbe2f7b60	-0.17136908

layers.4.bias f4 [32]
0	0xbce17ce4	-0.027525373
1	0x3d271e00	0.040800095
2	0xbd802aaa	-0.062581375
3	0xbe899469	-0.2687104
4	0x3deba444	0.115059406
5	0xbe1ca62c	-0.15297765
6	0x3dc9328e	0.09824096
7	0x3e5cd5b8	0.21565902
8	0xbd97e90a	-0.074174955
9	0xbdbe4405	-0.092903174
10	0xbe297553	-0.16548662
11	0xbde669ab	-0.11250623
12	0xbe066ba5	-0.13127
13	0x3ddcf982	0.10789777
14	0x3c4a55c3	0.012349549
15	0xbc8cc748	-0.017184868
16	0xbcf51fd2	-0.0299224
17	0xbdd55bfb	-0.104179345
18	0xbda81514	-0.08207145
19	0x3dd4e7db	0.103957854
20	0x3daf4c60	0.08559489
21	0x3e127eaa	0.14306131
22	0xbd925411	-0.07144941
23	0xbcdca805	-0.026935587
24	0x3b02fbae	0.0019986439
25	0x3e071572	0.13191774
26	0x3dba32e5	0.090917386
27	0xbd56de7e	-0.05245828
28	0x3d381f30	0.044951618
29	0x3c0eeee8	0.008723952
30	0x3c2d9ec6	0.010596937
31	0xbda81bd0	-0.0820843

layers.5.weight f4 [32, 32]
0	0xbc8f5db2	-0.017500732
1	0x3b8219b4	0.003970349
2	0xbd2d469e	-0.042303674
3	0x3e6128fb	0.21988289
4	0xbd8b7668	-0.068096936
5	0xbe0ce1e6	-0.13758048
6	0x3d75a177	0.059968438
7	0xbb682f8f	-0.0035428738
8	0x3da4e3f5	0.08051292
9	0xbe990d23	-0.29892835
10	0x3da4c662	0.08045651
11	0xbce0d3a1	-0.027444663
12	0xbe04bac8	-0.12961876
13	0xbe0e20bf	-0.13879679
14	0xbdb05398	-0.08609694
15	0x3be4dff2	0.006984704
16	0xbe1d1fad	-0.15344115
17	0x3e644545	0.22292049
18	0xbd86f386	-0.06589417
19	0xbe2166b2	-0.15761831
20	0xbd304d4a	-0.04304246
21	0xbe3fc61d	-0.18727918
22	0xbe47334b	-0.1945316
23	0xbdde11ac	-0.108432144
24	0xbda19109	-0.078889914
25	0xbd7227ef	-0.059120115
26	0xbe2dc839	-0.1697091
27	0x3d3ac55b	0.04559837
28	0x3d44409e	0.047913186
29	0xbd38e8fc	-0.045144066
30	0xbe08eac6	-0.13370809
31	0x3d20bf4f	0.039244946
32	0x3d78c798	0.060737222
33	0x3e692d72	0.22771242
34	0x3de78ba8	0.11305934
35	0x3e141449	0.14460863
36	0x3d391d45	0.04519393
37	0x3e7dd532	0.24788359
38	0x3d3681cd	0.04455738
39	0xbd959355	-0.07303492
40	0x3e3d822f	0.18506692
41	0xbe5c43b5	-0.21510203
42	0x3e9cb5bc	0.30607402
43	0xbd425bb7	-0.047450747
44	0x3d3d96be	0.046286337
45	0xbc4a9903	-0.012365582
46	0x3ccfb79e	0.02535611
47	0xbe3c9e4a	-0.18419757
48	0xbdffa35e	-0.12482332
49	0xbe31ef74	-0.173765
50	0x3df7fc9c	0.12108728
51	0xbd473cc7	-0.048641946
52	0x3dd6ef9c	0.104949206
53	0xbe80fdc1	-0.251936
54	0xbdd85399	-0.1056282
55	0xbe8a1b13	-0.2697378
56	0xbc638876	-0.013887515
57	0xbdd8a82e	-0.10578953
58	0xbe2e06a5	-0.16994722
59	0xbc840df4	-0.016119935
60	0xbe4049d4	-0.18778163
61	0x3e051da2	0.12999585
62	0xbdcba4ad	-0.09943519
63	0xbdecb0ea	-0.11557181
64	0x3e25a901	0.16177751
65	0xbd8d896c	-0.06910977
66	0x3e17624e	0.14783594
67	0x3e169ca5	0.14708193
68	0x3d24b8ee	0.040215425
69	0x3e151504	0.14558798
70	0xbcc24c62	-0.023718063
71	0x3c366dd2	0.011134582
72	0x3d8ea9bb	0.06965967
73	0xbe59fd7b	-0.21288101
74	0x3ddf0200	0.10889053
75	0xbc707200	-0.014675617
76	0xbe3fcce8	-0.1873051
77	0xbd29051e	-0.041264646
78	0x3e208f63	0.15679698
79	0xbdacbe36	-0.08434717
80	0x3df2201b	0.1182253
81	0x3d6b75d8	0.05748543
82	0x3d7c02c0	0.06152606
83	0xbd5244b1	-0.05133504
84	0xbd38bb07	-0.04510024
85	0xbe2a87d2	-0.16653374
86	0xbe387ad1	-0.180156
87	0xbe34ccb5	-0.17656215
88	0xbe37d2fa	-0.17951575
89	0xbdf842e7	-0.121221356
90	0xbe4fc900	-0.20291519
91	0xbe50cb1a	-0.20389977
92	0x3c1b8d99	0.009494209
93	0x3c211290	0.009831086
94	0x3dda8a96	0.106709644
95	0xbcef849b	-0.029238036
96	0x3d0b7d97	0.03405532
97	0x3e668a7d	0.22513767
98	0xbe3ae103	-0.18249898
99	0xbe198dff	-0.14995573
100	0x3e82029f	0.25392625
101	0xbe05d156	-0.13068137
102	0x3d47c9de	0.0487765
103	0xbd672a7d	-0.056437004
104	0xbdf377a0	-0.11888051
105	0xbd8ebf1c	-0.06970045
106	0x3dd2bd4c	0.10290012
107	0xbe0af7a3	-0.13571028
108	0xbe0de3df	-0.13856457
109	0xbd8658fa	-0.0655994
110	0xbd9bcd44	-0.07607511
111	0xbdc57903	-0.09642222
112	0xbccb1e7a	-0.024794806
113	0xbe359fdc	-0.17736763
114	0x3e5fce69	0.21856083
115	0x3d74dc83	0.05978061
116	0xbd821ce5	-0.063531674
117	0xbe0cc2eb	-0.1374623
118	0xbe377f3a	-0.17919627
119	0xbe4ffbdb	-0.20310919
120	0x3e0798ef	0.13241933
121	0x3d8a4beb	0.067527615
122	0x3dc0ec84	0.09420112
123	0x3cc69dee	0.024245229
124	0x3dd7a57f	0.10529613
125	0xbdabe91e	-0.08394073
126	0xbddc279c	-0.107497424
127	0xbd80d4dd	-0.062906004
128	0xbd815b0c	-0.06316194
129	0xbe6e7595	-0.23287041
130	0x3bc60d2f	0.006044052
131	0xbe1184c7	-0.14210807
132	0x3df9e2f5	0.12201492
133	0x3ce63b37	0.028104408
134	0xbd00605d	-0.0313419
135	0xbdf90ecb	-0.12161025
136	0xbe53d006	-0.20684823
137	0xbcb87f27	-0.022521568
138	0xbdd452c8	-0.10367352
139	0x3cc33c8c	0.023832582
140	0x3e189ec8	0.1490432
141	0xbe4196bb	-0.18905155
142	0xbdd38ab6	-0.103291914
143	0xbe957997	-0.29194328
144	0xbe3c2e9f	-0.1837716
145	0xbcaf69d4	-0.021412767
146	0xbdd350a4	-0.10318115
147	0x3dd85d2e	0.105646476
148	0xbde14984	-0.1100035
149	0xbe155343	-0.14582543
150	0xbdf24e42	-0.11831333
151	0xbd05f49f	-0.032703992
152	0x3e26ad77	0.16277109
153	0x3cee6b4b	0.029103896
154	0x3dde68d6	0.108598396
155	0x3df882ec	0.12134346
156	0xbdaf974b	-0.08573779
157	0x3dce150c	0.10062608
158	0xbd4d2b55	-0.050090153
159	0x3e7f6572	0.24941042
160	0xbcee1a1c	-0.029065184
161	0xbd980d4a	-0.0742441
162	0x3e21e42d	0.15809698
163	0xbe0086a3	-0.1255136
164	0x3e45c7f4	0.19314557
165	0x3d5f5cc2	0.05453182
166	0x3de6d604	0.11271289
167	0xbc7d5171	-0.015461312
168	0xbdcf2216	-0.10113923
169	0x3df46258	0.1193282
170	0xbd5d45f8	-0.054021806
171	0xbd3c672a	-0.045996822
172	0xbd74f4c4	-0.05980374
173	0x3e15838c	0.14600962
174	0xbd79df92	-0.06100423
175	0x3e0fda39	0.14048089
176	0xbe0569f8	-0.13028705
177	0x3c469cef	0.012122377
178	0x3e0eb731	0.1393707
179	0x3cecfbc3	0.028928643
180	0xbd158891	-0.036507193
181	0x3d4d2b66	0.050090216
182	0x3c34deec	0.011039477
183	0xbe5981a5	-0.21240862
184	0xbe327f42	-0.17431358
185	0xbe0babbe	-0.13639733
186	0x3d305c54	0.0430568
187	0x3d14b502	0.036305435
188	0xbce47963	-0.027889913
189	0x3d6a4fc0	0.05720496
190	0xbda6d419	-0.08145923
191	0xbd2bac5f	-0.041912433
192	0x3e3521d0	0.1768868
193	0x3d47b542	0.048756845
194	0x3d732cd2	0.059368916
195	0x3cb73bea	0.022367436
196	0x3e0562a5	0.13025911
197	0xbd5f919f	-0.054582234
198	0xbc9d215f	-0.019180952
199	0xbd058add	-0.032603133
200	0xbda50feb	-0.08059677
201	0x3ba2e7a7	0.004971463
202	0x3d894474	0.067025095
203	0xbe088b7d	-0.1333446
204	0x3db924c6	0.09040217
205	0x3d347d9c	0.044065103
206	0xbd079176	-0.033097707
207	0xbc4b9eea	-0.012428025
208	0x3e57bdaf	0.21068452
209	0x3e44c639	0.19216241
210	0xbd934648	-0.071911395
211	0x3d0aad89	0.033856902
212	0x3dc9bdeb	0.09850677
213	0xbd67982c	-0.056541607
214	0x3d5bf356	0.05369886
215	0x3d8fce0b	0.070217215
216	0xbc39e7f9	-0.0113468105
217	0x3cec262c	0.028826796
218	0xbda86a1a	-0.08223362
219	0x3dbe9423	0.093055986
220	0xbe0edd19	-0.1395153
221	0x3e16fdd9	0.14745273
222	0xbe5f0b93	-0.21781759
223	0x3e3130d3	0.17303781
224	0x3e8aea3b	0.2713183
225	0xbe707f28	-0.23486006
226	0xbe4674c4	-0.1938048
227	0x3d1ce7df	0.038307067
228	0xbe132e00	-0.14373016
229	0xbd83695c	-0.0641658
230	0xbe3869e4	-0.18009144
231	0xbe2962b9	-0.16541566
232	0xbe3a2fed	-0.18182345
233	0xbe0849d2	-0.1330941
234	0xbe08bb4c	-0.13352698
235	0x3cd8575e	0.026408847
236	0xbe0ac416	-0.13551363
237	0x3c95507d	0.018226856
238	0xbe345e59	-0.17614116
239	0xbd2b77e0	-0.04186237
240	0x3c160722	0.009156974
241	0x3e88856e	0.266643
242	0xbe118599	-0.1421112
243	0x3e0c0270	0.13672805
244	0xbe729df4	-0.23693067
245	0x3dcd9018	0.10037249
246	0x3e148960	0.1450553
247	0x3d6c746a	0.05772821
248	0xbde4392c	-0.11143717
249	0xbcac2d7d	-0.021017784
250	0xbc80807a	-0.015686262
251	0xbddff5c6	-0.109355494
252	0xbd249708	-0.040183097
253	0xbe111ac3	-0.14170365
254	0xbe07a254	-0.13245517
255	0xbe195d55	-0.1497701

layers.5.bias f4 [32]
0	0x3d99e9ce	0.07515298
1	0x3e2aa8ef	0.16666006
2	0x3d609fa2	0.054839738
3	0x3e59e7ba	0.21279803
4	0xbd5c1070	-0.053726614
5	0xbc744176	-0.014908185
6	0x3db06674	0.086132914
7	0xbd9ad958	-0.07560986
8	0x3dfff07b	0.1249704
9	0xbe630e0c	-0.22173327
10	0x3cd6f362	0.0262391
11	0x3d3eb093	0.046555113
12	0xbd4436de	-0.047903888
13	0xbc86370d	-0.016383672
14	0x3db43ea9	0.08801014
15	0xbe0ff4f8	-0.14058292
16	0x3c51f781	0.012815357
17	0x3dbae2df	0.091253035
18	0xbe2e4da6	-0.17021808
19	0xbd5b4075	-0.053528268
20	0xbd02cc01	-0.031932835
21	0xbe1e104f	-0.15435909
22	0xbc68dc43	-0.014212671
23	0x3d6d9649	0.05800465
24	0x3e57245a	0.21009961
25	0x3e29cc58	0.16581857
26	0x3dfb41e2	0.122684255
27	0x3d0c3d5b	0.0342382
28	0xbe4eb4a2	-0.20186093
29	0xbd8a46a9	-0.067517586
30	0xbd2a18a0	-0.04152739
31	0x3e1545b1	0.14577366

layers.6.weight f4 [32, 32]
0	0x3dddc7c0	0.10829115
1	0xbcd0e7de	-0.025501188
2	0x3dc68c21	0.09694696
3	0xb7bc2578	-2.2428794e-05
4	0xbd373943	-0.044732343
5	0x3d77d2ba	0.0605037
6	0x3d81f353	0.063452385
7	0xbc9606e1	-0.018313827
8	0xbdc686db	-0.096936904
9	0x3d082719	0.03324041
10	0x3db70aa6	0.08937578
11	0xbd06108d	-0.032730628
12	0xbc34033c	-0.010987099
13	0xbd8350e7	-0.06411915
14	0xbc5053bb	-0.012715275
15	0xbd9eb323	-0.07749011
16	0x3bc2f22f	0.0059492807
17	0xbd557667	-0.05211487
18	0xbc6130c6	-0.013744539
19	0xbd8bf957	-0.06834667
20	0xbca85626	-0.020548891
21	0xbe0cb61e	-0.13741347
22	0x3b98e406	0.0046658544
23	0xbcf4261b	-0.029803326
24	0x3e574e7a	0.2102603
25	0xbc3b024a	-0.01141412
26	0xbdbd060c	-0.09229669
27	0x3dcc532a	0.099768
28	0xbd213348	-0.039355546
29	0x3dd89ef6	0.105771944
30	0xbd00fd2e	-0.03149145
31	0xbe284d1c	-0.16435665
32	0xbceab2e2	-0.028649751
33	0xbd81191e	-0.06303619
34	0xbe506cc3	-0.2035399
35	0x3c92b241	0.017907264
36	0x3d469e28	0.048490673
37	0xbc58cd1d	-0.013232497
38	0xbdac4e58	-0.084133804
39	0xbc129be5	-0.008948301
40	0x3dd2de3f	0.10296296
41	0xbe36a045	-0.17834575
42	0x3e0c6ce8	0.1371342
43	0x3e22f8f8	0.15915287
44	0xbd241fac	-0.040069267
45	0x3d4999be	0.049218886
46	0x3b5a27bd	0.0033287846
47	0xbe52a5c6	-0.2057105
48	0xbdc151bb	-0.09439417
49	0x3bd8c2fa	0.00661504
50	0x3d0c020b	0.034181636
51	0x3e30542d	0.1721961
52	0x3d86ee7f	0.06588458
53	0xbcac79d2	-0.021054182
54	0xbd2915b9	-0.041280482
55	0x3cef66b8	0.029223785
56	0x3dc6b3c2	0.09702255
57	0x3d4b69ed	0.049661566
58	0x3e3035f8	0.17208087
59	0xbdf0abd4	-0.117515236
60	0xbdd0757d	-0.10178659
61	0x3cedecc4	0.029043563
62	0xbc097d47	-0.008391685
63	0xbe32c3ee	-0.17457554
64	0x3d9af96e	0.07567106
65	0x3c13091e	0.008974342
66	0x3dfd2c04	0.12361911
67	0xbdf98fdd	-0.12185643
68	0xbddd23c2	-0.10797836
69	0x3d3a51b1	0.045488063
70	0x3de98b83	0.11403563
71	0xbc90b90a	-0.017666359
72	0x3de7e049	0.11322076
73	0x3d7dd91e	0.061974637
74	0xbe09bc71	-0.13450791
75	0x3d6a6535	0.057225425
76	0xbd23b04e	-0.03996306
77	0xbb9cc49a	-0.004784179
78	0x3e05c59a	0.1306366
79	0xbd77f596	-0.060536943
80	0xbd3868c1	-0.045021776
81	0x3afda01d	0.0019350086
82	0x3cb9595c	0.022625618
83	0xbcaad377	-0.020852787
84	0xbdf063bf	-0.11737775
85	0xbe9be76d	-0.3045
86	0xbe20b6e4	-0.15694767
87	0xbd13929e	-0.036028497
88	0xbc9835a8	-0.018580273
89	0xbe0c55ca	-0.13704601
90	0x3e1b3e42	0.15160468
91	0x3d682976	0.056680165
92	0xbb63b527	-0.0034745426
93	0x3d82fbcc	0.06395683
94	0xbd008f04	-0.03138639
95	0xbde02b5d	-0.10945771
96	0x3e16f821	0.14743091
97	0xbd14f329	-0.036364708
98	0x3e307e5f	0.17235707
99	0x3c1a17fd	0.009405133
100	0x3d528df2	0.0514049
101	0xbcb27383	-0.021783596
102	0xbe69030f	-0.22755073
103	0xbca0d2b8	-0.019631729
104	0xbdff76fa	-0.12473865
105	0x3dee3a40	0.11632204
106	0x3e059577	0.13045298
107	0xbc35f867	-0.011106587
108	0xbe1b7cdb	-0.15184347
109	0x3e1e8291	0.15479495
110	0xbd41c36e	-0.047305517
111	0xbe60d8d6	-0.21957716
112	0x3bc2c787	0.0059441957
113	0x3c991037	0.01868449
114	0x3d09c9e0	0.03363979
115	0xbd368060	-0.04455602
116	0x3d15efa5	0.036605496
117	0xbdfdc93f	-0.123919
118	0x3e5e9e40	0.21740055
119	0xbe2837ad	-0.16427489
120	0x3da3ae43	0.07992222
121	0xbd652e49	-0.055952344
122	0x3dcf424c	0.10120067
123	0x3e3b8fd2	0.18316582
124	0x3c01af8b	0.007915388
125	0x3c324980	0.010881782
126	0xba378977	-0.000700138
127	0xbe10b44c	-0.14131278
128	0xbdbd6f0e	-0.092496976
129	0xbd3a0a3d	-0.04541992
130	0x3de9d0be	0.114167675
131	0x3e18e63c	0.14931577
132	0xbd1c4d9f	-0.038159963
133	0x3db11f52	0.08648552
134	0x3d82309f	0.0635693
135	0x3dad20a1	0.08453489
136	0x3dcc9795	0.099898495
137	0xbd840e2d	-0.06448016
138	0x3e67f462	0.22651818
139	0xbde95539	-0.11393208
140	0xbe226b01	-0.15861131
141	0xbccbc1ec	-0.024872743
142	0xbc15cf71	-0.009143696
143	0x3b1e1805	0.0024123203
144	0xbdf01a84	-0.117238075
145	0x3b4a4596	0.003086423
146	0x3d4598ae	0.04824131
147	0x3c019882	0.007909896
148	0xbe01acbc	-0.12663549
149	0xbd8fd734	-0.070234686
150	0x3e45acfc	0.1930427
151	0xbbdde31e	-0.0067714592
152	0xbcacddcd	-0.021101857
153	0x3d79508d	0.060867835
154	0xbdb5268e	-0.08845244
155	0x3e2eaa1b	0.17057078
156	0xbdc944b0	-0.09827554
157	0x3dbad7da	0.09123202
158	0xbcf4d1dc	-0.029885225
159	0x3d66e690	0.056372225
160	0xbde24b02	-0.11049463
161	0xbe0cef08	-0.13763058
162	0xbddff298	-0.10934943
163	0x3e0ffb51	0.14060713
164	0x3e266b4a	0.16251865
165	0xbdc91e12	-0.098201886
166	0x3e378312	0.17921093
167	0x3e0eab25	0.13932474
168	0xbc4918e3	-0.012274
169	0xbbe241c8	-0.0069048144
170	0x3dcfb60b	0.10142144
171	0x3e5458f2	0.20737055
172	0xbd37e3b1	-0.044894878
173	0x3dbf8db8	0.093532026
174	0xbe550cfd	-0.20805736
175	0xbe7581dd	-0.2397532
176	0x3e85cd4f	0.261332
177	0xbc454511	-0.0120403925
178	0xbc5ad4f3	-0.013356435
179	0x3e387ca6	0.180163
180	0xbe56c01d	-0.20971723
181	0xbe55279a	-0.20815888
182	0x3dc26f57	0.09493893
183	0x3bdfd058	0.0068302564
184	0x3e18bc2e	0.14915535
185	0xbb9a6f5c	-0.004712982
186	0xbe0e6c0a	-0.13908401
187	0xbd5b6362	-0.053561576
188	0x3d9bb150	0.07602179
189	0x3dba1e09	0.0908776
190	0xbc7eeb43	-0.01555902
191	0xbcf4fb2d	-0.029904926
192	0x3c3f9c3c	0.011694964
193	0x3db8a159	0.090151496
194	0x3c959817	0.018260999
195	0x3e1a043b	0.15040676
196	0xbd8789f8	-0.06618112
197	0xbcb54206	-0.022126209
198	0xbd521b61	-0.05129564
199	0x3c927cd0	0.01788178
200	0xbdb21cbf	-0.08696889
201	0xbdbceb0d	-0.0922452
202	0xbc3e2c4c	-0.011607241
203	0xbe2a0506	-0.16603479
204	0xbdf55e00	-0.1198082
205	0xbc662eb3	-0.01404922
206	0x3dc6988c	0.09697065
207	0x3d4310b1	0.04762334
208	0x3c3bb99d	0.011457828
209	0xbc84db1f	-0.016217766
210	0x3cbde03f	0.023178218
211	0x3e32c38e	0.1745741
212	0xbd9c1517	-0.0762121
213	0xbde90e40	-0.11379671
214	0x3d757ea0	0.059935212
215	0xbe174296	-0.14771494
216	0x3dafd43c	0.08585402
217	0xbccf82f5	-0.025331
218	0xbd37d642	-0.044882067
219	0x3c99bda6	0.01876719
220	0x3de07f69	0.109618016
221	0xbc80c27c	-0.015717737
222	0x3e7b57d1	0.24545218
223	0xbcc782c3	-0.024354344
224	0xbb661cc4	-0.003511236
225	0x3a8a316a	0.0010543291
226	0x3dda29ab	0.10652479
227	0x3dcfdcad	0.101495124
228	0xbdf0f206	-0.11764912
229	0x3d84364d	0.064556696
230	0xbde38b04	-0.111104995
231	0xbdcb0258	-0.099125564
232	0x3e180703	0.14846425
233	0xbdcd7e7d	-0.10033891
234	0xbe004506	-0.1252633
235	0x3de91d5b	0.11382552
236	0x3dd353b3	0.10318699
237	0x3e2d882c	0.16946477
238	0x3d89d5f6	0.06730263
239	0x3d7fd616	0.062460028
240	0x3dc06935	0.09395067
241	0xbe0ab08b	-0.13543908
242	0x3d9fcf9a	0.07803269
243	0xbccb7381	-0.02483535
244	0xbd9d2f8a	-0.07675083
245	0xbdfbeecc	-0.12301406
246	0x3ce5a85f	0.028034387
247	0x3d805b45	0.06267408
248	0x3df72b0f	0.1206876
249	0x3e5ff3f1	0.218704
250	0x3dc50e43	0.09621861
251	0x3d14a33a	0.036288477
252	0xbe5d8f06	-0.2163659
253	0xbd712a02	-0.058877952
254	0x3e14eee2	0.14544252
255	0xbd83fa35	-0.064442076

layers.6.bias f4 [32]
0	0xbcd4c433	-0.025972461
1	0xbde78e5f	-0.11306452
2	0xbda8fd70	-0.08251464
3	0x3ac38e3f	0.0014919712
4	0x3d9268f7	0.07148927
5	0xbc8b251d	-0.01698547
6	0xbdb576d0	-0.08860552
7	0x3db6139e	0.088904604
8	0xbb39748f	-0.0028298234
9	0xbd173bd8	-0.036922306
10	0xbca5bce1	-0.020231666
11	0xbe6a58bf	-0.22885416
12	0x3e0f67ba	0.14004412
13	0xbdeb1f1e	-0.114805445
14	0xbc6a66b9	-0.014306718
15	0x3dc35073	0.09536829
16	0x3e840c96	0.25790852
17	0xbe7ed4f5	-0.24885924
18	0xbe3189e8	-0.17337763
19	0xbe1ac034	-0.15112382
20	0x3e6297b7	0.22128187
21	0xbdbb6d14	-0.091516644
22	0x3d446f8d	0.047957946
23	0xbda6647d	-0.08124635
24	0xbb6eb81b	-0.0036425653
25	0x3e2894c9	0.16463007
26	0xbe228d5e	-0.1587424
27	0x3daf08ba	0.08546586
28	0xbd6c79f1	-0.05773348
29	0xbda197db	-0.07890292
30	0xbd853946	-0.06505065
31	0x3dc245bb	0.09485956
