Region 3 B-Field Trained On Boundary (32, 4).pth (torch, 17982 bytes, 10 tensors)

layers.0.weight f4 [32, 3]
-0.20862226 0.0138653405 -0.23451364 0.2964989 -0.01582262 0.08642523 -0.04407254 0.40564236
0.20649181 -0.23016824 0.07957635 0.2219969 0.11587384 -0.17794609 0.1311574 0.45997176
-0.059804056 -0.6507905 0.07394441 -0.37350634 -0.4537646 -0.024226649 -0.056615252 0.3630241
-0.07055323 -0.14048597 0.20792286 -0.025407393 0.47900233 -0.38776606 -0.34326792 -0.15021142
0.19112013 -0.044633936 -0.049997453 0.39304906 0.06314389 -0.0046868883 0.051074862 -0.3237313
-0.43060973 -0.015721109 -0.31362203 0.028711459 0.048153467 -0.046966106 0.06719975 0.047546428
0.008402712 -0.098154515 0.046945084 0.30792806 -0.12497961 0.6096444 0.23265259 -0.111990474
0.50474226 -0.37085995 0.12607734 0.14604774 0.12437835 0.32887888 -0.13856556 0.066051416
0.08295316 -0.78397465 -0.03658546 -0.21534263 0.28384537 -0.14825526 0.033193257 0.07038387
0.02957483 -0.040525876 -0.20692281 -0.016095022 -0.3898563 -0.5412599 -0.009306396 -0.05212007
0.54995584 -0.41323513 0.27389687 -0.050270434 -0.0034398064 -0.000105069485 -0.5628429 0.02256051
0.019318298 -0.68727887 0.37426144 0.18498969 0.636647 -0.047372248 -0.034183204 0.50384194
00000000: 13a1 55be 742b 633c 5824 70be b4ce 973e
00000010: 709e 81bc b6ff b03d 6885 34bd 5bb0 cf3e
00000020: 9772 533e 39b1 6bbe edf8 a23d 2853 633e
00000030: 444f ed3d 8037 36be 204e 063e 6b81 eb3e
00000040: 19f5 74bd 359a 26bf 2b70 973d 393c bfbe
00000050: d553 e8be f776 c6bc 65e5 67bd 4bde b93e
00000060: 367e 90bd 8edb 0fbe bbe9 543e 2a23 d0bc
00000070: cb3f f53e 4689 c6be d0c0 afbe 06d1 19be
00000080: ffb4 433e 13d2 36bd 21ca 4cbd ba3d c93e
00000090: 9551 813d 7894 99bb e033 513d 1cc0 a5be
000000a0: e178 dcbe 8ec9 80bc 1193 a0be 4b34 eb3c
000000b0: 923c 453d 885f 40bd 06a0 893d 0bc0 423d
000000c0: 87ab 093c 3c05 c9bd 7d49 403d bfa8 9d3e
000000d0: 4ff5 ffbd a811 1c3f 7b3c 6e3e 435b e5bd
000000e0: ca36 013f 5be1 bdbe 6b1a 013e 8a8d 153e
000000f0: 14ba fe3d d062 a83e 21e4 0dbe f745 873d
00000100: 59e3 a93d 90b2 48bf a3da 15bd c782 5cbe
00000110: 2e54 913e 3ad0 17be a7f5 073d 6b25 903d
00000120: ea46 f23c 76fe 25bd 93e3 53be b5d9 83bc
00000130: 3f9b c7be 0290 0abf db79 18bc db7b 55bd
00000140: e8c9 0c3f 8e93 d3be 363c 8c3e 5fe8 4dbd
00000150: 606e 61bb c058 dcb8 7916 10bf d2d0 b83c
00000160: 6841 9e3c 82f1 2fbf 329f bf3e f06d 3d3e
00000170: 4cfb 223f 6709 42bd b003 0cbd c9fb 003f

layers.0.bias f4 [32]
-0.8644649 -0.7206202 -0.47458977 0.57123345 -0.047988307 0.7922646 0.75107116 0.5045279
0.8096394 1.0282162 -0.6051952 0.6484165 1.1559131 0.55391616 0.84816766 1.1491866
1.2974123 -0.64608276 -0.029318858 -0.8911207 0.5651432 -0.38136387 0.78097117 0.6837102
-0.07512882 1.010414 -0.51953083 -0.31031936 0.3208455 0.38816503 -0.61192334 0.23264033
00000000: 924d 5dbf 917a 38bf 6efd f2be 5b3c 123f
00000010: 638f 44bd dad1 4a3f 3346 403f be28 013f
00000020: 8744 4f3f 979c 833f 13ee 1abf a0fe 253f
00000030: f6f4 933f 73cd 0d3f 8421 593f 8c18 933f
00000040: 9b11 a63f ae65 25bf 1a2e f0bc 7c20 64bf
00000050: 3aad 103f 2042 c3be baed 473f a207 2f3f
00000060: 24dd 99bd 3f55 813f f9ff 04bf 2ee2 9ebe
00000070: dd45 a43e 91bd c63e 02a7 1cbf 4439 6e3e

layers.1.weight f4 [32, 32]
0.12765184 0.31826052 -0.09148197 0.082480974 -0.052131616 0.0116955545 -0.20734291 -0.016457673
-0.02215512 0.09461231 0.13522515 0.1781935 0.016420385 0.22738612 0.045134354 0.18455775
-0.60076016 0.14025043 0.0015592156 0.11172471 -0.04833798 0.16231881 0.24360146 -0.41600606
0.14340672 -0.2745294 -0.21694908 0.34120855 0.20966421 0.18326375 -0.07706397 -0.15758276
0.08853473 0.11191522 0.3245852 0.08989939 -0.16238248 0.026958147 -0.08484954 -0.11272378
-0.2877905 0.16689706 0.024236955 0.05658895 0.22292909 -0.0006054668 0.1006175 0.3256048
0.29145408 0.06907605 0.050342243 -0.16089438 0.24144953 0.048219204 -0.3039372 0.124190465
-0.21886899 0.08235478 -0.03406953 0.11276852 -0.21693692 -0.019329965 0.20351665 -0.0828217
0.042612195 0.1806819 -0.105718374 -0.4095828 0.35263214 0.0991207 0.16522126 -0.09254897
0.1967741 -0.39022815 0.079144955 -0.11139427 -0.068179965 0.12558953 -0.15967743 -0.38499177
-0.024318323 0.3694968 0.26624155 -0.019408481 -0.34739143 -0.07085142 0.1679985 -0.37137806
0.22315465 -0.18711469 -0.033917654 -0.4902992 -0.017682021 0.22030166 0.37937865 -0.047072425
-0.22331414 -0.0007940497 0.04374656 0.30996487 -0.03588637 0.11182965 0.08527202 -0.10665126
-0.2416167 0.6070152 -0.12465588 0.16800085 0.121435925 0.26263952 -0.05063059 0.05462824
0.13381745 -0.07673465 -0.13119537 0.027386116 0.25957578 0.25485548 -0.25716782 -0.1792375
-0.18883918 0.034744903 -0.13712938 0.10505832 -0.06897081 -0.05634139 -0.15093786 -0.14439231
-0.045249537 -0.1719543 -0.02197119 -0.054445595 -0.18074156 0.14560005 0.069245085 0.18236859
-0.12637489 0.11377919 0.038179953 0.13993563 0.5567359 0.079286374 0.2038009 0.49252105
0.5713699 -0.16504757 -0.12678196 -0.097581536 0.069047585 0.09263523 -0.14250918 0.39340073
0.15944427 -0.083299175 0.101672 -0.15019405 0.15367289 -0.03508873 0.13391411 -0.11502236
0.2680685 0.078738905 -0.011861102 -0.4483907 0.13161412 0.011256249 0.12187974 0.0061665145
-0.11929293 -0.42792454 0.03462749 -0.06593919 -0.055033334 -0.23358756 -0.09831381 -0.11625784
0.055404626 0.119369894 0.08027457 -0.010653811 -0.30120963 0.24421512 0.09463048 0.1451851
0.26392132 -0.042853218 -0.03687198 -0.09760597 0.11556836 0.025208145 0.08317465 0.020713521
-0.37402213 -0.019854056 -0.21248335 0.03886178 0.22743332 0.4844038 0.41884023 0.2993282
0.39914134 -0.088223934 -0.08782799 0.3636657 0.15611053 0.08435289 0.31436154 0.36936054
0.44620624 -0.018438343 0.124172285 -0.3579337 -0.101398736 0.0071961596 0.33211228 0.5371533
0.06607239 0.21015446 0.19848657 -0.0316249 0.075833894 -0.017419562 -0.06823823 0.17381032
0.04383798 -0.16618793 -0.10819673 0.078550234 -0.09982348 0.19869864 -0.0020454132 -0.3921634
-0.36655617 -0.057173267 0.09361829 -0.34542465 0.044498716 0.08566534 0.21597622 -0.03078798
-0.10180607 -0.25285727 -0.1503374 -0.117040224 -0.014233323 0.27305627 -0.22157156 -0.005584101
0.16698594 -0.12246146 -0.1376303 0.17194076 0.16817033 0.13169514 -0.31402168 -0.43524623
00000000: 2ab7 023e 0bf3 a23e e65a bbbd c9eb a83d
00000010: f687 55bd b69e 3f3c b351 54be 3ed2 86bc
00000020: a77e b5bc 19c4 c13d 7678 0a3e 5b78 363e
00000030: 0b84 863c e8d7 683e cdde 383d b5fc 3c3e
00000040: 6bcb 19bf cf9d 0f3e 985e cc3a edcf e43d
00000050: 0cfe 45bd e736 263e a972 793e bffe d4be
00000060: 36d9 123e 1e8f 8cbe e627 5ebe e3b2 ae3e
00000070: 37b2 563e 7ea9 3b3e b7d3 9dbd 605d 21be
00000080: b251 b53d cf33 e53d 0830 a63e 2c1d b83d
00000090: 9847 26be 55d7 dc3c 98c5 adbd badb e6bd
000000a0: 4759 93be 10e7 2a3e 948c c63c d1c9 673d
000000b0: 8647 643e 30b8 1eba 8c10 ce3d acb5 a63e
000000c0: 7839 953e be77 8d3d ab33 4e3d 7fc1 24be
000000d0: 8c3e 773e 8081 453d a89d 9bbe 9257 fe3d
000000e0: 311f 60be 9fa9 a83d 7e8c 0bbd 2ff3 e63d
000000f0: b624 5ebe e059 9ebc ab66 503e 6c9e a9bd
00000100: 208a 2e3d ad04 393e e082 d8bd d6b4 d1be
00000110: 338c b43e cbff ca3d c32f 293e 508a bdbd
00000120: 267f 493e fccb c7be c016 a23d ae22 e4bd
00000130: f0a1 8bbd 8b9a 003e 7b82 23be a41d c5be
00000140: 3837 c7bc af2e bd3e d050 883e 89fe 9ebc
00000150: 4add b1be 8d1a 91bd cc07 2c3e 4425 bebe
00000160: a782 643e fe9a 3fbe 3ded 0abd 7f08 fbbe
00000170: e3d9 90bc c296 613e eb3d c23e 04cf 40bd
00000180: 76ac 64be c627 50ba 982f 333d b7b3 9e3e
00000190: 96fd 12bd f206 e53d 19a3 ae3d fa6b dabd
000001a0: 5e6a 77be 5965 1b3f 954b ffbd 6a08 2c3e
000001b0: 66b3 f83d b078 863e 0662 4fbd ddc1 5f3d
000001c0: 7107 093e 0e27 9dbd 1458 06be d958 e03c
000001d0: 1ee7 843e 6b7c 823e 80ab 83be 098a 37be
000001e0: 0f5f 41be ac50 0e3d a56b 0cbe d128 d73d
000001f0: 9140 8dbd 3bc6 66bd 748f 1abe 94db 13be
00000200: 9457 39bd ca14 30be edfc b3bc 5802 5fbd
00000210: 5114 39be 2e18 153e 5ed0 8d3d d5be 3a3e
00000220: 6b68 01be 1005 e93d 9562 1c3d 494b 0f3e
00000230: 3e86 0e3f e560 a23d 2fb1 503e b82b fc3e
00000240: 4c45 123f 3b02 29be 21d3 01be d4d8 c7bd
00000250: d268 8d3d 8ab7 bd3d eded 11be d26b c93e
00000260: 5c45 233e c298 aabd 6939 d03d 78cc 19be
00000270: 6d5c 1d3e 33b9 0fbd c820 093e d890 ebbd
00000280: 4640 893e dd41 a13d 1155 42bc 7793 e5be
00000290: dac5 063e 216c 383c 169c f93d 7910 ca3b
000002a0: da4f f4bd ed18 dbbe 8ed5 0d3d 200b 87bd
000002b0: a26a 61bd 9431 6fbe c058 c9bd 9718 eebd
000002c0: f6ef 623d 3478 f43d fe66 a43d 528d 2ebc
000002d0: 2638 9abe 8713 7a3e a0cd c13d 67ab 143e
000002e0: b220 873e db86 2fbd 1307 17bd a4e5 c7bd
000002f0: 1baf ec3d 5081 ce3c 7957 aa3d 67af a93c
00000300: d47f bfbe f9a4 a2bc 3c95 59be 882d 1f3d
00000310: 48e4 683e c603 f83e 3a72 d63e 8c41 993e
00000320: 415c cc3e c0ae b4bd 29df b3bd 6432 ba3e
00000330: 70db 1f3e 35c1 ac3d fff3 a03e d31c bd3e
00000340: 2575 e43e 020c 97bc 0a4e fe3d 1643 b7be
00000350: 24aa cfbd c3cd eb3b 9f0a aa3e e182 093f
00000360: f650 873d bb32 573e 1040 4b3e 1c89 01bd
00000370: cd4e 9b3d 78b3 8ebc 7cc0 8bbd 55fb 313e
00000380: 748f 333d 2b2d 2abe 3f96 ddbd f2de a03d
00000390: 4170 ccbd a877 4b3e 570c 06bb a4c9 c8be
000003a0: 40ad bbbe 842e 6abd f2ba bf3d 80db b0be
000003b0: 4944 363d 4f71 af3d df28 5d3e 1337 fcbc
000003c0: b37f d0bd 8276 81be 0cf2 19be c9b2 efbd
000003d0: e232 69bc 08ce 8b3e a8e3 62be d6fa b6bb
000003e0: 5dfe 2a3e 13cd fabd f5ee 0cbe 3d11 303e
000003f0: d834 2c3e 17db 063e 73c7 a0be 98d8 debe

layers.1.bias f4 [32]
0.22134218 -0.071720816 -0.033894457 0.15465844 0.14750245 -0.086773105 -0.00939644 0.12152904
0.12446101 -0.14022355 -0.0006731816 0.105750866 -0.047584824 -0.079200394 -0.18596905 -0.010372089
-0.056075502 -0.044124674 -0.092707515 -0.108317345 -0.05453727 0.16022943 0.106756575 0.12250585
0.050930228 -0.085796185 0.08649891 -0.010214032 -0.033264928 0.13244532 0.092488036 0.19022876
00000000: 86a7 623e 5de2 92bd ead4 0abd c85e 1e3e
00000010: e20a 173e 19b6 b1bd 87f3 19bc 38e4 f83d
00000020: 6ae5 fe3d c396 0fbe 7478 30ba e993 d83d
00000030: 4ee8 42bd d133 a2bd ac6e 3ebe b2ef 29bc
00000040: 6daf 65bd 13bc 34bd 70dd bdbd 7cd5 ddbd
00000050: 7962 5fbd 2f13 243e 31a3 da3d 59e4 fa3d
00000060: 379c 503d e9b5 afbd 5726 b13d c158 27bc
00000070: ce40 08bd bf9f 073e 5e6a bd3d 54cb 423e

layers.2.weight f4 [32, 32]
-0.0088985935 -0.10666502 0.061056137 -0.0456528 -0.15328602 -0.1171155 0.028360164 0.024822252
-0.04345001 0.36969647 0.051917665 -0.2951669 0.077544205 0.24988198 0.14080343 0.05743676
0.3750903 -0.28434345 0.18732983 0.3919205 -0.0937493 -0.13994807 -0.19077669 0.2956461
-0.06594812 0.08705994 0.07578369 0.3643795 0.0031372758 -0.10543818 -0.023486603 -0.15224199
0.20272939 0.14217687 -0.27899495 0.18190576 0.05059869 -0.13369957 -0.15017805 0.35218143
0.16155703 -0.07522555 0.20122355 0.09737736 0.009378481 -0.1690845 -0.17159382 0.19678268
-0.15047622 0.024846658 -0.34025818 -0.13591306 -0.060627628 0.19713786 0.17643337 0.14427185
-0.07982418 0.19021961 0.08190615 -0.15729997 0.16058798 0.1425547 -0.021021167 -0.0009050027
-0.08394169 -0.023907872 0.24570778 -0.046457857 -0.24121815 0.2518994 0.1426931 0.17977676
-0.21207476 -0.10186648 -0.25072306 -0.06446593 0.16266899 0.0071953777 -0.12731817 0.24744797
0.12720068 -0.37968296 0.2342226 -0.14664528 -0.08694687 0.23796944 0.001312878 -0.014150067
-0.14679787 -0.3635185 -0.066209234 0.18157592 0.119672574 -0.037596002 -0.20890313 -0.14216928
0.11529599 -0.64874595 0.117837496 0.0096957935 -0.65302026 0.04470176 0.00016816705 -0.15564871
-0.22015253 0.121063374 -0.025647884 -0.11167174 0.15015212 0.013940885 -0.021667372 -0.138092
-0.023909876 -0.36819932 -0.14079575 0.28169978 -0.1201744 -0.004926766 0.06493205 -0.121029206
0.15062362 -0.81422275 -0.20487565 0.27735442 -0.06412449 0.17813441 -0.033490974 0.00797647
-0.0041320464 0.14258595 -0.054597396 0.35203278 -0.00031324447 -0.14929536 0.09924004 0.16907465
-0.04812053 -0.044242196 -0.0021973925 -0.0014640625 0.04945171 -0.24348307 -0.0048969183 0.08858049
-0.29032084 0.2309436 -0.06500416 0.038873438 0.11372333 0.030203901 0.3009135 -0.24745394
0.062091574 0.14774498 0.18808696 0.07396863 -0.0773799 -0.03899109 -0.018257866 0.11893759
0.14632776 0.0505669 -0.0058810418 0.12067001 0.1584777 -0.054871235 -0.05106064 0.18130626
0.13544579 0.058336858 0.021286855 -0.04157283 -0.08693238 -0.024519643 -0.07129252 0.17987725
-0.06972087 -0.5824125 -0.009953471 -0.08224073 -0.3865292 0.11927426 -0.32515377 0.41390175
-0.18176235 -0.05424499 0.043225896 0.18297946 -0.20272449 0.041063398 0.38030306 -0.1569913
0.1213694 0.34229884 0.03343091 -0.017579209 -0.24137467 -0.11475662 -0.1658918 0.034849007
-0.029653661 0.2858423 -0.083981216 -0.28797835 -0.11234963 -0.067139454 0.34580782 0.087624095
0.08094861 0.1477118 0.08814722 0.18224363 0.013207267 -0.13639362 -0.18265389 0.012602021
0.29845247 -0.19401997 -0.25267425 0.22802815 0.24081972 -0.017022545 -0.25988096 -0.18183763
-0.1235023 -0.113996185 0.10408425 -0.026758771 0.027424393 -0.23344539 0.23710215 0.04940752
0.23823565 -0.0051111938 -0.041474164 -0.18094419 -0.31020972 -0.063958526 0.25682402 -0.09805347
0.16937546 0.31498912 -0.10625343 0.112571284 0.033922303 -0.05784665 -0.24677281 0.38455212
0.17638673 0.11496734 0.1214282 0.04598425 -0.1669758 -0.25047898 -0.2043871 0.011936362
00000000: 68cb 11bc 3173 dabd 0016 7a3d 6efe 3abd
00000010: 03f7 1cbe 40da efbd 9353 e83c 0958 cb3c
00000020: a3f8 31bd db48 bd3e 9ea7 543d 1e20 97be
00000030: 7fcf 9e3d 10e1 7f3e c62e 103e cf42 6b3d
00000040: d60b c03e 7795 91be 64d3 3f3e cea9 c83e
00000050: a2ff bfbd 8c4e 0fbe f75a 43be ed5e 973e
00000060: cf0f 87bd 7b4c b23d 7b34 9b3d f38f ba3e
00000070: c19a 4d3b f9ef d7bd fa66 c0bc 53e5 1bbe
00000080: 4b98 4f3e d096 113e 6dd8 8ebe 8145 3a3e
00000090: 9240 4f3d 8ae8 08be 46c8 19be 2051 b43e
000000a0: 356f 253e da0f 9abd 8c0d 4e3e c86d c73d
000000b0: 33a8 193c 7d24 2dbe 4ab6 2fbe 6681 493e
000000c0: 7016 1abe 388b cb3c 5236 aebe cb2c 0bbe
000000d0: ad54 78bd 82de 493e f3aa 343e 00bc 133e
000000e0: dc7a a3bd eec8 423e 69be a73d 3e13 21be
000000f0: 2d71 243e dcf9 113e 9534 acbc b43d 6dba
00000100: 9fe9 abbd 71da c3bc d29a 7b3e 984a 3ebd
00000110: e401 77be f5f8 803e 241e 123e 6617 383e
00000120: 202a 59be 609f d0bd c65e 80be b706 84bd
00000130: b392 263e 34c7 eb3b b25f 02be 0063 7d3e
00000140: e540 023e ce65 c2be 0dd8 6f3e 2e2a 16be
00000150: 3311 b2bd 43ae 733e e014 ac3a afd5 67bc
00000160: 2e52 16be 191f babe b598 87bd 0aef 393e
00000170: e516 f53d 44fe 19bd b4ea 55be d394 11be
00000180: 4e20 ec3d 3714 26bf c954 f13d 1bdb 1e3c
00000190: 562c 27bf 3119 373d 0056 3039 6062 1fbe
000001a0: aa6f 61be 13f0 f73d 831b d2bc 27b4 e4bd
000001b0: 7ac1 193e 4f68 643c c67f b1bc fd67 0dbe
000001c0: a5de c3bc 9f84 bcbe c32c 10be f43a 903e
000001d0: ff1d f6bd b570 a1bb 18fb 843d 29de f7bd
000001e0: 143d 1a3e e770 50bf ecca 51be 6601 8e3e
000001f0: b353 83bd de68 363e d52d 09bd bdaf 023c
00000200: 1e66 87bb 0d02 123e 85a1 5fbd a43d b43e
00000210: f63a a4b9 e2e0 18be 5d3e cb3d e821 2d3e
00000220: 081a 45bd 4e37 35bd 2102 10bb c9e5 bfba
00000230: e08d 4a3d a053 79be 5476 a0bb b069 b53d
00000240: efa4 94be 7b7c 6c3e e720 85bd c139 1f3d
00000250: c7e7 e83d 2c6e f73c 5611 9a3e 9164 7dbe
00000260: bc53 7e3d 764a 173e de99 403e dd7c 973d
00000270: 5a79 9ebd 1fb5 1fbd 8591 95bc 8d95 f33d
00000280: f2d6 153e 3d1f 4f3d c1b5 c0bb d721 f73d
00000290: fa47 223e a9c0 60bd f624 51bd 59a8 393e
000002a0: 4db2 0a3e a1f2 6e3d c561 ae3c 4648 2abd
000002b0: 9b09 b2bd 6bdd c8bc d001 92bd be31 383e
000002c0: d1c9 8ebd fc18 15bf e213 23bc d46d a8bd
000002d0: 28e7 c5be 1046 f43d 8e7a a6be eeea d33e
000002e0: e91f 3abe ff2f 5ebd a30d 313d f85e 3b3e
000002f0: 0297 4fbe 1832 283d 15b7 c23e 54c2 20be
00000300: 8590 f83d cb41 af3e daee 083d 4602 90bc
00000310: ec2a 77be 8505 ebbd 8adf 29be d5bd 0e3d
00000320: 3cec f2bc ec59 923e 58fe abbd e671 93be
00000330: 9017 e6bd 6980 89bd b90d b13e 4374 b33d
00000340: 63c8 a53d c341 173e 8886 b43d 139e 3a3e
00000350: 4b63 583c c5aa 0bbe 9f09 3bbe b578 4e3c
00000360: c3ce 983e 2cad 46be 855e 81be 3680 693e
00000370: 7299 763e dd72 8bbc 1e0f 85be a533 3abe
00000380: c6ee fcbd d576 e9bd 202a d53d 3635 dbbc
00000390: 1fa9 e03c 4f0c 6fbe e8ca 723e 8a5f 4a3d
000003a0: 0cf4 733e cd7b a7bb d0e0 29bd 6f49 39be
000003b0: cfd3 9ebe b0fc 82bd 707e 833e 42d0 c8bd
000003c0: c370 2d3e 4146 a13e 669b d9bd c68b e63d
000003d0: 1df2 0a3d 9cf0 6cbd 03b2 7cbe 04e4 c43e
000003e0: b99e 343e ff73 eb3d 59af f83d fb59 3c3d
000003f0: b4fb 2abe c83e 80be da4a 51be bb90 433c

layers.2.bias f4 [32]
0.12098386 -0.025609966 -0.21066691 -0.1328762 0.122732535 -0.053540573 -0.326509 0.091371745
0.2198689 -0.032410648 -0.0007339287 -0.13381341 0.0006274112 -0.009663014 -0.05165548 -0.23649138
-0.04239744 0.10596412 0.07088653 0.034566164 -0.029344516 0.21588553 -0.16590813 -0.054343387
-0.13855642 0.15073402 -0.00037963875 -0.011970609 -0.08161435 0.0861503 0.037035186 0.018773455
00000000: 63c6 f73d fecb d1bc 11b9 57be b310 08be
00000010: 325b fb3d 5c4d 5bbd 302c a7be 1c21 bb3d
00000020: 5025 613e 07c1 04bd 1f65 40ba 6206 09be
00000030: da78 243a 9e51 1ebc b294 53bd cc2a 72be
00000040: f0a8 2dbd b703 d93d f52c 913d 4095 0d3d
00000050: e963 f0bc 1911 5d3e d2e3 29be 2c97 5ebd
00000060: bce1 0dbe 055a 1a3e 400a c7b9 6020 44bc
00000070: 6d25 a7bd 926f b03d 35b2 173d caca 993c

layers.3.weight f4 [32, 32]
-0.121982224 0.2998233 0.18116492 -0.1814913 0.26865804 0.18180206 -0.08887419 0.15297107
0.11131962 -0.23030747 0.15173733 -0.28887036 0.021652881 -0.0849856 0.036059193 0.19299403
0.03661592 0.124108255 0.055617057 -0.008975032 -0.12740636 0.16596204 -0.23285834 0.24842104
-0.13927025 -0.00092214247 0.06186539 -0.020789787 -0.1599224 0.13813598 0.15560058 0.3516714
0.023153918 0.020937536 -0.16919838 0.036254663 0.16084835 -0.34565562 0.08589526 0.035355423
-0.036033895 0.20229743 -0.16330643 0.06378103 -0.1071876 -0.045429807 -0.04427402 0.36414263
-0.47854844 -0.12187606 -0.0474951 0.033796214 0.37658012 -0.21216659 0.05609934 0.18964699
0.16936135 0.18156712 0.14596704 0.03518933 0.114354186 -0.38182092 -0.11935874 -0.09111036
-0.061240204 -0.116648436 0.26855293 0.027314985 0.17037782 0.3235979 -0.043917198 0.1858273
-0.013084091 0.28630412 0.107767545 -0.026800985 -0.07333592 -0.2104834 -0.16471513 0.10414391
-0.04866231 -0.07733885 -0.13071316 -0.025392786 0.122579984 0.0638128 0.1287227 0.0037816423
-0.13072449 9.502057e-05 -0.2681553 0.1241211 0.17609695 -0.11135752 0.14750063 0.25370032
0.040900636 -0.20429757 0.1851374 0.10452286 -0.08514575 -0.24839744 0.24141419 -0.14421043
0.11380057 0.19025324 -0.052587397 0.2640622 0.2755573 0.08220915 0.23226829 -0.020489398
-0.100952946 -0.26716188 0.18026504 0.24752542 0.0817862 -0.33083233 0.36140195 -0.014129806
0.13963683 0.01349286 -0.08310727 -0.022171466 0.20460929 -0.12897325 0.05670888 -0.37024963
-0.11753754 0.1389952 0.060715646 -0.23800877 0.30052227 0.22936691 -0.18994212 -0.059981063
-0.3098304 0.023694528 -0.19858891 -0.24190739 0.06986106 -0.27458033 -0.22291087 0.30518818
-0.35938483 0.022800246 0.05450995 0.19999437 -0.06504516 -0.17129 -0.16795069 0.41421688
0.024180526 0.10572356 0.2324468 -0.08090667 -0.09799828 0.07417873 -0.03339939 0.31172088
-0.37131578 0.0017320913 -0.012196055 0.0403082 0.18164852 -0.06279349 -0.113737404 -0.040470004
-0.16113088 -0.0125512155 -0.43333572 0.12293619 0.06618731 -0.18008994 -0.06015463 -0.13199788
0.23376095 0.10829507 -0.026469255 -0.14764564 -0.30230743 0.10916119 -0.26118398 0.25909784
-0.3560474 0.121865086 0.24305883 -0.19026798 -0.07594369 0.13698134 0.018382385 -0.0113568455
-0.04757728 0.05138218 0.026360985 -0.1382041 0.3150806 0.13467239 -0.1116755 0.18369852
-0.069755405 -0.05385201 0.11625095 -0.03300421 -0.19606097 0.15290791 0.008026972 0.28776446
0.006871342 0.11314279 -0.009441665 -0.07314351 -0.038911738 0.078600205 -0.026392642 -0.121130936
0.14642078 -0.17979625 0.17034136 0.27224764 0.018772626 -0.05185 -0.00301719 -0.09294741
-0.0033010305 -0.20765868 -0.0926043 0.11686291 0.11321614 -0.32146716 0.18894275 -0.17033304
-0.21272671 -0.123525076 -0.3459533 -0.06795999 -0.22806166 0.15185386 0.070079274 0.32902184
-0.22446032 -0.16123234 -0.118512 -0.105819866 0.19360378 -0.08145792 0.08965627 0.06260764
-0.104971096 0.05428285 0.3702865 0.22741497 -0.02357004 -0.23054413 -0.112671554 -0.210472
00000000: d1d1 f9bd 7182 993e 4c83 393e dbd8 39be
00000010: 8c8d 893e 522a 3a3e ac03 b6bd 73a4 1c3e
00000020: 8afb e33d b9d5 6bbe 0861 1b3e d1e6 93be
00000030: 6261 b13c ee0c aebd ceb2 133d 3aa0 453e
00000040: 93fa 153d 782c fe3d b6ce 633d 030c 13bc
00000050: d076 02be f4f1 293e 6b72 6ebe 1662 7e3e
00000060: dc9c 0ebe efbb 71ba 9066 7d3d 584f aabc
00000070: b3c2 23be 8573 0d3e c255 1f3e 460e b43e
00000080: 49ad bd3c 3285 ab3c 5742 2dbe c57f 143d
00000090: 6eb5 243e c6f9 b0be dbe9 af3d d9d0 103d
000000a0: 4798 13bd 0f27 4f3e cd39 27be a19f 823d
000000b0: 2c85 dbbd 9b14 3abd ad58 35bd e770 ba3e
000000c0: 4d04 f5be 289a f9bd 398a 42bd e66d 0a3d
000000d0: 1ccf c03e 3342 59be 6cc8 653d d232 423e
000000e0: 106d 2d3e bbec 393e 6278 153e b022 103d
000000f0: 8732 ea3d 087e c3be 5b72 f4bd 1298 babd
00000100: 02d7 7abd 60e5 eebd c57f 893e adc3 df3c
00000110: 8677 2e3e a0ae a53e 85e2 33bd 8349 3e3e
00000120: a85e 56bc 7496 923e 3bb5 dc3d bd8d dbbc
00000130: 2531 96bd f688 57be 15ab 28be 6749 d53d
00000140: 2152 47bd d563 9ebd acd9 05be 8804 d0bc
00000150: 370b fb3d 49b0 823d e2cf 033e 6ed5 773b
00000160: a4dc 05be c845 c738 a74b 89be 3433 fe3d
00000170: c252 343e 690f e4bd 680a 173e 02e5 813e
00000180: 6d87 273d 6233 51be a994 3d3e 1510 d63d
00000190: e560 aebd e65b 7ebe 4835 773e e6ab 13be
000001a0: 4610 e93d bfd1 423e e265 57bd 2933 873e
000001b0: d915 8d3e 455d a83d bdd7 6d3e 62d9 a7bc
000001c0: 6bc0 cebd 71c9 88be 6697 383e 4e77 7d3e
000001d0: 867f a73d db62 a9be ad09 b93e b480 67bc
000001e0: f5fc 0e3e 2811 5d3c 2534 aabd efa0 b5bc
000001f0: 1985 513e 9011 04be 9247 683d 5c91 bdbe
00000200: 86b7 f0bd c254 0e3e f8b0 783d 92b8 73be
00000210: 0ede 993e 29df 6a3e 3080 42be b4ae 75bd
00000220: 17a2 9ebe 071b c23c e45a 4bbe 92b6 77be
00000230: 5113 8f3d cb95 8cbe bf42 64be a041 9c3e
00000240: 4a01 b8be 95c7 ba3c d345 5f3d 53cb 4c3e
00000250: 6636 85bd a566 2fbe 44fb 2bbe 3c14 d43e
00000260: 3d16 c63c 9885 d83d 8906 6e3e 65b2 a5bd
00000270: 52b3 c8bd 05eb 973d cccd 08bd e199 9f3e
00000280: 1a1d bebe 5707 e33a f6d1 47bc 361a 253d
00000290: 1202 3a3e e099 80bd 28ef e8bd e0c3 25bd
000002a0: 7eff 24be 9da3 4dbc 2ede ddbe f8c5 fb3d
000002b0: 368d 873d 7f69 38be b464 76bd 742a 07be
000002c0: 085f 6f3e cec9 dd3d 0dd6 d8bc 6b30 17be
000002d0: 0ac8 9abe e78f df3d e8b9 85be 79a8 843e
000002e0: d84b b6be 6794 f93d 6ae4 783e 9cd5 42be
000002f0: 5e88 9bbd d644 0c3e a896 963c 1012 3abc
00000300: 65e0 42bd 1f76 523d fef2 d73c 6085 0dbe
00000310: 3f52 a13e 8fe7 093e 20b6 e4bd 771b 3c3e
00000320: ecdb 8ebd ed93 5cbd fa14 ee3d 6c2f 07bd
00000330: 35c4 48be e493 1c3e 9083 033c dd55 933e
00000340: ff28 e13b 68b7 e73d 37b1 1abc 44cc 95bd
00000350: ea61 1fbd 25f9 a03d 6235 d8bc 7f13 f8bd
00000360: 54ef 153e 821c 38be f76d 2e3e 0b64 8b3e
00000370: 0dc9 993c aa60 54bd 0cbc 45bb 365b bebd
00000380: 1a56 58bb 7aa4 54be 53a7 bdbd d255 ef3d
00000390: dddd e73d 5897 a4be 357a 413e c96b 2ebe
000003a0: 08d5 59be b7fa fcbd ca20 b1be 9b2e 8bbd
000003b0: ff88 69be 947f 1b3e b985 8f3d 8d75 a83e
000003c0: edd8 65be 171a 25be 6bb6 f2bd 16b8 d8bd
000003d0: 1240 463e 69d3 a6bd b59d b73d 6f38 803d
000003e0: 16fb d6bd b257 5e3d 3196 bd3e 78df 683e
000003f0: f515 c1bc c313 6cbe 58c0 e6bd f985 57be

layers.3.bias f4 [32]
0.120267674 -0.12911469 -0.14639634 -0.27821273 0.17187534 0.029543431 0.17190595 0.04927059
0.18340844 0.2504444 -0.11598314 0.17040808 0.16207753 0.09329724 0.074913315 0.07769386
0.19152768 -0.19164594 -0.22989124 0.20167518 0.039800975 -0.16477028 -0.052056205 -0.01967695
-0.032374017 0.03670266 0.06576868 0.15975276 0.0045782835 -0.053420167 0.12701349 0.10168262
00000000: e64e f63d a436 04be ece8 15be e671 8ebe
00000010: 1700 303e 1105 f23c 1d08 303e f5cf 493d
00000020: 6ccf 3b3e 403a 803e 9288 edbd 757f 2e3e
00000030: a7f7 253e a012 bf3d 276c 993d f51d 9f3d
00000040: d51f 443e d53e 44be 9c68 6bbe f083 4e3e
00000050: 5906 233d 8ab9 28be e338 55bd 8e31 a1bc
00000060: 9e9a 04bd 8755 163d bbb1 863d 3a96 233e
00000070: 6d05 963b 1bcf 5abd d30f 023e fa3e d03d

out.weight f4 [3, 32]
-0.13928148 0.15493242 -0.2469203 0.11417142 0.05690677 0.07859576 0.009643671 0.35656065
0.13806488 -0.3905644 -0.4209538 0.37515554 0.14529018 0.08752225 -0.09803651 -0.006885558
-0.09248431 0.21090935 0.28978318 -0.26623836 -0.061317828 0.003110612 -0.10025599 0.50421846
-0.13111512 -0.2935438 -0.26914418 0.18851177 0.21414232 0.1426915 0.13324049 0.2567577
0.046729524 0.46187168 0.18727946 0.13219029 0.20252638 -0.07911623 0.11008456 0.3097585
0.20117003 0.1724882 0.6257424 0.09058385 -0.36086586 -0.022138376 0.008527768 -0.4049159
0.04161273 0.1727601 0.12981975 -0.193564 0.3419431 0.20883785 -0.11753354 -0.38986394
-0.028665 -0.07542275 -0.10262272 0.3123018 0.17085947 -0.18599491 0.099808976 0.05740071
-0.2779424 -0.19291846 -0.002907069 0.14736132 -0.26991573 -0.15665795 -0.113505326 -0.22633456
-0.22954318 0.012650789 -0.010101021 0.15439041 0.28990585 -0.07252461 0.22197342 0.12463147
-0.18135676 0.2909305 -0.20648247 -0.3163499 -0.18201785 0.24494131 0.20711812 -0.06397521
0.22784884 0.19274125 -0.27682215 0.01830426 0.30296847 -0.34206197 -0.17129846 -0.14969559
00000000: ce9f 0ebe 9ba6 1e3e add8 7cbe b5d2 e93d
00000010: 1317 693d d0f6 a03d 7d00 1e3c 1e8f b63e
00000020: e160 0d3e 0ff8 c7be 4287 d7be 6314 c03e
00000030: f3c6 143e de3e b33d 5ec7 c8bd 3fa0 e1bb
00000040: 6a68 bdbd 9ff8 573e 765e 943e 6550 88be
00000050: 6728 7bbd 69db 4b3b 0353 cdbd 7614 013f
00000060: 0b43 06be 5f4b 96be 44cd 89be 3b09 413e
00000070: 2048 5b3e b81d 123e 3270 083e bf75 833e
00000080: 7567 3f3d 727a ec3e 30c6 3f3e e45c 073e
00000090: 1363 4f3e b107 a2bd 0474 e13d ab98 9e3e
000000a0: 84ff 4d3e bfa0 303e a730 203f 0784 b93d
000000b0: 69c3 b8be 8a5b b5bc 0db8 0b3c 2351 cfbe
000000c0: 1c72 2a3d 06e8 303e 78ef 043e a435 46be
000000d0: 2a13 af3e 97d9 553e 6db5 f0bd 3f9c c7be
000000e0: ddd2 eabc 3e77 9abd dc2b d2bd 06e6 9f3e
000000f0: c9f5 2e3e 7375 3ebe a668 cc3d 021d 6b3d
00000100: 774e 8ebe 6b8c 45be 8684 3ebb e3e5 163e
00000110: 6532 8abe f16a 20be 7b75 e8bd 3fc4 67be
00000120: 5e0d 6bbe 4145 4f3c c17e 25bc 8518 1e3e
00000130: 8a6e 943e c887 94bd 004d 633e c93e ff3d
00000140: 96b5 39be d8f4 943e 2470 53be 9df8 a1be
00000150: e362 3abe e5d1 7a3e c616 543e 6f05 83bd
00000160: 3551 693e f65d 453e a2bb 8dbe d1f2 953c
00000170: af1e 9b3e bf22 afbe dd68 2fbe cd49 19be

out.bias f4 [3]
0.098103195 0.028803855 -0.20044602
00000000: 54ea c83d 10f6 eb3c b941 4dbe
