Region 1 B-Field Trained On Boundary (32, 4).pth (torch, 17982 bytes, 10 tensors)

layers.0.weight f4 [32, 3]
000000 5c e5 01 bd 20 e4 9f 3c 96 72 9c bc 24 db 18 3e
       -0.031712875 0.019517958 -0.019097608 0.14927346
000010 64 d8 99 3e bc 1e 40 3f df 32 40 3e 2b f0 b9 be
       0.30047905 0.75046897 0.18769406 -0.36316046
000020 d2 c7 e5 3e 5c 7d 07 3d 7b 4e 84 3c c3 f7 1a 3f
       0.44879013 0.033078536 0.016150704 0.60534304
000030 61 80 e1 be 89 7f 2c bd 63 d0 80 3e 72 fe a8 bd
       -0.44043258 -0.042113815 0.25158986 -0.082516566
000040 03 10 ff bc 00 a2 e8 3e d6 dc 82 3e de f8 7c bd
       -0.031135565 0.45436096 0.2555911 -0.061760776
000050 9e ba 55 3f 45 28 10 3d 17 42 da bd 12 f1 0f 3f
       0.8348788 0.035194654 -0.10657137 0.5622722
000060 e9 ec ef be 77 7c 47 3d 05 3b e3 3e 12 54 43 bf
       -0.46860436 0.048702683 0.44380966 -0.76300156
000070 cd 41 24 bd 31 5a 08 3c d8 4e 9a bd 4f 1d cd 3e
       -0.040101815 0.008322285 -0.075345695 0.40061423
000080 ca a2 4c bf 70 b0 37 3d 9c 17 d1 3d cb 31 76 be
       -0.79935896 0.044846 0.10209581 -0.24042432
000090 1e 11 84 3e 2d 18 5d 3d 7e 5e f4 3e dd db 6b be
       0.2579431 0.053978134 0.47728342 -0.2303309
0000a0 82 3b 34 bc 6e d9 37 be c7 e0 d7 3d 3d 31 8d bd
       -0.011000516 -0.17954037 0.1054092 -0.06894157
0000b0 33 a0 6b bd 16 bb 84 3a 8b ed 99 bb 5e b7 85 3b
       -0.057525825 0.0010126557 -0.004697507 0.004080697
0000c0 6b 3e cc 3d 73 72 16 be 11 4b 41 be c3 63 4b be
       0.09972843 -0.14692096 -0.18876292 -0.19862275
0000d0 34 a5 58 be 9b e2 10 3e 3e 9c 58 3e a5 3b df 3e
       -0.2115677 0.14148943 0.21153352 0.43600193
0000e0 a7 57 00 bf a2 55 7f bc 37 01 b8 3e 7e c2 85 3e
       -0.50133747 -0.015584381 0.35938427 0.26124948
0000f0 e7 4a b7 3d 24 29 57 3d 13 43 bc 3c 55 a0 85 3d
       0.08949833 0.05252947 0.022981202 0.065247215
000100 cd dd 2e 3c 48 b5 2e bf 35 7b 37 3d ea 66 f2 3d
       0.010672999 -0.68245363 0.044795234 0.118360355
000110 fc df 89 bd 6d 77 bf be 63 72 a6 3d a3 f5 3b 3f
       -0.06732175 -0.37395802 0.08127286 0.73421687
000120 69 57 dd bd 57 5a 59 be e5 66 68 3f fa 8e bc be
       -0.10807688 -0.21225868 0.90782005 -0.36827832
000130 d6 81 b1 3e f2 fe d4 bd 82 86 d7 bc 76 19 6a 3c
       0.3466937 -0.104001895 -0.026309256 0.014288297
000140 a2 fc bd 3e a8 40 97 be fd 39 48 3e a5 7d 4c 3f
       0.37106806 -0.29541516 0.19553371 0.7987922
000150 4d 00 a7 3e 97 5d 24 bc 42 c9 dd 3e bd 61 9e be
       0.32617417 -0.010032079 0.4331761 -0.30933943
000160 0a 21 22 3c ca e3 89 3d f4 e1 81 3b ea 14 32 3d
       0.009895572 0.067329004 0.0039637033 0.043476976
000170 30 cb 4d 3f 74 b4 a4 3c 14 f0 c9 be f8 1e 4b 3e
       0.80388165 0.020105578 -0.39440978 0.19836032

layers.0.bias f4 [32]
000000 6d 82 f8 3e 07 c6 3a 3e b6 50 8b 3f 13 49 90 bb
       0.48537007 0.18239604 1.0884006 -0.0044032424
000010 f6 3f 48 3f 70 6e 28 bf 58 69 17 3e 1e bf e5 bd
       0.78222597 -0.65793514 0.14786279 -0.11218093
000020 6d 3e 7a 3f 67 3f b3 be 7f fd 0a bf 68 ec 26 3f
       0.97751504 -0.3500931 -0.54293054 0.6520448
000030 6f 0e 8a 3e 93 ac a9 3e 20 59 52 3f 62 d4 70 bf
       0.26964137 0.33139476 0.82167244 -0.9407407
000040 d9 ae 71 3d 7d d3 0a 3f a7 3d 99 bf bd 4d 75 3f
       0.05900464 0.54228956 -1.197194 0.95821744
000050 94 63 f1 3d c3 71 2a 3f 58 00 43 3f 00 78 f3 3e
       0.11786571 0.66579837 0.761724 0.4755249
000060 74 0e a9 bc 45 f6 08 bf 42 99 8f bd 80 e6 4c 3f
       -0.020636775 -0.5350078 -0.070116535 0.80039215
000070 e5 c6 2b 3f ed c6 a2 3e 88 6e 23 bf e0 07 64 3f
       0.67100364 0.31792393 -0.6384053 0.89074516

layers.1.weight f4 [32, 32]
000000 0c 92 1e 3e 18 c2 aa bd 7c 03 f3 3d 93 42 bd bc
       0.154854 -0.08337802 0.11865899 -0.023103034
000010 22 2b 2c 3e ff 2d 2e be 2c eb e9 bd 01 79 12 3d
       0.16813329 -0.17009734 -0.114218086 0.03575993
000020 d0 35 29 3e 1c 23 1c be f6 1c 95 3c 94 4b ac 3c
       0.16524434 -0.15247768 0.018202286 0.021032132
000030 0d c7 32 3c f4 a6 35 3e fa df 86 3e d1 8f 88 3e
       0.010911715 0.17739469 0.26342756 0.26672223
000040 33 2a 26 3e 5f 24 b7 3d be 81 fa bd db 91 f5 3c
       0.16227035 0.08942484 -0.122317776 0.029976776
000050 be 92 4a be b7 50 6c 3d 1d 82 1a 3e 30 56 87 3d
       -0.1978254 0.057694163 0.15088697 0.06608236
000060 80 96 d6 3d 07 7c 62 3c c2 9e 35 bd db bd 12 bd
       0.10477924 0.013823516 -0.044340856 -0.03582559
000070 48 a4 d1 3d 0d 6b 30 3e 22 09 5a bc a4 9d 44 3e
       0.10236412 0.17228337 -0.0133078415 0.1920076
000080 63 f1 57 3e 21 5a cc 3d ca 63 80 bd 8e 66 1c be
       0.21088175 0.09978128 -0.06269033 -0.15273497
000090 47 c9 16 3e 8e 99 69 be 06 86 22 3c 36 e6 d8 3d
       0.14725219 -0.22812483 0.009919649 0.10590784
0000a0 bd e4 c0 3c 17 7c 1b 3e 64 5b 2e be 2a 8a 20 3e
       0.02354657 0.15184055 -0.1702705 0.15677705
0000b0 58 b9 8e 3d 1b 01 b6 bd ad 02 8a 3e 3d 72 35 3e
       0.06968945 -0.088869296 0.26955166 0.1771936
0000c0 19 bd 2d 3e 5f ce 02 3e db e9 0f be 4a 61 c4 3d
       0.16966666 0.12774037 -0.14054053 0.09588869
0000d0 d5 ae 4f be ee e0 3d 3e 6e ef 3b 3d 32 f7 6a bd
       -0.20281537 0.18542835 0.045882635 -0.05736465
0000e0 7e d7 bd bd 38 30 7b bd a1 03 38 be 3d 1b 54 bd
       -0.092696175 -0.06132528 -0.17970134 -0.05178379
0000f0 f2 89 cc bc 8b eb a1 bd 4a 33 33 3d 6c 94 52 3e
       -0.024968121 -0.079062544 0.043750085 0.20564431
000100 7a 91 d2 3c 4c b8 06 be 85 db c3 3d 47 e9 18 be
       0.025704134 -0.13156241 0.095633544 -0.14932738
000110 4a 2a eb 3d 5b 5f 4f be 81 c9 01 be bc e5 ba bc
       0.114826754 -0.20251219 -0.12674524 -0.022814624
000120 ec 9b 93 3d 23 0c f2 3d cf 78 1f be ef 8c 28 3e
       0.07207474 0.11818721 -0.15573429 0.16460012
000130 a1 ea c9 bd 29 c5 a7 bc c6 94 3b 3e ed d8 d2 3e
       -0.09859205 -0.020479755 0.18318471 0.41181126
000140 7c 0e 2e 3e 6a 71 ca bd 2b 38 27 bd 20 a7 87 bb
       0.16997713 -0.09884913 -0.04082505 -0.004139796
000150 87 10 fa bc e7 ac 24 bd c5 5d 39 3d 10 8a e9 3d
       -0.030525459 -0.040203955 0.04525544 0.114032865
000160 a6 70 9f 3d bc 8f 41 3e 4e 85 30 3d 9f 5f 0d be
       0.07785158 0.18902487 0.04309588 -0.13806008
000170 bc 41 cb bc 68 30 05 3d 8f ce 7b bd 46 ea c8 3d
       -0.024811618 0.032516867 -0.061476287 0.09810309
000180 3c fe 26 3e 15 f5 66 3d 36 e9 eb bd 88 78 f8 bd
       0.1630792 0.056386072 -0.11519091 -0.121323645
000190 42 03 27 3e fa 18 a8 ba 53 cc 4f 3d 3e f4 20 be
       0.16309837 -0.0012824826 0.050731968 -0.15718171
0001a0 e7 56 65 3d d3 5c e1 3d cf f8 fc bc 06 1b c3 3d
       0.05599108 0.11004033 -0.03088036 0.09526639
0001b0 40 31 29 be 55 73 1f be 66 9a 14 bc 6d 34 03 3f
       -0.16522694 -0.1557134 -0.009070015 0.5125187
0001c0 98 dd 35 3e 7d ed 40 3c 84 d0 c1 bd 21 25 21 3e
       0.17760313 0.011775372 -0.09463599 0.1573682
0001d0 a0 35 02 3c c4 b8 59 3d e9 a4 94 3e 99 77 86 bc
       0.0079473555 0.05315472 0.29032066 -0.01641445
0001e0 6c 5f 2b be aa e9 b6 3d 5b a7 f1 3d 92 f9 97 3d
       -0.1673562 0.08931287 0.11799499 0.07420649
0001f0 5d 28 dc 3d ac 40 a0 3d 4f b4 5e be d3 63 eb 3d
       0.10749886 0.07824835 -0.2174847 0.11493649
000200 c6 c5 85 be 35 d2 ea 3d 0f 26 39 be ed 88 0f 3e
       -0.26127452 0.11465875 -0.18080924 0.14017077
000210 dc e1 0d ba fe ac 2f 3e cf d1 11 be de 8c 67 bd
       -0.0005412379 0.17155835 -0.14240192 -0.056530826
000220 3d cc 8f b9 51 5e eb bd 36 8e 4f 3e 88 66 77 be
       -0.00027427255 -0.11492599 0.20269093 -0.24160206
000230 29 11 cd bd b8 11 fb bd f4 f2 4a be 7e ae dc be
       -0.10013039 -0.12259239 -0.19819242 -0.43101877
000240 e9 20 e9 bb 01 e0 fe bd b9 2c ad bd d6 35 1e bd
       -0.007114519 -0.12445069 -0.08455796 -0.03862556
000250 61 b5 3f 3e 1d b9 58 be 47 41 aa bd c6 53 5d bd
       0.18721534 -0.21164365 -0.08313232 -0.05403497
000260 64 f0 da 3d a0 b3 c2 bd 79 9a ec 3d 5a 4e 38 be
       0.10690382 -0.09506917 0.11552901 -0.17998639
000270 13 ff 8f bd da fd 1a 3d ed ec 21 bc 7a 28 1c be
       -0.070310734 0.037839748 -0.009883148 -0.15249816
000280 bf bd 29 be b3 b8 0d bd 15 09 1f bd ee c6 62 3e
       -0.16576289 -0.03459997 -0.03882702 0.22146198
000290 0f dd f8 3c d6 ed 4f bd 79 fe ca 3d 82 47 13 3e
       0.030378846 -0.050763927 0.09911818 0.14382747
0002a0 aa 6c 8a bd 10 e6 ee 3c 4e 3e b4 bb 49 9e 4d be
       -0.06759007 0.029162437 -0.0055005914 -0.20079912
0002b0 74 6d c5 3a 57 6e f2 3d d0 6c 5f be aa c1 89 be
       0.0015062527 0.11837452 -0.21818852 -0.26905566
0002c0 9b 7f 1c be ab d7 06 3e e5 1d 9c 3d 35 e2 0a be
       -0.15283053 0.13168208 0.076228894 -0.13562854
0002d0 6a 10 c5 bd 24 44 d9 3d 9a 47 6e ba 49 25 23 be
       -0.09622271 0.106087 -0.0009089649 -0.15932192
0002e0 e8 31 22 be 77 9c af bc 5c 99 9c bd 22 a2 09 3d
       -0.1583935 -0.021436913 -0.076464385 0.033601888
0002f0 13 a8 32 bd 9f 91 bd bd 79 dd 70 3e 55 dc 17 be
       -0.04361732 -0.09256291 0.23521985 -0.14830144
000300 84 64 ee bd d2 51 55 bc 4a bb cf bc a8 6d 0a be
       -0.116402656 -0.013019996 -0.025357861 -0.13518393
000310 2d 52 db bd c6 67 ef bd 7f 68 a3 bd 26 a1 03 bd
       -0.10709033 -0.11689715 -0.079789154 -0.032136105
000320 d8 64 43 be 79 d9 f4 bc e2 f4 8a bd 61 f5 78 be
       -0.19081438 -0.029888855 -0.06784989 -0.24312355
000330 db bc 32 3e 82 1f 36 3c 24 67 0c be dc 20 e6 bd
       0.17454855 0.0111159105 -0.1371122 -0.11236736
000340 aa a3 17 3e 87 08 de bd 68 18 e9 bd b1 2b 9d 3b
       0.14808527 -0.1084147 -0.11381608 0.004796468
000350 17 bd 7e 3d 5b c4 4d 3d 13 9f 99 bd da ba cc bd
       0.06219205 0.050236087 -0.07501044 -0.099965766
000360 d5 21 d5 3d cc c3 f6 bd a7 40 ae 3d 46 a2 20 be
       0.104068436 -0.12049064 0.08508425 -0.15686902
000370 c9 04 ad bc 4b 18 42 bd 49 2d 91 3c 9e 52 05 3e
       -0.021120446 -0.04738645 0.017721789 0.13019797
000380 75 5c 22 be c6 2c 5d 3d 31 c8 f9 3d 58 2f 12 3d
       -0.15855582 0.053997777 0.121963866 0.03568968
000390 98 22 2f 3e 1c 19 21 be fa 1f bf bd 03 c9 38 3e
       0.1710304 -0.15732235 -0.09332271 0.1804543
0003a0 99 f5 5d bd d7 39 bb bd 76 3d 44 3d 3c 2e c8 3d
       -0.0541893 -0.091418914 0.047910176 0.097744435
0003b0 6e 9b 2c be e6 18 b1 bd ba cc bd 3d 5e 6f a1 be
       -0.16856167 -0.08647327 0.09267564 -0.3153028
0003c0 26 5b 31 3e d5 c0 2a 3e 25 11 0f be 95 d1 b0 bd
       0.17319927 0.16675122 -0.13971384 -0.086337246
0003d0 91 17 f6 3d ca 1e 15 bd 86 ba cc bd a5 92 81 3d
       0.12016214 -0.036406316 -0.09996514 0.06326798
0003e0 4e ed 2a be 6c e2 0d bd a7 01 f8 3d 15 5f a1 bb
       -0.16692087 -0.03463976 0.1210969 -0.0049246647
0003f0 b4 13 08 be 33 5f 67 bd e0 a8 61 bd 8c ff 33 3e
       -0.13288766 -0.056487273 -0.055092692 0.17577952

layers.1.bias f4 [32]
000000 0a 89 f5 3c 52 0e ce bc 97 f9 8a 3d 59 87 94 3c
       0.029972572 -0.025153313 0.06785887 0.018130945
000010 75 0c 84 bd fa da 52 3c 78 40 2c bd fa 3e 42 bd
       -0.064476885 0.012869591 -0.04205367 -0.04742334
000020 6e 95 95 bc dd 93 b0 3d 32 4d 2a bd 33 83 c5 be
       -0.01825973 0.08621953 -0.041577525 -0.3857666
000030 6b 01 9d 3d 06 69 61 3d 5a 0d 86 3d 59 c8 98 3d
       0.07666286 0.0550318 0.06545515 0.07460088
000040 6b 48 bc bc b5 2a 66 3e 38 07 4e be 56 c4 58 be
       -0.02298375 0.22477229 -0.20119941 -0.21168646
000050 20 78 19 be 35 a8 b3 3d 02 db 70 3e bb 1c 4d bd
       -0.1498723 0.08772317 0.23521045 -0.050076228
000060 9e 24 fb bd c7 03 b8 3c cb 2a 4d be b7 68 a5 bc
       -0.122628435 0.022462739 -0.20035855 -0.020191533
000070 fa 2e 50 bd 3c dc c3 3d 2b 98 ad 3d c4 49 45 be
       -0.05082605 0.09563491 0.08476289 -0.1926642

layers.2.weight f4 [32, 32]
000000 3a 97 80 be 7b 95 95 bd ae c3 d4 bd 85 8e 19 bc
       -0.25115377 -0.07303902 -0.103888854 -0.009372358
000010 04 79 f6 3d 01 65 d3 bd e5 a8 fb 3d 60 e9 03 be
       0.12034801 -0.10321999 0.122880735 -0.12881994
000020 d6 a5 b9 3d 1f 3c be bd 00 c3 58 3e 78 fa c1 3d
       0.09064834 -0.09288811 0.21168137 0.09471601
000030 6a cc fe 3c b5 b3 da bd 19 f8 37 be d9 de fc bc
       0.031103332 -0.10678808 -0.17965735 -0.03086798
000040 09 f8 00 bb 98 8b 28 bd f2 54 da bd 88 29 06 be
       -0.001967909 -0.041148752 -0.10660733 -0.1310178
000050 cf d6 74 3d 3a c3 59 3d e8 50 bc bd 05 10 9e 3d
       0.05977517 0.0531647 -0.09195119 0.07717899
000060 2b 10 e6 bd 7e 70 42 3d 51 8a 47 3d 37 36 42 bd
       -0.112335525 0.047470562 0.048715893 -0.047414985
000070 6f ab 33 3d ea 63 14 3e ac 41 93 bd 9d 93 ea bd
       0.043864664 0.14491239 -0.0719026 -0.11453936
000080 24 3b fa bd 21 09 e3 bc 60 21 7e be 9a 40 59 3e
       -0.122183114 -0.027714314 -0.24817419 0.2121605
000090 86 3f 93 3d cf 18 5d be eb f0 c9 bd 96 35 11 bd
       0.071898505 -0.21591495 -0.098604046 -0.035451494
0000a0 9a 82 2c be 63 50 bb 3d 9b 8c 52 3e ce 75 9b 3c
       -0.16846696 0.09146192 0.20561449 0.018977072
0000b0 18 89 ca bd 18 f7 d1 3d 87 74 63 3d 3f 07 fa 3c
       -0.0988943 0.102522075 0.05553105 0.030521033
0000c0 84 39 89 bd e3 c1 5c bc 71 81 2e bd ea 7e b4 3d
       -0.06700423 -0.013473961 -0.042603914 0.088132694
0000d0 0a 21 1f bd 28 61 6a 3e 4f 25 36 3e 6b d2 86 3e
       -0.038849868 0.22888625 0.1778767 0.2633241
0000e0 0b 1a 38 3d 92 4d 3c bc 3e 92 19 be 1d 95 7c bd
       0.04494671 -0.011493104 -0.14997193 -0.061665643
0000f0 9a 9f ff bc 5c dd b7 be 7b 29 8b be df 4f 7c 3c
       -0.031204034 -0.3591107 -0.27180085 0.015399902
000100 dd a7 cb bc c8 3a 04 bc d4 12 0a be 47 19 09 be
       -0.024860317 -0.008070655 -0.13483745 -0.13388549
000110 38 25 15 bd 4d 72 d3 3d c0 40 ba bd af bd f0 bd
       -0.036412448 0.103245355 -0.09094381 -0.11754929
000120 fc 94 fd 3d fb 0d 30 3d 35 b3 d6 3d 55 80 e2 3c
       0.12381932 0.042982083 0.104834 0.027649084
000130 81 06 07 be 4f 47 4a 3e bf 42 77 bd 90 4c 10 be
       -0.13186075 0.19753765 -0.06036639 -0.14091706
000140 97 7d 93 3d f0 f7 51 3e ff 83 ed 3d d6 b2 2b 3e
       0.07201689 0.20504737 0.11597442 0.16767439
000150 38 db 85 bd 2f 2f 2f 3e fe a9 92 bd dd 28 04 be
       -0.06535953 0.17107843 -0.0716133 -0.12906213
000160 06 15 d7 bc 31 16 bf bd 6d d1 0d be b5 c4 17 3e
       -0.026255142 -0.093304045 -0.13849421 0.14821132
000170 b9 30 d9 bd 41 41 85 be 3c 97 19 be 05 1c cc 3c
       -0.10604996 -0.26026347 -0.14999098 0.024915705
000180 42 3d 67 3d 56 cc 75 be 28 17 4d be b7 63 0a be
       0.056454904 -0.24003729 -0.20028365 -0.135146
000190 72 6e 1c 3e 40 08 23 3e 66 a1 7a bd 90 4f 68 3d
       0.15276507 0.15921116 -0.061189078 0.0567165
0001a0 08 73 ba bc 2a 98 94 bd 3b ee 42 bb 83 9c 83 bd
       -0.02275993 -0.072555855 -0.0029744047 -0.064263366
0001b0 cd 7f 72 3d aa 94 8c bd 12 66 74 3e ec 4e b2 bd
       0.05920391 -0.06864293 0.23867062 -0.087064594
0001c0 5a 3b 79 3e 7e 7e 8b 3d fa 3e 94 3e d1 31 26 3e
       0.24339047 0.06811236 0.28954297 0.16229941
0001d0 e7 e3 e0 3b 07 6e ba be d7 b1 48 bd 7c 07 94 be
       0.0068631056 -0.3641207 -0.048997726 -0.2891196
0001e0 da a5 b6 3d bc 05 55 be 7b f5 2a 3e 95 8b 60 be
       0.089183524 -0.20802969 0.16695206 -0.21928246
0001f0 7a a4 01 bc 70 8f f2 3d d5 22 15 bc 56 0f d3 bc
       -0.007912749 0.11843765 -0.009102543 -0.025764149
000200 de 8a a6 be bb 44 03 be 03 9e d0 bd e8 cc a5 3d
       -0.32527822 -0.12819187 -0.10186388 0.080957234
000210 6f 9e 7a 3e 1d 0f 13 be cd 88 3a bb 60 3e 9e be
       0.244745 -0.14361234 -0.0028462887 -0.30906963
000220 dc aa 8d bd 17 ab 3b 3d e9 4c c3 3d 89 81 33 3e
       -0.069173545 0.04581746 0.09536154 0.17529882
000230 f8 3d 85 bd f6 6f 11 3e 9f 8f 26 bd f6 5c 34 bd
       -0.0650596 0.14202866 -0.04066431 -0.044033967
000240 68 41 93 be 02 fe b9 3c dd 07 ed 3c 67 9d f3 3b
       -0.28760839 0.022704128 0.028934414 0.0074345353
000250 7d ae 79 3e 92 c2 6a 3e 38 9b d7 bd a7 da ca bd
       0.24382968 0.22925785 -0.105276525 -0.09904986
000260 36 07 34 bd e4 f5 0f 3d 8c 3c 15 3e 64 2e a2 bd
       -0.04395219 0.03514661 0.14573878 -0.079190046
000270 14 a1 b3 3d 94 78 c4 bd 37 a3 df 3d b2 b6 80 be
       0.087709576 -0.09593311 0.10919803 -0.25139385
000280 99 d4 97 be 01 51 fe bc 68 9d ea bd 0c 6f 50 3e
       -0.29654387 -0.031044485 -0.11455804 0.20354861
000290 40 3b 07 be fe 6a 67 bb 0e 9f 83 bd 7d 4f 90 bd
       -0.13206196 -0.0035311575 -0.06426822 -0.07046411
0002a0 68 7a 49 3e 75 f5 36 3d e1 18 db 3c 29 be 97 3e
       0.196756 0.04466768 0.026745262 0.29637268
0002b0 3c e3 53 be 4d 55 74 be 67 1f 8f 3d 46 cc 94 bd
       -0.20692152 -0.23860665 0.069884114 -0.072655246
0002c0 6a 6f 77 3d b7 48 8b be 76 9e 20 bd 21 e9 4a 3e
       0.060408987 -0.27203915 -0.03921362 0.19815494
0002d0 8a cc 76 3e 2e 6f b7 3d 56 07 2b 3e 1a 42 77 3d
       0.24101463 0.08956753 0.16702017 0.060365774
0002e0 04 e6 52 3d ad 59 9c bb 61 e1 6d 3e 8d c7 b9 3c
       0.05148889 -0.0047714324 0.23230506 0.022678161
0002f0 a4 ab b0 bc 07 f5 c6 3d 44 76 90 bb 43 29 85 3d
       -0.02156622 0.09714704 -0.0044086296 0.06502011
000300 8b 98 59 3e 93 69 5c 3d fe 6c a3 bd 9b 99 52 3e
       0.21249597 0.05381162 -0.07979773 0.20566408
000310 81 37 ed bd bb 7d 0f be 3e a9 20 bd 05 61 4b 3d
       -0.11582852 -0.14012806 -0.039223902 0.049653072
000320 34 f1 2e bd e9 73 9e 3d e1 58 aa bd 2e d2 f7 3c
       -0.042710498 0.07736952 -0.083177336 0.030251589
000330 58 a7 b5 bc d6 90 8d bc 67 d2 2b be 34 36 1c be
       -0.022174522 -0.017280977 -0.16779481 -0.15255052
000340 8c 24 40 3d 0a 7c ac 3d 2e cd 71 3d 8d 3e 12 bc
       0.046909854 0.08422096 0.059033565 -0.008926046
000350 76 cd 01 be d7 84 85 3d 07 e9 3c 3e 2b 08 bc bd
       -0.12676033 0.06519478 0.18448268 -0.091812454
000360 29 ad 46 be ca 23 4e 3e a6 a8 39 3e 82 0f 9b 3d
       -0.19401993 0.2013084 0.1813074 0.07571317
000370 d3 e6 94 3d 44 2c 2b be dd e4 df bd 9b 01 91 be
       0.07270589 -0.16716105 -0.10932324 -0.28321537
000380 05 d4 3b 3e 9f 90 47 3d 1c 8c 1d bb 09 0c 06 3d
       0.18342598 0.048721906 -0.002403981 0.03272632
000390 55 21 b5 bc 46 0d c1 3c 6c da af bd cd 2a 87 3d
       -0.02211062 0.0235659 -0.085865825 0.065999605
0003a0 d5 97 5e 3e 8b 60 67 bc 6e 4a 63 bd 18 e4 c0 bc
       0.21737607 -0.014122139 -0.055490904 -0.023546264
0003b0 48 04 34 be 42 4b 9c bd 46 34 3d 3d cf e2 2f 3d
       -0.17579758 -0.07631542 0.04619243 0.04294091
0003c0 ae 50 18 bd 80 a1 08 3e 1e 3d a6 bc de 49 87 3e
       -0.037186317 0.13342857 -0.020292815 0.26423544
0003d0 54 eb c3 3d 53 62 83 3d 04 12 0b be 44 4a ed bd
       0.0956637 0.06415238 -0.13581091 -0.11586431
0003e0 13 fc ad 3d 03 a6 31 3e 0d 20 83 bd 37 b1 f9 3d
       0.08495345 0.17348485 -0.064025976 0.12192004
0003f0 fa 15 46 3e 60 72 1f be 6c 9f 26 3e 12 b2 0e 3e
       0.19344321 -0.15570974 0.16271752 0.13935116

layers.2.bias f4 [32]
000000 d6 34 37 be b1 f6 02 bb ec df 2c be 63 0d f6 bd
       -0.17891249 -0.0019983465 -0.16882294 -0.12014272
000010 4f ba 56 bd e9 08 82 be 58 83 31 3e 97 44 4a be
       -0.05242377 -0.25397423 0.1733526 -0.19752727
000020 4a 80 b5 3d ff f2 c2 bd 1b 48 c4 3d 86 72 36 be
       0.0886236 -0.09519004 0.095840655 -0.17817125
000030 95 26 8b 3d a4 f2 cb bb 1e 98 2c bd de 7f b4 3c
       0.06794468 -0.0062239934 -0.042137258 0.022033628
000040 3f f1 50 be ee 98 3c bc 6f 26 c3 bc 20 1a 39 3e
       -0.20404528 -0.011511071 -0.023822038 0.18076372
000050 60 93 5e 3e 30 fc c1 3c db f9 10 be 32 91 6f be
       0.21735907 0.023679823 -0.14157812 -0.23395231
000060 5d 54 5d bd d1 d2 0b 3d 7d c1 36 3e 46 d6 0b bd
       -0.054035533 0.034136597 0.17847247 -0.034139894
000070 5d fa 6c be 23 e6 13 3e 0c 3f 77 3d 19 e9 4a 3e
       -0.23142381 0.14443259 0.06036286 0.19815482

layers.3.weight f4 [32, 32]
000000 38 20 0c 3e 16 dd 84 3d ac ae 3b bd bb 95 e7 bd
       0.13684165 0.06487481 -0.045820877 -0.11307856
000010 23 44 62 3e b9 b7 83 3e 1c c1 a3 3d 25 77 b8 bd
       0.22096305 0.25726107 0.07995817 -0.090071
000020 5a 3c 09 3e 03 a7 11 3d e1 11 c8 bc ff 4f db bb
       0.13401929 0.035559665 -0.024422588 -0.006692886
000030 0e 47 34 be 33 68 03 3d d2 5a d2 3d e3 89 5e be
       -0.1760523 0.032081794 0.10271229 -0.21732287
000040 4a f0 0e bd 4a 23 7a 3c 51 ba ee 3d 23 f9 0d 3d
       -0.034897126 0.015267203 0.11656631 0.034661423
000050 5c bd 23 be db f3 f8 3d 5f 7d fc 3d ab dc 24 3e
       -0.15990204 0.12155887 0.123286 0.16099803
000060 72 c4 b5 3d 38 31 81 3e bd 72 61 be 51 6f b4 bd
       0.088753596 0.25232863 -0.22016425 -0.088102944
000070 73 32 c4 3d 78 84 54 3d 8d cc 4c bd d7 28 1d be
       0.09579935 0.051884145 -0.049999762 -0.1534761
000080 75 50 d6 bd 98 1e 75 3d b6 f7 51 bd ec 98 ce 3d
       -0.10464565 0.05984363 -0.051261626 0.10087761
000090 20 66 b1 bd f6 b5 a0 3a 48 4e 8b be 40 ca 1b 3c
       -0.08662057 0.001226126 -0.2720816 0.009508669
0000a0 e4 39 53 3e 9e 6d f8 3d 01 66 36 be c4 13 a9 3e
       0.20627552 0.12130283 -0.17812349 0.33022892
0000b0 f5 3a ea bd 9d df 56 bc 65 cb 75 be 95 17 7f 3e
       -0.114370264 -0.013114837 -0.2400337 0.2491134
0000c0 12 b4 54 3d 5a f2 38 3a 89 6b 03 be bd b1 b5 be
       0.05192954 0.0007055156 -0.1283399 -0.35487166
0000d0 af dc b2 3d 5b 08 7f be 74 58 d9 bc 8b 07 14 be
       0.08733498 -0.24905531 -0.026531436 -0.14456002
0000e0 d5 fd e3 bd 0f 3b be 3e 18 42 7a be b5 f9 0a 3c
       -0.11132399 0.37154433 -0.24439275 0.008482386
0000f0 ec 8e 67 3b 75 11 2e be d8 aa bf 3c 7d d5 dd 3d
       0.003533299 -0.16998847 0.023396894 0.10831735
000100 c0 5d 6a bd 3f 07 73 bd 21 9f 7e 3d 48 0b af 3e
       -0.057218313 -0.059333082 0.062163476 0.34188294
000110 40 bf 9d bc b9 79 16 3d 9f 32 1f be 3e c0 1e 3d
       -0.019256234 0.036737178 -0.15546654 0.038757555
000120 11 ae 45 3d a7 0c 2d 3e 70 a4 54 be fa cb 99 3d
       0.048261706 0.16899358 -0.20765853 0.075096086
000130 72 8f 8d bd a8 36 55 be 11 48 f8 3d 8b f1 c4 3d
       -0.06912126 -0.20821631 0.121231206 0.09616383
000140 71 12 30 be a1 8e b5 bd 1a 51 74 3d 15 17 b1 be
       -0.17194535 -0.08865095 0.059647657 -0.34587923
000150 b0 17 1c be 80 21 bf 3d 6b 77 0b 3e c7 af ea 3d
       -0.15243411 0.093325615 0.13619773 0.11459308
000160 32 6e 74 bd b2 d4 7d 3e 47 50 0b bc 31 26 17 3d
       -0.059675403 0.24788168 -0.008503026 0.036901657
000170 e2 f1 a2 3e 6f 07 61 bc 90 d6 8c be f4 29 0f 3d
       0.31825167 -0.013734682 -0.27507448 0.03495212
000180 a5 33 83 3e 67 e1 bf bc a6 30 8d bc a1 75 68 bc
       0.2562534 -0.02342291 -0.017235111 -0.014188201
000190 98 03 58 bd b7 77 59 3e 80 d9 5d bd 31 1d 35 3e
       -0.052737802 0.21237074 -0.054162502 0.17686917
0001a0 68 8c 0f be ea da 32 be 6b 66 b2 bd 03 28 28 be
       -0.14018404 -0.17466322 -0.08710941 -0.16421513
0001b0 c7 52 34 3d 0b de 03 bd f5 43 12 3e 86 b4 29 bd
       0.044024255 -0.03219418 0.14283736 -0.041431926
0001c0 87 c4 86 3d b3 5e db 3d ec 3e 38 3e d8 27 4c be
       0.06580453 0.10711422 0.17992753 -0.19937074
0001d0 9d 91 38 be 06 c9 47 3d 4c 9b a0 3b 23 d4 2a 3e
       -0.18024297 0.048775695 0.0049013253 0.16682486
0001e0 b9 bb 8b bd 83 0a 0c 3e 01 ce de bd 7c 25 5b be
       -0.06822915 0.13675885 -0.10879136 -0.21401018
0001f0 f9 bd d0 bc a4 2d b7 bd 1a 8a 4a be 1b 45 94 be
       -0.025481211 -0.08944252 -0.19779244 -0.28958973
000200 64 ac 9a 3d a9 68 5c 3d b3 9c cc bd 89 42 18 3e
       0.07552412 0.05381075 -0.099908255 0.14869131
000210 ed 33 ec bd a0 8e b8 39 28 53 79 3d b8 cf bc bd
       -0.115333416 0.0003520148 0.06087032 -0.09219307
000220 4a 49 3f be ce 44 6c 3e 27 25 cb 3d 5a 0e 80 bd
       -0.18680301 0.23073122 0.099191956 -0.06252737
000230 1c 25 af bc df b3 8b bb dc 52 2a 3e 1f f5 a6 be
       -0.02138 -0.0042633857 0.16633171 -0.32608888
000240 d8 57 c3 3d 2a 2e 71 bd bb b0 77 3e 63 9a 31 3e
       0.09538239 -0.058881916 0.24188511 0.1734405
000250 73 64 41 be 54 dc 0e be ba 94 b1 bd cf e3 85 3e
       -0.18885975 -0.13951236 -0.086709455 0.26150367
000260 d7 14 5d 3e eb ec 95 be 00 eb a3 bd b3 a1 62 3e
       0.21589981 -0.29282317 -0.08003807 0.22131996
000270 ff 5b 63 be 27 3a fc 3d dd bc 86 3e 32 52 13 3e
       -0.22203062 0.12315779 0.26315966 0.14386824
000280 a4 fe 8a bc 2b d3 a6 3d 1d 29 a3 3a 41 93 f4 bd
       -0.016967125 0.08145746 0.0012448166 -0.11942149
000290 b9 f1 aa 3d d2 49 8c 3d 4c f3 63 3d 1f e0 26 be
       0.08346886 0.068500176 0.055651948 -0.16296433
0002a0 ad 3f 05 be 55 6c 10 3e 7e c2 fa 3d c2 ba 22 3e
       -0.13012572 0.14103825 0.12244128 0.15891555
0002b0 48 78 1c 3e 08 f5 e4 3d 39 fc 4c 3e 46 33 e1 bd
       0.15280259 0.111795485 0.2001809 -0.10996108
0002c0 3d b6 dd bd 0d 5c 2e be d7 8b ed bd ed b7 61 be
       -0.10825775 -0.17027302 -0.11598938 -0.22042818
0002d0 6d b7 a9 bc 9c 39 83 bd d2 65 70 bc e0 17 09 3d
       -0.020717347 -0.064074725 -0.014672713 0.033470035
0002e0 a8 cd 37 3e 11 df 8f 3d b2 b8 90 3d f8 d9 0f bd
       0.17949545 0.070249684 0.07066478 -0.03511998
0002f0 ea 24 03 3e 77 0d 2b 3d 08 da 94 be c3 bc bf 3d
       0.1280705 0.041760888 -0.29072595 0.09362175
000300 24 ad 22 bd 4e 15 98 bd 18 cf 1d be 3e c6 0f 3d
       -0.0397159 -0.074259385 -0.15411031 0.035101168
000310 43 24 81 3e 3e 1e 08 3d 41 6e 0d 3e 19 86 dc 3d
       0.25222978 0.033231966 0.1381159 0.107677646
000320 95 c7 17 be 3d 63 04 be 70 08 1c bd e3 b8 38 be
       -0.14822228 -0.12928481 -0.038093984 -0.18039279
000330 af 55 f4 bd 8e da 7e bd ab 50 68 3e 2e 49 b4 bd
       -0.11930405 -0.06222015 0.22687022 -0.088030204
000340 d4 c7 1b 3e c7 36 b4 3c df c9 d9 3d 03 b2 f7 3a
       0.15212947 0.021998776 0.10634207 0.0018897656
000350 62 48 4b be bf cb b9 bd ef 2c 01 3e 63 3f c5 bd
       -0.1985183 -0.090720646 0.12614797 -0.09631231
000360 b9 69 8a bb 29 ef 4b 3d 20 4b 1d 3e 1c b1 8f 3a
       -0.004224029 0.049788628 0.15360689 0.0010962817
000370 12 c1 bc 3d e2 a1 24 3e cd 69 68 be ab 5f 05 be
       0.09216513 0.16077378 -0.2269661 -0.13024776
000380 c8 55 2f be 06 3b 27 3e 0a 6f 90 3d ce 59 42 be
       -0.17122567 0.1633111 0.07052429 -0.1897957
000390 95 eb 58 be 68 fb d3 3d 09 42 86 3e 14 34 27 3e
       -0.21183617 0.10350686 0.26222256 0.1632846
0003a0 45 62 c6 bd 65 7e 80 3d 30 f0 00 be 3a 8f 83 bd
       -0.09686712 0.06274108 -0.12591624 -0.06423803
0003b0 ce 0b 0a 3b 6f 0e 5e 3e 0e ef 81 3d d8 86 62 be
       0.0021064165 0.21685193 0.06344424 -0.22121751
0003c0 d4 0f 3a 3e f2 bc 92 bc c7 b6 44 3e 84 0a 0e bd
       0.181701 -0.017912362 0.19210349 -0.034677997
0003d0 b7 b1 84 3d bc 9f 9f be 52 34 5b be 71 12 1f 3e
       0.06479209 -0.31176555 -0.21406677 0.15534379
0003e0 a6 d5 ca bc 0e c5 93 be 79 a3 91 bd c7 62 b0 be
       -0.024760079 -0.28861278 -0.07111258 -0.3445036
0003f0 db da 80 be 19 7b e9 bd a5 2a 8d 3e 24 1f 87 3d
       -0.25166973 -0.11400432 0.27571598 0.065977365

layers.3.bias f4 [32]
000000 97 0b a6 be 68 35 2f bd fb a0 b2 bc d5 43 1b be
       -0.32430717 -0.04277554 -0.021805277 -0.15162595
000010 08 de e4 bd 5f d2 45 be e4 20 7b be c7 74 ab 3d
       -0.111751616 -0.19318531 -0.24524266 0.08371883
000020 1d 48 3f 3e ef af 95 be 9e 3e 52 bd 56 78 3a bd
       0.18679853 -0.2923579 -0.051329248 -0.045524918
000030 0a 5f 92 3d a6 82 8b be a9 89 3c 3e 50 7a 8b 3d
       0.071470335 -0.27248114 0.18411888 0.06810439
000040 cd 31 a5 bc 2f fc 93 3e 0d d3 d2 3d 4b 35 b4 be
       -0.020165348 0.28903338 0.10294161 -0.3519691
000050 a1 7c 26 be b4 dc 19 3e 10 15 ee 3b 5f 99 9d bd
       -0.1625848 0.15025598 0.0072656944 -0.07695269
000060 83 c2 08 3d 1c 8f 93 3d 04 75 61 be 14 54 b8 be
       0.033388626 0.0720503 -0.22017294 -0.36001647
000070 c4 06 23 3e 3c 44 61 3d 08 f4 cb bb 63 87 8b 3d
       0.1592055 0.054996714 -0.006224159 0.06812932

out.weight f4 [3, 32]
000000 25 6f db 3c ec 9d 15 be 2d c9 61 3e 33 86 08 bd
       0.026786396 -0.14611024 0.22049399 -0.033331107
000010 dc af ca 3e 51 b9 77 3e a5 68 47 3e 12 49 2e 3e
       0.39587295 0.24191786 0.19473512 0.17020062
000020 e0 33 49 3e 01 9b 29 be 9d 27 d7 be f6 ee db be
       0.19648695 -0.16563036 -0.4202241 -0.4295575
000030 46 3c 44 bd 39 6f 65 3d d5 2b b7 bd a1 0c 89 be
       -0.047909044 0.056014273 -0.08943907 -0.26767448
000040 f5 c8 dd 3e e8 db 18 bd 11 a8 43 3e 57 d5 f8 3d
       0.4331738 -0.037319094 0.19107081 0.12150066
000050 0e 9b 6e 3e 82 f4 4c be 56 bc 98 bd ed b6 c2 3e
       0.23301336 -0.20015147 -0.07457797 0.38030186
000060 97 eb 3f be 57 eb b1 be 0e ba 57 3b 48 20 0e bd
       -0.18742214 -0.34749863 0.0032917294 -0.034698755
000070 ad cd 37 be c4 71 6d be db 42 cc 3c a6 b6 51 be
       -0.17949553 -0.2318793 0.024934223 -0.20479831
000080 c4 52 5d bc d4 53 a7 3e b6 e1 5c 3e c1 05 41 3e
       -0.013508502 0.32681143 0.21570477 0.18849851
000090 1f 3d 8f 3d 6f 95 c1 bd cd fc 2a be 66 17 29 3e
       0.0699408 -0.0945233 -0.16697998 0.16512832
0000a0 89 81 01 3e a5 aa 4b 3e bf 62 c6 3d cc a1 a6 3e
       0.1264707 0.19889314 0.09686803 0.32545316
0000b0 8d d6 92 3b b6 8b 4d 3d 7d e2 93 be 67 81 5b bd
       0.004481143 0.050182067 -0.28883734 -0.053590205
0000c0 cf 01 bb 3d 84 6a 17 be 8f 6a 18 be 28 d0 ea bd
       0.09131204 -0.14786726 -0.14884399 -0.11465484
0000d0 ea 53 1b 3e 4e a7 62 bd 32 07 e8 be 0e 90 97 3e
       0.1516873 -0.055335335 -0.4531799 0.29602093
0000e0 c5 e8 77 3e 0e 23 8b 3e 99 35 25 3e 21 6b 8a 3e
       0.24209888 0.27175182 0.16133727 0.27034858
0000f0 75 93 84 3d 0c 09 b5 3e b0 a5 8e 3e a7 96 b8 be
       0.06473438 0.35358465 0.27860785 -0.3605244
000100 40 78 7c 3e 61 1f ce 3d 55 2c ad 3e 75 e3 93 3e
       0.24655247 0.10064579 0.33822885 0.28884473
000110 e0 bd 17 be 69 5d fd 3d dd 83 4c 3e 91 cb a0 be
       -0.14818525 0.12371332 0.19972177 -0.3140531
000120 d9 c3 83 be 6f 59 5e 3e 5c 85 8f 3d 56 25 02 be
       -0.25735357 0.21713804 0.07007858 -0.12709555
000130 7c 6d 30 3e 34 58 58 3e 67 45 8e 3d 93 4e 65 3e
       0.17229265 0.21127397 0.06946831 0.22393255
000140 5b 64 c6 bd 97 80 91 be 5a d9 88 3e 33 0f 97 3e
       -0.0968711 -0.2841842 0.26728326 0.29503784
000150 c1 7a 7e bc 5a de 75 3e 16 83 67 3e f9 75 86 3e
       -0.0155321965 0.24010602 0.22608599 0.2626188
000160 12 4b 50 bd 76 45 19 bd 18 14 ab 3d 14 94 99 3e
       -0.050852843 -0.03741976 0.08353442 0.29995787
000170 69 9b 88 be 86 98 bf bd d3 bb 3e bd b2 92 96 3e
       -0.2668107 -0.093552634 -0.046565842 0.29408795

out.bias f4 [3]
000000 f8 59 bb 3d e4 e6 8c bc 21 15 62 bd
       0.091480196 -0.017199941 -0.05519593
